TradingGym/TradingGym_7700.pth (torch_old, 700040 bytes, 52 tensors)

conv0.0.weight f4 [256, 1]
000000 60 2f 5f 3f c7 f1 43 3f 7a 29 78 3f 0b 57 6e 3f
       0.87181664 0.765408 0.9693829 0.9310157
000010 47 ba a1 3f 2e c4 97 3f 25 68 15 3f b9 01 72 3f
       1.2634972 1.1856744 0.58362037 0.9453388
000020 62 1f 78 3f f9 54 69 3f 41 05 82 3f 37 56 7a 3f
       0.96922886 0.91145283 1.0157853 0.97787803
000030 0d f9 7f 3f e0 da 4c 3f 6d 08 1c 3f 1e dd 97 3f
       0.99989396 0.80021477 0.60950357 1.1864355
000040 8d 80 21 3f 1a ab 88 3f 99 15 26 3f e0 f9 8e 3f
       0.6308678 1.0677216 0.64876705 1.1170006
000050 b7 ca d2 3f ae f5 87 3f 92 be 57 3f e4 c7 8d 3f
       1.6468114 1.062185 0.8427516 1.1076627
000060 a8 c6 83 3f 56 fd 82 3f 24 2b 8a 3f 96 0f 86 3f
       1.0295 1.0233562 1.0794415 1.0473506
000070 78 a1 87 3f c6 e5 65 3f a0 f7 58 3f 68 1e c2 3f
       1.0596151 0.8980373 0.84752846 1.5165529
000080 f0 87 43 3f 75 b3 84 3f 87 46 6d 3f 59 93 89 3f
       0.763793 1.0367266 0.9268574 1.0748092
000090 85 f9 a7 3f f8 e4 88 3f e2 af 5c 3f 6e 67 6e 3f
       1.3123022 1.0694876 0.86205876 0.9312657
0000a0 9c d2 89 3f 9f 6b 4c 3f 75 af 9a 3f 6b 84 8e 3f
       1.0767398 0.79851717 1.2084795 1.1134161
0000b0 b1 af 5f 3f 8c 5d 6c 3f 3d f7 74 3f db 99 bf 3f
       0.8737746 0.9233024 0.95689756 1.4968828
0000c0 7d e7 35 3f 31 c4 8e 3f aa 1b 68 3f 7a be 56 3f
       0.7105635 1.1153623 0.9066721 0.83884394
0000d0 21 81 ca 3f 0f 48 89 3f bd 85 98 3f f3 a3 81 3f
       1.5820657 1.0725116 1.1915814 1.0128158
0000e0 b4 6c 52 3f dc 1b 93 3f c3 bb 86 3f 9b 60 86 3f
       0.8219712 1.1492877 1.052605 1.0498232
0000f0 15 ad 2a 3f 57 cc 7c 3f 30 50 83 3f 93 23 a1 3f
       0.6667035 0.987493 1.0258846 1.2588981
000100 30 72 54 3f 95 20 9d 3f a8 7e 8e 3f 8f 44 6c 3f
       0.82986736 1.2275568 1.1132402 0.9229211
000110 cd 25 a1 3f 24 d4 8e 3f ea 18 9d 3f 5c f7 75 3f
       1.2589661 1.115849 1.2273228 0.96080565
000120 0f 8e 86 3f b3 7a 99 3f b5 df 93 3f ee 32 93 3f
       1.0512103 1.199057 1.1552645 1.1499918
000130 53 e9 49 3f 09 62 8e 3f 19 98 8a 3f 3d ac 90 3f
       0.7887165 1.1123668 1.0827667 1.1302563
000140 1e 1d 51 3f f5 a7 ba 3f bd b2 75 3f 9b 4a 7b 3f
       0.81685054 1.4582506 0.9597586 0.98160714
000150 4a e2 9e 3f 7a 5f 84 3f 47 8b ae 3f da d5 55 3f
       1.2412808 1.0341637 1.3636254 0.83529437
000160 22 ce 7c 3f 65 df 85 3f 87 ea 94 3f ab fa 77 3f
       0.98752034 1.04588 1.1634072 0.96866864
000170 7b eb 4f 3f 87 e8 ad 3f d1 84 89 3f bd 03 9c 3f
       0.8121869 1.3586587 1.0743657 1.2188641
000180 7d c0 6c 3f 80 3b 8e 3f f5 70 70 3f a0 18 6f 3f
       0.92481214 1.1111908 0.9392236 0.9339695
000190 19 90 96 3f 40 0f 93 3f f5 eb 88 3f 96 03 aa 3f
       1.1762725 1.1489029 1.0697008 1.3282344
0001a0 f5 6a 46 3f 84 fc 1b 3f 68 10 9e 3f a7 8a 8e 3f
       0.77506953 0.60932183 1.2348757 1.1136063
0001b0 96 1f 36 3f ad c7 ae 3f 68 69 32 3f 91 a2 99 3f
       0.71141946 1.3654686 0.6969209 1.2002736
0001c0 21 dc 6e 3f 3f a9 90 3f c1 a9 7e 3f d7 53 93 3f
       0.9330464 1.130165 0.99477774 1.1509961
0001d0 2f ec a7 3f dd 03 84 3f 5c 1f 32 3f 5a 08 a3 3f
       1.3118953 1.0313679 0.695791 1.2736924
0001e0 f7 b3 98 3f e3 e7 55 3f 01 dc 96 3f 74 c8 9b 3f
       1.1929921 0.83556956 1.178589 1.2170548
0001f0 0e ae 2f 3f 94 57 aa 3f 6e d8 86 3f da c3 9c 3f
       0.6862496 1.3307977 1.0534799 1.2247269
000200 de a9 6e 3f cf 75 71 3f 9a 63 91 3f 38 b9 51 3f
       0.93227947 0.94320387 1.1358521 0.81923246
000210 72 a7 29 3f fa 34 84 3f 56 37 26 3f e3 7c aa 3f
       0.66271126 1.0328667 0.64928186 1.3319362
000220 df ef 9a 3f 8a 95 48 3f fe c1 ab 3f 86 3d 8d 3f
       1.2104453 0.7835318 1.3418577 1.10344
000230 29 92 8e 3e 6c fb 9e 3f ce 24 7d 3f d1 c9 51 3f
       0.27845886 1.2420478 0.98884284 0.8194857
000240 fc a3 86 3f 1a 3f 9e 3f 04 5e 84 3f 13 dd 74 3f
       1.0518794 1.2363007 1.0341191 0.9564983
000250 b1 1c 88 3f d0 ba 95 3f 8c 1b 63 3f 2b d4 9c 3f
       1.0633756 1.1697636 0.8871391 1.2252249
000260 5b ea 85 3f 0e 2d 68 3f d9 1b b1 3f 62 0b ac 3f
       1.0462145 0.9069375 1.3836623 1.3440974
000270 f6 ea 48 3f 57 2f 9c 3f 47 8f 8d 3f 4e ec 80 3f
       0.7848352 1.2201947 1.105935 1.0072114
000280 3d 1f 87 3f b7 2a 9c 3f 0f 93 9c 3f 39 25 87 3f
       1.0556408 1.2200536 1.2232379 1.0558234
000290 6d eb 07 3f e0 e9 8b 3f e2 82 2c 3f f9 30 89 3f
       0.53093606 1.0930748 0.6738721 1.071807
0002a0 d8 d9 2f 3f c8 da 58 3f c2 5b aa 3f 8b fb a7 3f
       0.6869178 0.84708834 1.3309252 1.312364
0002b0 95 2c 8a 3f da 05 a6 3f 63 8b 7b 3f dc 9d 6b 3f
       1.0794855 1.2970536 0.9825956 0.9203775
0002c0 a6 5e 8c 3f cc 6a 7a 3f 18 1a 5d 3f 3a c7 63 3f
       1.0966384 0.9781921 0.8636794 0.8897587
0002d0 93 54 6b 3f 33 24 95 3f 98 89 70 3f b4 e1 6b 3f
       0.91925925 1.1651672 0.9395995 0.9214127
0002e0 32 70 4e 3f 85 64 66 3f b3 ba 91 3f f0 63 96 3f
       0.80639946 0.8999713 1.1385101 1.1749249
0002f0 ff e3 8b 3f d4 e6 9e 3f 9e 97 6b 3f 94 e2 69 3f
       1.0928954 1.2414193 0.92028224 0.91361356
000300 65 3d 94 3f 2e 38 5d 3f bf 7b 65 3f 26 2d 9a 3f
       1.1581236 0.8641385 0.89641947 1.2045028
000310 63 37 6b 3f cb 4f b3 3f aa 49 53 3f fb 33 5e 3f
       0.9188139 1.4008726 0.8253428 0.86798066
000320 cb 69 5d 3f 5f a1 72 3f 80 ce 84 3f fb 77 7b 3f
       0.8648955 0.9477748 1.0375519 0.9822995
000330 41 87 78 3f dc 30 9a 3f 2a 27 96 3f de 46 71 3f
       0.9708138 1.2046161 1.1730702 0.9424876
000340 22 62 a2 3f 1e 40 44 3f 3e e3 a4 3f 68 0d 9b 3f
       1.2686198 0.76660335 1.2881849 1.2113466
000350 63 be 89 3f af 7a ab 3f fd 3d 66 3f 88 91 61 3f
       1.0761226 1.3396815 0.89938337 0.8811269
000360 69 31 a8 3f 76 a1 67 3f 1d da 80 3f 6a b5 6b 3f
       1.3140079 0.90480745 1.0066563 0.9207369
000370 86 b2 a6 3f 62 3d 7f 3f fb 9d 90 3f dc e6 72 3f
       1.3023231 0.9970304 1.1298212 0.94883513
000380 51 85 9f 3f f6 7b e4 3e d2 f6 90 3f 5f c4 9a 3f
       1.246256 0.44625825 1.1325324 1.2091178
000390 1a c2 71 3f ab 43 93 3f df 80 bf 3f 85 4b 6c 3f
       0.944368 1.1505026 1.4961203 0.92302734
0003a0 1f 40 86 3f 80 2c 5c 3f 26 8a 98 3f b1 c1 33 3f
       1.0488318 0.860054 1.191716 0.70217425
0003b0 13 48 b7 3f cd d0 87 3f a6 13 87 3f da c7 6d 3f
       1.431887 1.0610596 1.0552871 0.92883074
0003c0 e8 20 bf 3f a6 d4 38 3f f0 9e 74 3f 01 0d 99 3f
       1.4931917 0.72199476 0.9555502 1.1957093
0003d0 94 ce 96 3f a0 39 35 3f 51 4b b5 3f 15 61 80 3f
       1.1781793 0.70791054 1.416361 1.0029627
0003e0 4a e5 93 3f dc b3 36 3f 5e c3 a8 3f c1 48 1c 3f
       1.1554348 0.71368194 1.3184621 0.61048514
0003f0 b8 38 ee 3e 2f 55 d2 3e 99 ab e5 3f a9 12 06 40
       0.46527648 0.41080615 1.7942992 2.094889

conv0.0.bias f4 [256, 1]
000000 b3 90 af 3d e5 d3 64 3d a6 50 25 3e 9b 26 5c 3e
       0.08572521 0.05586614 0.16144046 0.21499102
000010 45 2f 1c 3d e3 ae 57 3e 92 54 b9 3d 07 5f a8 3d
       0.038131017 0.21062808 0.09049334 0.0822125
000020 b0 77 ea 3e 51 b3 82 3e 19 95 8c 3e 8e 60 3b 3e
       0.4579444 0.25527433 0.27457502 0.18298551
000030 66 22 21 3e 05 f9 de 3e f9 19 7a 3d 84 30 4a 3e
       0.15735778 0.43549362 0.061059926 0.1974507
000040 c9 31 43 be ad 62 65 3c e3 aa 76 bc 7e 8e 46 3e
       -0.1906196 0.014000577 -0.015055391 0.19390294
000050 ac 63 15 3e ca 16 e2 3d 27 0e b9 3c 20 ec 1c 3e
       0.14588803 0.11039503 0.022589756 0.1532445
000060 ea 50 98 3d 95 89 8f 3e 41 ee 4a 3e 66 af 54 3e
       0.07437308 0.28034654 0.19817449 0.20770034
000070 32 8f d7 3d e9 fa 4a 3e 1f 53 7c 3e fa 54 8c 3e
       0.10525359 0.19822277 0.24641083 0.27408582
000080 17 65 d5 3b 3c 9d 9a 3d 66 c1 c2 3d 5a d5 65 3e
       0.006512295 0.07549521 0.09509544 0.22444668
000090 3b ac ba bb b8 e5 bd bc 97 f6 fb 3d 65 3c 76 bd
       -0.005696801 -0.023180827 0.12302893 -0.06011619
0000a0 30 aa 54 be ab 10 e2 3d 2c 02 d4 3d 19 01 01 3e
       -0.20768046 0.110383354 0.10351977 0.12598075
0000b0 03 9f 80 3d 65 56 f1 3d 54 37 89 3e e0 e3 35 3e
       0.06280329 0.117840566 0.26800025 0.17762709
0000c0 09 9c 75 bd f3 ee 31 39 cf 78 43 3d cb ce 28 3e
       -0.05996326 0.00016969051 0.047722634 0.16485135
0000d0 26 cc a6 bd bd 33 20 3e 0c 0f 33 3e 81 64 8c bc
       -0.08144407 0.15644737 0.17486209 -0.017137768
0000e0 bc 3d 1d bd 85 08 7d 3e 4f 7b 06 3e 36 d1 88 3d
       -0.038388953 0.24710281 0.13132976 0.06680529
0000f0 72 d8 24 be f4 d6 11 be 27 58 07 3e 3d d2 b2 3d
       -0.16098192 -0.14242154 0.13217221 0.08731506
000100 ee 41 11 3e a0 c7 9d bc ec 37 3f bd cb 26 d9 3d
       0.14185306 -0.019260228 -0.04668419 0.10603102
000110 45 4b a3 3c 03 33 b6 bd d3 a7 5f 3e bf a2 7a 3a
       0.019933352 -0.088964485 0.21841364 0.0009560994
000120 18 9c 96 bd f3 03 9e 3d b6 9c 02 3d b4 fa d9 ba
       -0.07353991 0.07715597 0.031887732 -0.0016630501
000130 f0 29 d2 ba 90 b9 b9 bd ce cb b6 bd dc b2 17 3e
       -0.0016034227 -0.09068596 -0.089255914 0.14814323
000140 7e 2f e1 3d 13 6e 07 3e d9 9d 86 3d 34 ce f0 3d
       0.109953865 0.13225584 0.06573076 0.1175808
000150 a3 d5 c5 bd 8a 9a 7d bd a5 bd 74 3d 33 d6 a1 bc
       -0.096598886 -0.061914958 0.05975117 -0.019755458
000160 27 8f 19 be dd 08 c8 3a 9a 26 d7 3e b8 8f 92 bc
       -0.14996015 0.001526143 0.42021638 -0.017890796
000170 4b bc 73 bc ca 70 28 be ab 92 93 bb 2a 20 0c 3e
       -0.0148764355 -0.16449276 -0.004503568 0.13684145
000180 4a 81 35 3c de e8 17 be ac fe 08 3c 7b cc ba bd
       0.011078188 -0.14834926 0.0083615 -0.09121033
000190 31 86 65 bc c3 7e f1 ba 02 e4 0a be 09 a6 8a bd
       -0.0140090445 -0.0018424619 -0.1356354 -0.0676995
0001a0 ad de fc be 1e d8 1c 3e 5c 7a 95 3d df 53 5f 3d
       -0.49388638 0.15316817 0.07298729 0.054523345
0001b0 65 aa 3c 3e 20 a4 7b be b8 69 d9 bd 0e f8 fc 3d
       0.18424375 -0.24574327 -0.106158674 0.12352
0001c0 47 cd 30 3e e2 de bf 3c 7e 6d 28 3e 93 6c 52 bd
       0.17265807 0.023421708 0.16448018 -0.051373076
0001d0 46 27 f3 bc 4b 6d 88 be 04 4c 94 be 63 49 02 bd
       -0.029681813 -0.26645884 -0.28964245 -0.03180827
0001e0 d4 5f 97 be a5 79 90 3d 41 ca 43 3e 3f c0 a6 3d
       -0.295653 0.07054452 0.19120122 0.08142137
0001f0 8d 90 d2 bd e8 8d 1c be 06 99 80 bc f7 cc 6a 3d
       -0.10281477 -0.15288508 -0.015697967 0.057324376
000200 18 96 d2 3d 52 5e b0 3d f2 a4 ce bc 9b 80 82 3d
       0.10282534 0.0861174 -0.025225136 0.06372186
000210 a4 2b 4a be fe e0 22 3e ed 8c ed bd 8b 1a 33 be
       -0.1974321 0.1590614 -0.11599145 -0.17490594
000220 f8 c2 b7 be 70 28 3b 3e 14 d2 a9 3e bb 5c a4 bc
       -0.35890937 0.18277144 0.3316809 -0.020063749
000230 33 5a f5 bd 0a 95 4a be b1 94 e8 bd f6 f8 b3 bd
       -0.11980095 -0.19783416 -0.11356486 -0.0878772
000240 9f 8c 9e bb ea 25 92 3d 8a b7 22 bd 7e d6 ec 3c
       -0.0048385407 0.07136138 -0.039725818 0.028910872
000250 3a 07 a2 3e 4b eb 1f be 0a b9 92 bd 98 26 64 be
       0.31646138 -0.15617101 -0.071642 -0.22280347
000260 4f ee 39 be 29 6b 34 bd 7c ff f9 3d 41 bf 1e 3e
       -0.18157314 -0.04404751 0.12206933 0.15502645
000270 9d 59 23 bc 2e f1 3b be 72 49 f5 bd ea 30 7e bd
       -0.009970096 -0.18353721 -0.11976899 -0.062058367
000280 13 2c b1 3d d1 1c 18 bc 17 69 b5 3d 26 2b c0 bd
       0.086509846 -0.009284214 0.08857935 -0.0938323
000290 d4 0d 48 be 77 18 b1 be c9 44 17 3e 2c d2 68 be
       -0.19536525 -0.34588978 0.14772333 -0.22736424
0002a0 cc 60 e0 3c 2e 23 cb bd 7e 93 d0 3d a3 e2 9c 3c
       0.027389906 -0.09918819 0.10184382 0.019151038
0002b0 4b 66 82 3e 23 3e 08 be d7 e1 fd bd 9d 86 2e be
       0.25468668 -0.13304953 -0.12396591 -0.17043538
0002c0 b4 ee 51 be 37 f7 9b bc cb 84 23 bd bb 4a 90 be
       -0.20501214 -0.01903878 -0.039921563 -0.28182015
0002d0 3a 5f 32 3e f7 e6 ad 3d 5b a8 d2 3d 36 44 27 be
       0.17419139 0.08491319 0.102860175 -0.16334614
0002e0 80 6e 2a 3e 8e bf 21 be f0 52 5a be a9 f0 9d 3d
       0.16643715 -0.15795729 -0.213207 0.07711918
0002f0 25 0b db 3e de 5f 11 3c 07 32 da be e2 d1 ab be
       0.4278194 0.008872954 -0.42616293 -0.33558565
000300 34 55 a8 be 2f 1c 92 bd a6 93 83 bc 84 e2 22 be
       -0.32877505 -0.07134282 -0.016061615 -0.15906721
000310 98 2a 96 bd a1 c4 0e 3d 47 de db 3d e3 a8 60 be
       -0.07332343 0.03485549 0.107357554 -0.21939425
000320 1c 8f 9b 3d d1 6c 98 be b3 10 03 bf 12 89 85 bd
       0.07595655 -0.2977052 -0.51197356 -0.06520285
000330 c9 b8 01 3f a9 c0 58 bd 45 e0 b9 be 7e 21 a8 be
       0.50672585 -0.05291811 -0.36303917 -0.32838053
000340 e4 d1 9a be 4a 18 6f 3a f5 ef 15 be 7e 18 7b be
       -0.3023826 0.0009120746 -0.14642318 -0.24521062
000350 85 70 bf bd 0a bf a4 3d 71 20 e9 bd 7d 67 fe bc
       -0.09347633 0.0804425 -0.11383141 -0.031055206
000360 bf 4e 85 3e 8e ed 4e be eb ff e5 be 77 bd 89 bd
       0.2603664 -0.20207807 -0.44921812 -0.06725591
000370 85 1b ff 3d 74 49 03 be 3d 5b 16 be 39 1b 26 bd
       0.12456421 -0.12820989 -0.14683242 -0.040553305
000380 94 21 1d be 56 bc f9 3d 08 3f 59 3d 07 8e 45 be
       -0.1534484 0.12194125 0.053038627 -0.1929246
000390 9b ca be bd 2c 29 d1 3c 09 57 3d be 87 31 1d be
       -0.09315988 0.025532328 -0.18490233 -0.15350924
0003a0 0d 26 58 bd 71 e7 df be 78 eb 44 3b 65 65 37 be
       -0.052770663 -0.43731263 0.0030047577 -0.17909773
0003b0 9c e9 6d 3c fd 4b de bd 84 12 eb bd 63 7e 1a 3e
       0.014521029 -0.10854337 -0.11478141 0.15087275
0003c0 59 32 36 be 7d d2 5e 3e 1f 6b b0 3d 99 c9 3b 3e
       -0.17792644 0.21759982 0.08614182 0.18338622
0003d0 64 c1 54 3d ff 62 04 3d 3f 98 80 be 0e e9 30 bd
       0.051942244 0.032320973 -0.25116155 -0.04319101
0003e0 5b 55 60 3d b5 ed 8a 3e 84 85 0a 3e e1 47 73 be
       0.0547689 0.2713448 0.13527495 -0.23757888
0003f0 03 b5 81 be 60 8c 2d be a6 1c 99 3e e2 32 08 3f
       -0.25333413 -0.1694808 0.2990467 0.5320264

conv0.1.weight f4 [32, 16, 3, 1]
000000 55 5b 9c 3d d6 ca b5 3d d0 17 04 bd b6 1b 5b be
       0.07634608 0.088765785 -0.032249272 -0.2139729
000010 92 b6 c8 bd 1f c0 a5 3d b3 b7 db bb c1 f6 1d bb
       -0.098004475 0.08093285 -0.0067052483 -0.0024103376
000020 1f f7 28 bd da 03 a6 3c e5 81 32 3e 26 94 8e 3d
       -0.041251298 0.020265508 0.17432363 0.06961851
000030 8a a5 63 3e cc 76 49 3b b7 13 9c be 4c d4 6d bd
       0.22231117 0.0030740974 -0.3048379 -0.05806379
000040 e7 3b 54 3c 48 b9 c0 3e 2c 2f 44 3e 4b 92 51 3e
       0.012953735 0.37641358 0.1915862 0.20465963
000050 26 3f 94 3e 65 31 a2 bd 81 da 90 bc fb 3c b8 3c
       0.28954428 -0.079195775 -0.017682316 0.022490015
000060 15 ba 9f 3e f8 18 44 bd bb ac 81 3d 0c 15 05 bf
       0.31196657 -0.047875375 0.06331774 -0.5198524
000070 32 64 5a bf 87 83 1a bf 99 1e d6 be ce 18 80 bf
       -0.85309136 -0.60356945 -0.4182022 -1.000757
000080 1b 58 f9 be 8b cf 91 3c f0 e2 28 bd ca a1 ba 3d
       -0.48700032 0.01779916 -0.04123205 0.0911289
000090 d7 5d 10 3d 94 b8 03 3d 96 02 3b be c9 71 62 bd
       0.035245743 0.03215845 -0.18262705 -0.055284295
0000a0 11 1f 99 3c a6 e6 47 3d 57 e3 fc bd 9d e5 1f 3f
       0.018691571 0.048803948 -0.12348049 0.6245974
0000b0 7c 14 83 bd d0 a3 4c be 92 9d 80 3c 1a b0 d5 be
       -0.064003915 -0.19984365 0.015700135 -0.41735917
0000c0 a3 6c ee bc d4 69 60 be 9e 8f 8e bc 58 0c e1 ba
       -0.029104536 -0.2191537 -0.017402466 -0.0017169816
0000d0 e6 83 66 bc 27 b4 50 be 4e 67 22 be ea 81 c6 bd
       -0.014069533 -0.20381223 -0.1585972 -0.09692748
0000e0 10 83 85 be 9e ca 9c 3c 71 c3 8b 3c 29 fc 74 be
       -0.26076555 0.019139584 0.017060967 -0.23924316
0000f0 25 ad b7 be 68 e1 ba 3e 58 70 56 be 99 c4 26 3f
       -0.35874286 0.36500096 -0.20941293 0.65143734
000100 54 58 7e bc 2a eb 58 be 75 d6 35 be 3d ed 13 bd
       -0.015523989 -0.21183458 -0.1775759 -0.03611492
000110 21 11 df bc 5b 9c 37 3e ca e4 0f 3d d9 43 51 3e
       -0.027229847 0.17930739 0.0351303 0.20436038
000120 49 35 72 3e 91 db b7 3e cb 21 71 3e 35 75 8b 3e
       0.23653139 0.35909703 0.23548047 0.2723786
000130 cf 93 0e be 0a 93 74 3d 77 44 b6 3e d1 c4 04 be
       -0.13923572 0.05971054 0.3559911 -0.12965705
000140 e5 e1 73 3e 4d 66 10 bd be 73 b7 bd 96 3a 07 3e
       0.2381664 -0.03525381 -0.08957623 0.13205943
000150 5c 12 97 be 5a 3f 5e 3e dc f2 d2 3d 08 b3 03 bf
       -0.29506195 0.21703854 0.10300228 -0.51445055
000160 f3 23 06 bf b0 13 0d bf 98 b8 4a bc 4c bd 68 3e
       -0.52398604 -0.55108166 -0.012373112 0.22728461
000170 77 bb 94 3d e2 89 99 3d e4 c9 00 3e 75 f0 19 be
       0.072623186 0.07497002 0.12577015 -0.15033133
000180 a2 ec cf bd 98 52 f9 bc 17 7b 2b 3d 00 c8 fd 3d
       -0.10152556 -0.030434892 0.041865434 0.123916626
000190 7c 63 9c bd e4 de 2b 3d 5c 32 0e 3e a6 7a 57 3e
       -0.07636163 0.041960612 0.13886398 0.2104288
0001a0 0d a6 61 3e da c1 39 be a0 94 94 be 6a 15 de be
       0.22036 -0.18140355 -0.29019642 -0.43375713
0001b0 4d 5a 01 bf 46 7a b9 bc cb 6b 96 3c 04 fd cb 3e
       -0.50528413 -0.022641312 0.018361947 0.39841473
0001c0 83 b0 4a be fd 5c e2 bd de a8 36 bd 0c da 55 be
       -0.19793896 -0.11052892 -0.044594638 -0.2088396
0001d0 99 1e f3 3c 96 bd db 3e 69 d9 ae bd 71 7c d6 3b
       0.029677676 0.4291808 -0.085375614 0.0065455963
0001e0 d5 1f 21 bf c4 8e 1b bf 69 46 0a bf e0 69 50 3e
       -0.62939197 -0.6076472 -0.5401369 0.20352888
0001f0 b3 33 38 3e 66 f0 25 3d 87 83 1b be 53 e4 07 3e
       0.17988472 0.040512465 -0.15186892 0.13270693
000200 e2 ec ce be f3 af 1a be 00 fd bf 3d 9f 9f 97 bd
       -0.40415102 -0.15106182 0.09374428 -0.07403492
000210 51 53 68 be d2 d0 b9 3d 2a a8 db 3d 73 c1 90 3d
       -0.22688033 0.090730324 0.10725434 0.070681475
000220 28 79 b7 3d 65 a3 b4 bd 75 1a 4f be c2 69 85 bd
       0.089586556 -0.088202275 -0.20224936 -0.06514312
000230 f8 79 c2 bd c6 3c ab 3e 29 ac a9 3e 8b 2a 43 3e
       -0.0949592 0.33444804 0.3313916 0.19059198
000240 a2 d0 dc bc b3 73 58 be d0 f8 ec bd 93 02 1f be
       -0.026954953 -0.21137886 -0.11570895 -0.15528326
000250 34 fe e8 3d 32 83 26 3e f2 93 f8 3e e1 12 cc 3e
       0.113766104 0.16260985 0.48550373 0.39858153
000260 73 8d a5 3e c8 14 33 3d ad 88 8a 3b ee d9 30 3e
       0.3233448 0.04372099 0.004227719 0.17270634
000270 ba 9a 29 be 00 4e e8 3d 4a b3 88 bc e5 bb 14 be
       -0.1656293 0.11343002 -0.016687054 -0.14524801
000280 c4 1d 00 3d 09 05 92 bc 64 05 a4 bc e5 c5 20 bd
       0.031278387 -0.017824667 -0.020022102 -0.039251227
000290 89 ae 15 be 42 73 84 bc 93 5e 83 3d d6 ea 9c 3e
       -0.14617361 -0.01616824 0.06414523 0.30647916
0002a0 a4 fa a8 3e 8c c9 ae 3e 8b 35 02 3f 01 bf 9a 3d
       0.33003724 0.34138143 0.5086295 0.07555962
0002b0 e9 c0 cb 3e 06 8c 53 3e f4 4d 04 3f fe 4d 07 3f
       0.39795616 0.20658883 0.5168145 0.5285338
0002c0 62 0f 1f 3f de a0 02 be f4 8f 70 be 0d 74 7a bd
       0.6213285 -0.12756678 -0.23492414 -0.06114583
0002d0 7e be 74 be e5 39 ee be aa 97 28 be 43 27 d9 bd
       -0.23900792 -0.46528545 -0.16464105 -0.10603192
0002e0 56 6e 9f 3e 7c 51 61 3d 31 57 7d 3e 16 73 57 3e
       0.31138867 0.05500935 0.24740292 0.21039996
0002f0 e0 60 9d 3e b6 3d 92 be 24 5c 31 be 11 ae 74 be
       0.30737972 -0.28562707 -0.17320305 -0.23894526
000300 95 59 72 3d 9a b7 2a 3e 82 01 09 3d 60 35 11 be
       0.059167463 0.16671601 0.033448704 -0.14180517
000310 13 e7 18 bd b4 72 46 3e 8a bc 0c be 10 6f 8b 3e
       -0.037329745 0.19379693 -0.13743797 0.2723317
000320 c9 8f b8 3c 98 00 ab be 29 34 3b be 9d 41 a1 be
       0.0225295 -0.3339889 -0.18281616 -0.3149537
000330 f6 93 61 be 84 01 9c be 4e 33 7d 3e 50 de 98 3e
       -0.22029099 -0.30469906 0.24726602 0.2985711
000340 c5 a7 52 3e 97 b9 2c 3c d8 cf 6d 3d 59 18 4f be
       0.20571811 0.010542295 0.058059543 -0.20224132
000350 18 99 3f be 41 cf 90 3e da 3a 4d bf 49 55 76 3e
       -0.18710744 0.28283122 -0.80167925 0.24055971
000360 80 53 50 bd 6a dc bc 3b be a4 c9 3d 7c a4 74 3e
       -0.05086088 0.00576358 0.09845875 0.23890871
000370 02 17 93 3d b8 78 dc be e5 14 f5 3d 2c 54 0e bd
       0.07182123 -0.4306085 0.11966876 -0.03474824
000380 d6 fb b8 be 8a 3b 53 3d 39 3c 1e 3e 3c 2b 9e 3b
       -0.36129636 0.051570453 0.1545266 0.0048269313
000390 6d 8b c6 be 5d 4e 0b 3f b3 61 a5 3e 12 8f 28 3e
       -0.38778248 0.5441645 0.323011 0.16460827
0003a0 0e 34 0b be bf 58 d7 be 21 da d3 3e 91 73 9d 3e
       -0.13594076 -0.42059895 0.41377357 0.30752233
0003b0 9b a4 4d be 89 86 f7 3d ab b4 b9 3b d5 5c 7b be
       -0.20082323 0.120862074 0.0056672893 -0.24547131
0003c0 c8 21 b8 3d 76 83 ea bb 74 b7 da bd 54 4e 7d 3e
       0.08990818 -0.0071567846 -0.10679522 0.24736911
0003d0 d4 e7 67 3e 6c 88 9a 3d 7b 3b 0f 3d a3 d3 90 be
       0.22647029 0.07545552 0.034968834 -0.28286466
0003e0 db bf 0a bf c2 83 e7 3e 44 47 af bd f1 01 44 be
       -0.54199 0.4521771 -0.08558515 -0.19141366
0003f0 6d b5 d2 3e a3 80 cd 3e b4 c2 93 3e 3c 79 96 bd
       0.41154042 0.40137205 0.28859484 -0.07347342

conv0.1.bias f4 [32]
000000 74 d2 cd bc a5 02 82 bd 8a df b3 bd bf 03 bb 3d
       -0.025124766 -0.06348161 -0.08782871 0.09131574
000010 9f 8b ff bc 91 f7 79 3d 31 38 87 bc fe 5a 6d bd
       -0.031194506 0.061027113 -0.016506286 -0.057948105
000020 f5 c9 60 3d 89 3c 0f bd 43 c7 83 3d fc a6 9c bd
       0.0548801 -0.03496984 0.064344905 -0.07649037
000030 d5 c8 ca bd 76 56 37 3b 04 bf f4 3d 77 3c f6 bd
       -0.09901587 0.0027975119 0.11950496 -0.120232515
000040 97 6e 17 3e b7 fb 6c bd 27 b4 b8 3d a3 96 a7 bd
       0.1478828 -0.05785724 0.09018736 -0.081830285
000050 e4 1d ae 3d b8 51 dc bc 2a 09 0c be e8 29 04 be
       0.08501795 -0.026894435 -0.13675371 -0.12906611
000060 44 d2 0e 3e be 55 f9 bd 0e 5c b8 bd 3b 85 b6 bd
       0.13947397 -0.12174557 -0.09001933 -0.089121304
000070 bc 38 62 3b 77 76 11 be fb 4c 28 bd 00 88 14 be
       0.003451868 -0.14205347 -0.04108904 -0.14505005

conv0.2.weight f4 [32]
000000 65 27 c0 bc 11 c1 eb 3e 1a e4 9b 3f 7d 68 7c 3f
       -0.023456285 0.46045735 1.2178986 0.98596936
000010 ee c9 b3 3e 00 50 33 3e c0 f1 ca 3a 29 21 86 3f
       0.35114998 0.17510986 0.0015483424 1.047887
000020 04 f1 4b 3f aa 9d 1c 3f 70 7a 85 3e 27 40 17 3e
       0.79664636 0.61178076 0.26069975 0.14770566
000030 62 84 44 3f 76 7c 46 3f 8a 75 42 3e 17 c5 8b 3e
       0.767645 0.7753366 0.1899015 0.27298805
000040 88 0b 20 3f 5d 31 0c 3f b1 3e 30 3f 2d d9 4e 3f
       0.62517595 0.5476282 0.6884566 0.80800134
000050 c7 1c ad 3e a7 ba ab 3e 7e 5e 2d 3f 3a 2f 19 3e
       0.33811018 0.33540842 0.6772231 0.14959422
000060 38 cb d5 3e c8 62 98 3e 83 e3 00 3f b7 34 5c 3d
       0.41756606 0.29762864 0.50347155 0.05376121
000070 64 e6 8c 3f b9 29 40 3e 71 7f 9e 3f 78 3b 60 3f
       1.100781 0.18765916 1.2382642 0.8759074

conv0.2.bias f4 [32]
000000 76 17 ff 3a 36 77 58 3c 7d d8 0e 3c 6a e3 4e bb
       0.0019461948 0.013212016 0.008718607 -0.0031568655
000010 e5 e5 5d bb 89 57 5c bc 5d b1 8a bb 37 cc c3 bb
       -0.0033858952 -0.013448604 -0.004232569 -0.005975272
000020 af e6 98 ba 5b 8e a3 bb f8 71 88 bc 5d 06 13 b9
       -0.0011665429 -0.0049913353 -0.016655907 -0.00014021383
000030 83 1d c3 3a c8 2d 88 3c 25 f8 97 3a cd 63 bc bb
       0.0014886115 0.016623393 0.0011594339 -0.005749202
000040 8f 89 f4 3b c6 da 5a bb 21 ad 76 bb b7 a8 88 bb
       0.0074626873 -0.003339456 -0.0037639814 -0.004170503
000050 b4 be 08 ba ce 56 a0 bb b9 20 95 bb 5c 5c ed bb
       -0.0005216405 -0.0048931604 -0.00455102 -0.007243676
000060 57 85 f1 bb 37 34 f5 3a c4 e2 0a bb 8b e2 ff b9
       -0.0073706317 0.0018707578 -0.0021192292 -0.00048806178
000070 58 43 e9 3a c6 fa 20 bc 2c bd 06 bc 57 25 c9 bb
       0.0017796559 -0.009825414 -0.008223813 -0.0061384845

conv0.2.running_mean f4 [32]
000000 42 ed 74 3d d3 bb ad bd 43 9c 22 bd 3d 79 18 3d
       0.05979658 -0.0848309 -0.039699804 0.037224997
000010 30 c0 80 bb 6d b1 32 bd 8e a8 0a 3d 23 07 18 bd
       -0.0039291605 -0.043626238 0.033852153 -0.03711618
000020 01 33 0a bd 4e 30 d5 bd d1 dd a7 bd 9d a0 35 be
       -0.033740047 -0.10409604 -0.08196605 -0.1773705
000030 d8 8d 7b bd 24 fe 15 3e 6a 60 b8 3d 96 b6 ba bd
       -0.06141457 0.14647728 0.090027645 -0.09116857
000040 7c 36 92 3d 3f 3a 8d bc ce ee 1e 3e bc 8d d1 bd
       0.07139298 -0.017239688 0.15520784 -0.10232112
000050 ec 33 bf 3b 5e 3b 0e 3e 47 30 2a be c2 f2 82 bd
       0.005835047 0.13889834 -0.16619979 -0.06393959
000060 66 f2 26 3e c4 c7 34 bd 4d 40 af bd 39 20 04 3d
       0.16303405 -0.044135824 -0.08557186 0.032257292
000070 9f ae fa bd 0a 9d 2b be f7 3a 45 bd fb 75 92 be
       -0.122403376 -0.16759124 -0.048151936 -0.28605637

conv0.2.running_var f4 [32]
000000 d6 ce 3e 41 88 9e d3 40 31 d7 98 40 cc 11 a9 40
       11.925497 6.613102 4.7762685 5.2834225
000010 63 89 19 40 5a 06 b0 40 bf 21 d6 40 0f 81 96 3f
       2.3990104 5.5007753 6.6916194 1.1758136
000020 90 4a 8e 40 fc 01 8b 40 1f 91 99 40 17 00 be 40
       4.446602 4.343992 4.798965 5.937511
000030 70 68 06 41 d9 0e b2 40 4f 98 7c 40 6b e2 ef 40
       8.400497 5.5643125 3.9467962 7.496389
000040 62 cc 4a 40 c5 a6 a6 40 58 62 73 40 46 02 a4 40
       3.1687245 5.2078576 3.8028774 5.1252775
000050 ae c0 10 40 01 ce 4e 40 3b e6 1a 40 3d d4 a3 40
       2.2617602 3.2313235 2.4203022 5.119658
000060 75 dd 4d 40 23 a2 74 40 1c 08 05 40 99 36 58 40
       3.2166417 3.822396 2.07862 3.3783324
000070 a4 67 d0 40 f4 cd af 40 2b 83 ca 40 d7 1f 0c 40
       6.5126514 5.493891 6.3285117 2.1894433

bottleneck0.0.weight f4 [192, 32, 1, 1]
000000 82 a3 15 3e ab 67 af 3c b6 3e d0 bc a2 a6 04 3e
       0.14613155 0.021411737 -0.025420528 0.1295419
000010 cf 9d 55 be 47 fe bb 3d 72 ed 95 be ab fe 12 3e
       -0.2086098 0.09179359 -0.2928272 0.1435496
000020 d6 9b 44 be 36 bd ef be 6b 18 e7 3d a4 4f e2 3e
       -0.19200072 -0.46824044 0.11283954 0.44201386
000030 be ee d0 bc e8 46 3d be 83 22 be bd 29 c7 8e be
       -0.025504466 -0.1848408 -0.09283926 -0.27886322
000040 8f fd 6f be 00 9a 2b bd 52 bb 85 3e 39 ee d7 bd
       -0.23436569 -0.041894913 0.26119477 -0.10543484
000050 f8 a1 e7 3e f2 96 41 3e 9c e6 d7 be 92 3b 36 3e
       0.4524076 0.18905237 -0.42168128 0.17796162
000060 c4 02 cc bd b4 3d cb bb d2 0b 4f be f4 d3 cd bc
       -0.09961465 -0.006202424 -0.20219353 -0.025125481
000070 b0 ba d1 3e 2f 93 51 3e 05 77 cb 3e 1d 7d f0 3e
       0.40962744 0.20466302 0.39739242 0.46970454
000080 c8 c3 76 3e f2 81 0d be ae bb 23 3e ec 74 52 be
       0.24098122 -0.13819101 0.15989563 -0.20552415
000090 d2 f5 89 be ac fe b7 3e f7 f0 d8 bd 1c 6d 95 be
       -0.2694536 0.35936487 -0.105928354 -0.29184806
0000a0 08 89 98 3d 77 36 1e 3e df cd 14 be 86 e7 ab be
       0.07448012 0.15450464 -0.14531659 -0.33575076
0000b0 0d 0d 6f 3d 91 35 14 3e f1 16 0d 3f d9 dd 11 be
       0.058362056 0.14473559 0.5511313 -0.14244784
0000c0 a3 96 d2 3e 54 23 93 be 59 f3 5b 3e 83 3e 94 3e
       0.41130552 -0.2873789 0.21479549 0.28953943
0000d0 2b 7a 90 3e 81 03 3f 39 b7 d5 4e be b7 b8 2e be
       0.28218207 0.00018216485 -0.20198713 -0.1706265
0000e0 de 01 d1 3e 59 cd b1 be 1c b2 84 be 5c 5a 9e bd
       0.40821737 -0.3472698 -0.25917137 -0.077320784
0000f0 54 41 42 be 81 6b ad be 3b 0e 22 3e 41 0a 85 be
       -0.18970233 -0.3387108 0.15825741 -0.25984386
000100 8a 7f 87 3d f7 ef 66 bd 38 7f 0d 3e ce 98 91 bd
       0.06616123 -0.056381192 0.13818061 -0.07109223
000110 23 f8 15 be 45 29 18 3e fd 5a f7 3d 99 e2 ce 3c
       -0.14645438 0.14859493 0.120779015 0.025254535
000120 c2 ee ea 3c 39 37 42 be 15 62 9f bd 4b 0d 1e 3e
       0.028678302 -0.18966378 -0.077823795 0.15434758
000130 b0 c1 1e 3e be 83 dd 3c 5c 86 97 bd ca 1d 8c 3d
       0.15503573 0.027040359 -0.07398674 0.06841619
000140 7d 9d 16 be 61 19 3b be 0c df af 3d f1 43 f2 3d
       -0.14708515 -0.182714 0.08587465 0.11829365
000150 1d 4a 8c 3d d4 73 a9 bd 65 ff f2 3d 0c fb e8 3d
       0.068500735 -0.082740456 0.11865119 0.113760084
000160 17 ac 1c be 16 59 c9 bd 51 b5 84 bc 0d e8 49 bd
       -0.15300022 -0.09831445 -0.01619974 -0.049293566
000170 d4 42 8b 3c 99 16 60 3d 65 18 4d bd c4 fb a3 bd
       0.01699964 0.05470905 -0.050072093 -0.08007005
000180 20 42 0f bc ff 62 39 be d3 2c ee bd 45 0e f4 bb
       -0.008743793 -0.1810417 -0.11629643 -0.00744799
000190 6e c7 bb 3e 2a 41 3c 3e 5c e0 93 bd 65 84 cf bd
       0.3667559 0.18384233 -0.072205275 -0.10132674
0001a0 6b fe 19 3f b7 d0 2a 3e d6 ad 73 3e e1 6d 64 bb
       0.60153836 0.16681181 0.23796782 -0.0034855532
0001b0 d7 ac ee bd 74 42 f7 be 00 47 9c bd d7 80 b6 be
       -0.1165406 -0.48292887 -0.0763073 -0.35645172
0001c0 29 32 9d 3e 1c 0b 63 3e 3c 1e 70 be ec 2a 86 bd
       0.30702332 0.22172207 -0.23449033 -0.065511554
0001d0 5d e7 d9 be 81 01 e1 bc 36 8e 10 3e 05 d0 3d 3e
       -0.4255933 -0.027466537 0.14116749 0.18536384
0001e0 fa 4a a8 be 41 f8 54 3e 59 05 cc 3b c4 a8 ec 3d
       -0.32869703 0.20797826 0.0062262234 0.11555627
0001f0 b9 d0 68 3e df 3b 4b be 6f a6 f0 3d af 3f 06 3e
       0.22735871 -0.19847058 0.11750495 0.13110231
000200 29 14 36 be 30 00 23 3e 84 79 5f bd 56 ca ff 3d
       -0.17781128 0.1591804 -0.054559246 0.124897644
000210 ef ca d4 3b 4c 64 4d bf f2 f8 8d bd 18 28 b5 be
       0.006493918 -0.80231166 -0.06932248 -0.35382152
000220 d9 58 e7 be ff 55 98 3e 4d c7 83 be a1 30 a4 3d
       -0.45184973 0.2975311 -0.25737992 0.08017088
000230 89 b7 22 bd cf 5f 2d be 99 cc 9b bd 80 d5 0f 3e
       -0.039725814 -0.1693108 -0.07607383 0.14046288
000240 79 af 2a be 6f 0f 06 3f fd bd fa be 11 6b 61 be
       -0.166685 0.523673 -0.48973075 -0.22013499
000250 d4 d2 49 3e c4 58 ee 3d da dd bc be 55 c5 43 bf
       0.19709331 0.116380244 -0.3688801 -0.7647298
000260 e5 dd 91 3e d5 96 fa 3c 09 dc 1f 3e cc b2 be bd
       0.28489605 0.0305895 0.1561128 -0.093114465
000270 ac 3d 29 3e 7f 05 91 3e a1 e9 c4 bd cf 10 9f 3d
       0.16527432 0.28324506 -0.09614874 0.07766878
000280 d6 90 44 3e ab 8a 77 be f7 b0 3d be 3c c8 bb 3d
       0.19195876 -0.24173991 -0.18524538 0.09169051
000290 38 5b 8b 3e 84 d7 dd 3e 91 5c 7e 3d bb 84 11 3e
       0.27218032 0.43328488 0.062099997 0.14210789
0002a0 00 7d 31 3e 95 b4 14 3f ef 16 72 be 35 48 51 be
       0.1733284 0.58088046 -0.23641561 -0.20437701
0002b0 ad a3 9b be 7a b5 fa 3b c0 a9 2f 3c 7a fb 50 3e
       -0.30398312 0.007651028 0.010721624 0.2040843
0002c0 3e d6 3e 3e 38 a2 00 3e a1 fb b3 3e 14 5e 19 3e
       0.18636414 0.12561882 0.35152915 0.14977294
0002d0 07 92 f2 3e 54 04 d2 3e 55 2e dc bd c5 f4 1c be
       0.47377035 0.41018927 -0.10751025 -0.15327747
0002e0 0a d5 41 3e e8 9e ea be 68 86 f4 be f1 25 51 3e
       0.18928924 -0.4582436 -0.47758794 0.2042463
0002f0 67 e2 98 be a7 c4 49 bd e4 71 09 be 7a da 81 3d
       -0.2986023 -0.049259808 -0.13422352 0.06340499
000300 07 b7 36 3e 09 07 e4 bc b9 b8 df bd ad 69 ee 3d
       0.17843257 -0.027835386 -0.10923905 0.1164125
000310 96 8b 6a be 5f 26 32 bf 56 ba 34 3e 94 cb da be
       -0.2290481 -0.695898 0.17649207 -0.42733443
000320 56 9f f9 3d 8d 64 08 be 41 1d 64 be 29 6e 31 be
       0.12188594 -0.13319607 -0.22276784 -0.17327179
000330 36 53 05 be 9f 39 84 be f4 97 bd be b1 82 4e be
       -0.13020024 -0.2582521 -0.37029994 -0.20167042
000340 94 cc 63 be dc 3b 13 3f 07 f5 1a bf b4 f2 26 be
       -0.22246009 0.57513213 -0.6053013 -0.16303521
000350 bb c9 27 3e db 84 21 3e ac ad 70 3d e3 b4 0a bf
       0.16385548 0.15773337 0.058759376 -0.5418226
000360 b4 12 88 be 3b 88 2f 3d 99 3d 21 3e 3a 2d 65 3d
       -0.2657677 0.04285453 0.15746154 0.055951335
000370 80 d2 2b be 2e 3c e4 3d 81 68 59 3d 6a 35 eb 3d
       -0.16779518 0.11144291 0.05307818 0.11484797
000380 a6 fb a9 be 72 ed 2f be 74 59 41 bc 43 b8 48 bd
       -0.33199805 -0.17180422 -0.011801112 -0.04900385
000390 79 16 d7 bd 0f 84 05 be 06 ec 05 3e a9 6a 95 be
       -0.10502333 -0.13038658 0.13078317 -0.29182938
0003a0 40 92 73 3d e0 10 a6 3e 95 12 1d 3e ed 5a d5 bd
       0.059465647 0.3243475 0.1533912 -0.10417733
0003b0 49 13 14 3d 52 59 b7 3e bd ad 5c 3c cc 3f fc bd
       0.036151204 0.35810333 0.013469157 -0.12316856
0003c0 75 15 44 bd 1f 19 de 3e 0c 9f 69 be c6 18 23 bc
       -0.047872026 0.4337854 -0.22814578 -0.009954637
0003d0 f0 38 42 bd 50 b5 c9 3b c1 2a 31 3e cb c7 3a be
       -0.04741758 0.0061556473 0.17301466 -0.18240277
0003e0 43 6d 24 bf 93 73 1e 3e 76 28 80 be f9 1c 85 3e
       -0.6422922 0.15473776 -0.2503087 0.25998667
0003f0 a9 a1 3e be d2 31 ef 3d d5 ef 30 bf bb 59 1b 3e
       -0.18616356 0.11679424 -0.69115955 0.15170948

bottleneck0.0.bias f4 [192]
000000 1d 66 8e bc 86 78 d6 bd 6c a1 37 bd 0d 92 a4 3d
       -0.017382676 -0.10472207 -0.04483168 0.080356695
000010 70 15 00 be 28 56 28 be a3 8b 1a 3d 79 ec f1 3d
       -0.12508178 -0.16439116 0.037730824 0.11812682
000020 f7 73 21 be 53 95 de bd 77 9f a9 bd 51 7e dd 3d
       -0.15766893 -0.10868325 -0.08282369 0.108151086
000030 bb cb 28 bd 0d fa af bd 38 1e 2c 3e df 63 1b be
       -0.041209918 -0.08592615 0.16808403 -0.15174817
000040 b8 50 ea 3c 3b 26 28 3d b6 d7 bf bd 58 76 00 be
       0.028602943 0.041052084 -0.093673155 -0.12545145
000050 5d c6 97 3d 25 f9 34 be 6e 2f 0b be f0 86 20 bd
       0.07410882 -0.17673166 -0.13592312 -0.039191186
000060 de 66 cd bb 93 c5 0a 3e c5 ad 76 3d 7e b0 12 be
       -0.0062683662 0.13551931 0.060224313 -0.14325139
000070 44 3c 29 3d f7 f6 c2 3d e4 97 c1 bd 84 2e 15 bd
       0.04131724 0.09519761 -0.09452799 -0.036421314
000080 78 28 2e 3d 20 ab 75 3c 28 37 df bd 3c ff 25 3e
       0.042519063 0.014994413 -0.10899192 0.16210645
000090 36 29 87 3c 25 36 aa bd 8d 0d 27 be 31 0f c0 b9
       0.016499143 -0.083111085 -0.16313763 -0.00036632412
0000a0 c3 fe 94 bd 64 ac 17 bc 20 b4 1c be 31 b5 d8 3c
       -0.072751544 -0.00925741 -0.15303087 0.026453586
0000b0 63 8a 23 3d 10 e1 4c 3d e3 2f 3f be f9 3c b1 bd
       0.039926898 0.050019324 -0.18670611 -0.08654208
0000c0 3b eb f8 3c fd e8 26 bd 55 10 52 3d c7 2a 0b 3e
       0.030385604 -0.04074954 0.051285107 0.13590537
0000d0 7c 34 b1 3d 1f 97 de bd 8f 42 a9 bc 75 0c d4 3d
       0.08652589 -0.10868668 -0.02066162 0.103539385
0000e0 4f ed 55 bd 6c 03 17 be 14 b2 ae 3a 1f 91 f0 ba
       -0.05222827 -0.14747399 0.0013328218 -0.0018353796
0000f0 f0 b0 dd bd dc 5a ce bd 08 cf 91 3d 72 d9 2e be
       -0.10824764 -0.10075924 0.07119566 -0.17075136
000100 c1 b2 dd bc 27 c9 f6 3d 94 9b 61 bd cf 5f 0f bd
       -0.027062776 0.120500855 -0.05508001 -0.03500348
000110 2a 46 da 3b 9a b5 52 3d d1 4a af bd a1 b7 14 3e
       0.0066611962 0.05144272 -0.08559192 0.14523174
000120 60 61 36 bd d3 b2 32 bd 66 3b 35 bd bb d7 25 bd
       -0.044526458 -0.04362757 -0.0442461 -0.04048894
000130 8d 25 c0 3d 10 9f e6 bd 0f 2c 77 bd 5c 37 2d be
       0.09382162 -0.112608075 -0.060344752 -0.16915649
000140 4f 38 94 3d dd 9d fb bd ac 67 25 3e c6 0e f9 3d
       0.072373025 -0.122859694 0.16152829 0.12161021
000150 b0 5e d5 bb 73 68 2c be e0 4c 16 3e 4a b7 34 bc
       -0.006511532 -0.16836719 0.14677763 -0.011030028
000160 dd 42 d7 3d 9a 46 74 bc 4b 3c aa bd d0 db fe bd
       0.105108 -0.014909411 -0.08312281 -0.1244427
000170 31 c5 25 3e 13 84 28 3e 2a e4 1a 3e 56 b1 db bd
       0.16188504 0.16456632 0.151261 -0.107271835
000180 49 5b 16 3d 99 15 1b be 1f 43 87 bd a0 ee 4f 3c
       0.03670815 -0.15144958 -0.06604599 0.01269117
000190 cf ee f8 3c 03 b7 e9 bc b0 0a c9 3d b5 53 b4 3d
       0.03038731 -0.02852965 0.098164916 0.08805028
0001a0 ba d9 17 be 8a d5 97 bc 48 e4 d6 bd c7 d5 95 bc
       -0.1482915 -0.01853444 -0.1049276 -0.018290414
0001b0 06 91 22 3e 80 08 25 3e 03 c1 1c be 2b 70 be 3d
       0.15875635 0.16116524 -0.15308003 0.09298738
0001c0 21 cf cf bd 0d 7e c4 bd c7 76 e6 bd 1b fa 09 3e
       -0.101469286 -0.09594355 -0.11253124 0.13474314
0001d0 52 8a 0e be 64 23 46 3e 2f 66 91 bd 11 61 73 39
       -0.13919953 0.19349438 -0.07099568 0.00023210446
0001e0 3c 32 18 be e5 f0 2c be c1 10 61 3c cf 2d 37 be
       -0.14862913 -0.16888769 0.013736905 -0.17888568
0001f0 f5 2c 5f 3d 6b 73 fc bd a5 ab 40 bd a8 95 9d bc
       0.054486234 -0.12326702 -0.047038693 -0.0192364
000200 0d b7 30 3e af e3 f7 3d 4d 9b bb 3d 78 7b 23 be
       0.17257328 0.12103974 0.09160481 -0.15965068
000210 e6 33 f7 bd 29 ac d7 bd 65 ce 2c be 2f 2f 88 bb
       -0.12070446 -0.10530884 -0.16875608 -0.0041560153
000220 95 84 11 be 99 e0 03 3e 02 c3 bb 3d ab 75 d6 bd
       -0.14210732 0.12878646 0.09168054 -0.10471662
000230 18 a2 e0 bd 6e 02 1f 3e d9 0f 3c bd 48 e8 29 3c
       -0.10968417 0.1552827 -0.04591355 0.010370322
000240 84 d8 ab 3d 42 b4 81 3d b8 64 d7 bc dd e1 5e 3d
       0.083909065 0.063332096 -0.026293144 0.05441462
000250 2f 3b f9 bc d3 19 bc bd 03 d4 fc bd 35 4a b8 bd
       -0.030423729 -0.09184613 -0.123451255 -0.08998529
000260 63 72 46 3d 14 19 cd 3d bd 99 32 bc 30 97 6e 3c
       0.04844893 0.10014549 -0.010900912 0.014562413
000270 2b c5 9d 3d 0e 5d f1 bc d6 c0 3c bd f6 cb 1f 3e
       0.077036224 -0.029463317 -0.04608234 0.15605149
000280 af 1c 24 bd 22 83 19 3d b5 33 00 3e 8b 08 05 bd
       -0.040066417 0.037478574 0.12519725 -0.03247885
000290 d7 c1 21 3e 9e 83 d3 3d 45 a7 1d be ff e8 81 bc
       0.157966 0.10327838 -0.1539584 -0.015858172
0002a0 0e 24 29 bd a1 0e 23 be fb 28 d9 bd 7d 4e ef 3c
       -0.04129415 -0.15923549 -0.106035195 0.02921223
0002b0 19 b8 37 be ed 9a b3 3d 2f 87 28 3e f0 d2 c2 bd
       -0.17941321 0.08769784 0.16457818 -0.095128894
0002c0 a0 e1 32 be 4d bc 2e 3e 87 bc 52 3d 2b 16 87 3d
       -0.17468882 0.17064019 0.051449325 0.06596025
0002d0 c3 d1 3b 3c b1 48 03 be 4a 8a 1d be 5d 98 ff bd
       0.011463585 -0.12820698 -0.15384784 -0.12480233
0002e0 e5 04 01 3d 01 0f a4 3d fb 38 28 3e 94 91 0f bd
       0.03149881 0.08010674 0.16427986 -0.035050943
0002f0 71 c1 30 3e ee 34 95 bd d8 c2 9b 3d ca 98 09 3c
       0.17261292 -0.07285486 0.07605523 0.008398244

bottleneck0.1.weight f4 [192]
000000 26 df f5 3e 91 94 bb 3e 77 53 66 3e b9 98 d0 3e
       0.4802181 0.36636785 0.22492777 0.40741518
000010 14 41 46 3f 0e 3c b7 3f 75 0e 03 3f 1a a2 a3 3e
       0.7744305 1.4315202 0.51193935 0.3195961
000020 ff b1 83 3f ed e9 55 3f 27 46 84 3f 2f 4e 6c 3f
       1.0288695 0.8356007 1.0333909 0.923068
000030 d2 5d 78 3f 4a ab 04 3f 31 ae 8e 3f 03 77 4f 3d
       0.9701816 0.51823866 1.1146909 0.050650608
000040 d4 56 8c 3f 35 fd e4 3f 3b e4 72 3e 86 07 81 3f
       1.0963998 1.7889773 0.23719876 1.0080421
000050 6d bb 4d 3b 48 2e ba 3e e6 2e 5e 3f be 74 02 3f
       0.0031392232 0.36363435 0.8679031 0.50959384
000060 d1 86 e3 bd 3a f9 e4 3e 35 5c 3d 3f 4e c8 9d 3e
       -0.111096986 0.44721395 0.7396882 0.30816883
000070 66 ef 28 39 3d d7 60 3f 60 97 26 3e a0 4b 6d 3f
       0.00016110911 0.8782843 0.16268682 0.9269352
000080 e4 c9 92 3f 69 16 b0 3f 99 70 d8 3e 19 c1 41 3f
       1.1467862 1.3756839 0.42273405 0.7568527
000090 46 03 5e 3f 3f b9 fd 3e f8 cb a1 3c 31 48 fd 3e
       0.86723745 0.49555394 0.01975058 0.4946914
0000a0 c7 2d 35 3f 03 b7 1d 3f 41 41 da 3e 13 ee fe 3e
       0.70772976 0.6160738 0.4262791 0.4979101
0000b0 5a 2a ed 3e 1e dd 3a 3f c5 e1 a7 3e da ed 37 bc
       0.46321374 0.7299365 0.32789436 -0.011226142
0000c0 3e f6 4c 3f f7 f1 24 3f 15 54 b8 3f 09 16 9f 3f
       0.80063236 0.6443171 1.440066 1.24286
0000d0 ca c4 f5 3e 65 b1 f4 3e 82 92 01 bc b6 f9 7c 3e
       0.480017 0.4779159 -0.007908465 0.24704632
0000e0 c4 cd 3e 3f 9a 7f 81 3f e5 f3 86 3f 44 be 10 3f
       0.74532723 1.0117066 1.0543181 0.5654032
0000f0 6c 7e 86 bb 08 85 49 3f 9c 68 72 3f 3e c9 4f 3f
       -0.004104426 0.78718615 0.9469087 0.81166446
000100 a2 e7 0e 3f 9f 6f c0 3f 41 26 24 3f c1 8c bd 3e
       0.55822194 1.5034064 0.6412087 0.3702145
000110 86 86 73 3f 80 3c 19 3f 2a 6b 41 3f 1b ed 79 ba
       0.9512714 0.5985794 0.75554144 -0.00095339277
000120 ab 13 75 3f bf 05 02 3f 2d 7a 2c 3f da 8d 45 3f
       0.95733136 0.5079002 0.67373925 0.77169573
000130 0a 72 fd 3e 27 fa 0a 3f 97 a1 54 3f c3 e5 be 3e
       0.49501067 0.5428795 0.83059067 0.3728467
000140 92 18 58 3f 8d 65 37 3f 8c 2e 32 3f 77 a8 ed 3e
       0.8441249 0.7163933 0.69602275 0.4641759
000150 67 a1 22 ba b8 ea 4e 3f 48 06 33 3f 35 7a 4f 3f
       -0.00062038604 0.808269 0.6993146 0.8104585
000160 e4 8b 9c 3f 1d fc 37 3f d0 e6 b5 3e 8c 55 58 3f
       1.2230191 0.7186907 0.35527658 0.84505534
000170 1b e8 f0 3e 1a 98 59 3f 8a 40 a4 3f 2b 20 65 3f
       0.47052082 0.84997714 1.2832196 0.8950221
000180 29 fd ae 3e 2f 17 41 3f c3 86 44 3f d8 a5 16 3f
       0.3417752 0.75426 0.7676813 0.5884681
000190 82 2b 00 3f 65 92 84 3f e2 fc c2 3e a1 7d 07 3d
       0.5006639 1.0357176 0.3808356 0.033078793
0001a0 95 51 6e 3f aa f0 9a 3e e3 8d eb 3c ab 7e 36 3f
       0.93093234 0.30261737 0.02875418 0.7128703
0001b0 af 41 a7 3f 0e f8 0e 3f 49 7a 10 3f 89 4c 40 3f
       1.306692 0.5584725 0.5643659 0.75116783
0001c0 6f 4b a3 3f 76 4d 19 3f b9 31 2c 3f 1c 08 9b 3e
       1.2757396 0.5988382 0.6726337 0.30279624
0001d0 09 74 bf 3b 4e 06 ae 3f a3 ef 02 3f 27 7e 4f bb
       0.00584269 1.3595674 0.51146907 -0.0031660886
0001e0 89 fc fe 3e 7a 36 0f 3e 42 c2 ef 3f 98 5d ea 3e
       0.49802044 0.13985625 1.8731158 0.4577453
0001f0 87 b3 a6 3f 71 34 3c 3f 37 ec 36 3e 40 f3 f7 3e
       1.3023537 0.7351752 0.17863546 0.48427773
000200 70 f8 a6 3f c5 ec 15 3f 89 4a c3 3e cc a3 58 3f
       1.3044567 0.58564407 0.38142803 0.84624934
000210 3b 4f dd 3e 21 ea 35 3f 26 71 b2 3f a1 60 46 3f
       0.4322451 0.7106038 1.394078 0.77491194
000220 b5 f7 e6 3e c6 7e 94 3e b4 31 bd 3e dd 76 49 3f
       0.4511086 0.2900297 0.36951983 0.78696996
000230 26 20 49 bc 04 20 0e bb a6 7c c0 3e 21 a1 01 3f
       -0.012275731 -0.0021686563 0.375951 0.5063649
000240 98 67 92 3f 81 f5 b1 3e 51 aa c2 3f 18 b9 1a 3f
       1.1437864 0.34757617 1.5208226 0.6043868
000250 40 3c 54 3b 61 7b da 3e 2a 78 dd 3d 5d af ac 3e
       0.0032384545 0.42672256 0.10813935 0.33727542
000260 da ea 91 3e dd 88 e8 3e f6 9f 58 3f 66 73 c0 3e
       0.2849949 0.45416918 0.8461908 0.37588042
000270 c5 eb 21 3f 81 53 38 3f 51 a7 e1 3e 78 1a 8a 3f
       0.6325038 0.72002417 0.44072965 1.0789328
000280 f3 02 8b 3f 50 a3 95 3f bb d7 20 3f ff a1 95 3f
       1.0860275 1.1690464 0.6282918 1.1690062
000290 c7 3a dc 3e 67 9c 1a 3f e1 34 f5 3e bf a7 98 3d
       0.43013594 0.603949 0.47891906 0.0745387
0002a0 c5 ef ec 3e d9 45 03 3f b2 4c 44 3f 4d 8c 20 3f
       0.4627668 0.51278454 0.7667953 0.6271408
0002b0 36 0a b3 3e b1 0f c2 3f 4f 9d 67 3f 8b d4 09 3f
       0.34968728 1.5161039 0.9047441 0.5383994
0002c0 e9 7b 43 3f 42 09 cc be 6f 7b 33 3f 5b f5 01 3e
       0.76360947 -0.39850813 0.7011022 0.12691252
0002d0 19 6f 56 3f 92 d9 4c 3f a6 21 bf bd ac 8a 2e 3f
       0.8376327 0.80019486 -0.0933259 0.68180346
0002e0 6c 4a 86 bb 41 5b 11 3f c0 f9 32 bb d0 4c 22 3f
       -0.0040982272 0.5677987 -0.0027309507 0.63398457
0002f0 45 68 76 3f da 26 39 3f fd 6f 38 3f a6 c9 1a b9
       0.9625285 0.7232491 0.7204588 -0.00014761704

bottleneck0.1.bias f4 [192]
000000 16 06 62 be 0b 51 02 3e 64 fc f5 3b d1 d3 e2 3c
       -0.22072634 0.12726228 0.007506894 0.027688893
000010 2f c6 e7 3d 86 e5 02 bd 1e a6 d1 be 62 c0 48 3d
       0.113170974 -0.03195717 -0.4094705 0.049011596
000020 a2 6b 51 3d de 37 13 be a6 a7 af 3c fe 14 93 3d
       0.051128037 -0.1437678 0.021442246 0.07181738
000030 d9 a4 43 3e c6 39 76 3e a2 ad 39 bd fd c8 bf be
       0.19105853 0.24045476 -0.045331605 -0.3745803
000040 44 cd c7 bc f5 6c a5 bc 52 74 43 be 37 6f 10 3d
       -0.02438987 -0.020193556 -0.19087341 0.035262313
000050 48 5a cd bc 66 f1 89 3e f7 11 6e be a0 54 04 3e
       -0.025067464 0.26941985 -0.2324904 0.12922907
000060 85 2b ea 3e b1 10 7e bc 08 96 c6 bd 2a c9 93 be
       0.45736328 -0.015506909 -0.09696585 -0.28864413
000070 b3 db 81 bc a8 95 98 bd 9a f4 33 3c 05 e6 e6 bc
       -0.015851831 -0.0745042 0.0109836105 -0.028185854
000080 13 99 af 3d b8 cd 03 3e f1 9b b1 be e6 74 64 be
       0.085741185 0.12871444 -0.34689286 -0.22310218
000090 86 04 c5 39 20 35 28 be c2 7f 20 3f f1 13 57 3d
       0.00037578138 -0.16426516 0.6269494 0.052509252
0000a0 f0 f1 5e be 40 1e 57 be fb 4f 15 3e 10 96 9a 3d
       -0.2177198 -0.21007633 0.14581291 0.075481534
0000b0 54 0d c8 bb de f1 de 3d 1b a8 ac 3d 5f be f1 bd
       -0.0061051045 0.10885976 0.08430501 -0.118038885
0000c0 36 59 94 bb 43 d9 93 bd 07 d4 5c 3d 65 1a 19 bd
       -0.0045272363 -0.07219174 0.053913143 -0.037378687
0000d0 1c ef 2e 3e bb 7d 09 bd b6 10 95 bd e1 f0 03 3e
       0.170834 -0.03356717 -0.07278578 0.12884857
0000e0 96 b0 f8 3c 52 76 22 be 02 a8 f7 3d 56 6f 01 be
       0.03035764 -0.15865448 0.12092592 -0.12640128
0000f0 b0 8c 1c bd ce 27 cc 3d 81 2c 51 bc f4 79 56 3c
       -0.038220108 0.0996853 -0.012766958 0.013090599
000100 28 c1 93 bd 98 f5 b5 bc 8b cc 5d bd 2f d5 98 be
       -0.07214576 -0.022211835 -0.054150146 -0.29850146
000110 41 9b 35 3d e3 c0 2d 3e e1 da 2a bb db 1f 4a bc
       0.044337515 0.16968112 -0.0026070403 -0.0123366965
000120 f0 c1 e9 bd 6e 76 a3 bd 1b 30 80 be be 93 ea 3d
       -0.11413944 -0.07981573 -0.25036702 0.11453961
000130 9d 34 5e 3e 21 a0 45 3e 1f 62 ce bc 06 15 c1 3d
       0.21699758 0.19299366 -0.025193272 0.09427838
000140 6b e7 1f 3e 6c 80 9e 3e 24 07 37 3d 4b f7 7c be
       0.15615623 0.30957353 0.044684544 -0.2470371
000150 19 b3 76 bc 48 0f 69 3d 8b e5 50 bb 68 ce 01 be
       -0.015057349 0.05689934 -0.00318751 -0.12676394
000160 55 ea 35 bd ec 56 3e 3e 52 6f 7d 3e bd 36 f8 3c
       -0.04441293 0.18587846 0.24749497 0.030299539
000170 72 49 52 3e cd fb 25 be b8 51 bc bd 58 c6 6d bd
       0.2053583 -0.16209336 -0.09195274 -0.058050483
000180 9a d7 a3 3e 8c 09 8d 3d 4e c6 a0 bd 28 7c 66 3d
       0.32000428 0.068865865 -0.078503236 0.05627075
000190 22 42 b6 3e ff 38 35 be 56 88 91 be 3d ae 80 be
       0.3559733 -0.17697524 -0.2842433 -0.25132933
0001a0 db 4c 01 bd ce 96 97 be da 1d 89 be aa 43 ad 3d
       -0.031567436 -0.29607242 -0.26780587 0.084601715
0001b0 e7 c5 ea bc 13 77 6a 3c ac 2b 58 be cf c1 90 be
       -0.02865882 0.014310616 -0.2111041 -0.28272864
0001c0 37 f4 e7 bd b9 53 92 be 0e 03 94 3d 14 1e a8 3e
       -0.11325877 -0.285795 0.07227145 0.32835448
0001d0 a0 15 74 bd b7 6d 1c 3d 6f 74 bd 3d 6a c0 8c be
       -0.059590936 0.03819057 0.092507236 -0.2749055
0001e0 16 61 d8 3d ba 57 a4 be 15 0c 06 be 68 e1 2b 3e
       0.10565393 -0.3209818 -0.13090546 0.16785204
0001f0 22 98 60 bd a3 f4 b2 be 44 5f 59 3b c4 6f 19 be
       -0.054832585 -0.34952268 0.0033168355 -0.14984041
000200 6b 8c 98 be be f3 e1 3c c7 47 2a 3c 98 14 27 be
       -0.2979463 0.027582046 0.01039309 -0.1631645
000210 98 f7 6e 3e 84 95 2f be c2 c4 cd 3d 83 a5 4c be
       0.23336637 -0.1714688 0.10047294 -0.19985013
000220 9e 00 7b be 11 9a 67 3e bb 4e 3c 3e 53 c6 9d be
       -0.24511954 0.22617365 0.18389408 -0.30815372
000230 7e b6 6c be 32 54 9f bd 9a 71 94 3e d7 ab 6c be
       -0.2311649 -0.07779731 0.2899292 -0.23112427
000240 4f 6c 13 be cf d5 c4 bd 57 9a bf bc 59 76 14 be
       -0.14396785 -0.09611093 -0.023389025 -0.14498271
000250 2c 67 0b be b4 4b ad be 9e cb b9 3e 80 b3 9c be
       -0.13613576 -0.3384682 0.3628816 -0.30605698
000260 f6 d8 a2 3e 27 48 ce 3d 2f 35 35 bd 5e 62 ca 3d
       0.31806153 0.10072356 -0.044240173 0.09882043
000270 83 71 72 3e 35 39 c4 bd e1 32 0a bc 8d 24 7a 3d
       0.23676114 -0.09581224 -0.008434982 0.061070014
000280 ae 2b fd bd b9 00 f9 bb 9c 68 0f 3d ab 9f a3 bc
       -0.12361847 -0.007598963 0.035011873 -0.019973597
000290 5a 5f eb bd 2d 44 ab be 5f 44 ac 3d 53 20 de 3e
       -0.11492796 -0.33450451 0.08411478 0.43384036
0002a0 da 42 97 3e ed f7 35 be e6 1d bb bd 79 c2 a9 3b
       0.2954319 -0.17770357 -0.09136562 0.0051806537
0002b0 cf 75 f5 3d 36 a7 b4 bc 07 0d 52 bd 46 21 46 3e
       0.11985361 -0.022052389 -0.051281955 0.1934863
0002c0 0b f6 d8 3d ad 85 bd 3d af 86 90 3e a6 57 9f 3e
       0.10593804 0.09254012 0.28227755 0.31121558
0002d0 86 00 bb 3d 9d e4 04 3e 73 7b a4 3e ce 72 45 3e
       0.09130959 0.12977834 0.32125434 0.19282076
0002e0 c4 f1 55 bd df 3f 31 bc 6c 52 69 bc f3 21 88 bd
       -0.05223252 -0.010818451 -0.014240842 -0.066471
0002f0 f3 02 4c 3d 75 4b 2c be e8 a7 3e be d9 6d 9b 3e
       0.0498075 -0.1682566 -0.18618739 0.30357245
