TradingGym/TradingGym_100.pth (torch_old, 700035 bytes, 52 tensors)

conv0.0.weight f4 [256, 1]
000000 ac a2 7c 3f 4f d0 80 3f ac 78 84 3f 05 7f 84 3f
       0.9868572 1.0063571 1.0349326 1.0351263
000010 e0 50 7e 3f 4d b8 82 3f 78 35 79 3f ac ad 82 3f
       0.99342155 1.0212494 0.9734721 1.020925
000020 08 94 81 3f c8 21 7f 3f 46 e3 7c 3f 88 c7 83 3f
       1.01233 0.9966092 0.9878429 1.0295267
000030 d1 36 7e 3f 7d 12 82 3f 53 ce 7e 3f db b9 79 3f
       0.99302393 1.0161892 0.99533576 0.9754922
000040 8c 9f 84 3f 5e 84 76 3f 1d 8d 75 3f 9f 7f 72 3f
       1.036119 0.96295726 0.95918447 0.94725984
000050 65 90 83 3f 26 6a 7a 3f e5 b5 7f 3f ca 6a 82 3f
       1.0278441 0.9781822 0.99886924 1.018884
000060 0d 3e 7f 3f 4e a7 82 3f 94 06 7c 3f b4 03 7d 3f
       0.99704057 1.0207307 0.9844754 0.98833776
000070 e6 6e 7d 3f 01 15 79 3f be b5 7d 3f 35 1e 7b 3f
       0.9899734 0.97297674 0.9910544 0.9809297
000080 b4 0e 83 3f ae c4 7b 3f d9 d5 7f 3f 66 bf 81 3f
       1.0238862 0.98346984 0.9993568 1.0136535
000090 e5 d7 82 3f d0 0e 7a 3f 84 fb 7a 3f 9e d2 81 3f
       1.0222136 0.9767885 0.9804003 1.01424
0000a0 97 52 7b 3f 18 89 7e 3f 77 2f 80 3f 83 64 7f 3f
       0.981729 0.9942794 1.0014485 0.99762744
0000b0 b0 b7 76 3f 86 0a 7e 3f 7c 9d 80 3f 85 31 80 3f
       0.96374035 0.9923481 1.004806 1.0015112
0000c0 1e 94 83 3f 99 6b 7d 3f 3b 4d 7c 3f ed e5 71 3f
       1.0279577 0.98992306 0.98555344 0.94491464
0000d0 4a ca 7f 3f 7b 0b 79 3f d6 ed 6d 3f 27 cc 80 3f
       0.99918044 0.9728314 0.92941034 1.0062302
0000e0 cd 0c 7f 3f 1a 29 7c 3f 7b f1 7a 3f a7 05 7a 3f
       0.9962891 0.98500216 0.9802472 0.97664875
0000f0 44 48 80 3f ab 13 74 3f 2b ff 77 3f 5f 2a 75 3f
       1.0022054 0.9534251 0.9687373 0.9576778
000100 84 02 80 3f 2b c9 79 3f bd 1d 7e 3f a7 e2 78 3f
       1.0000768 0.9757258 0.99264127 0.97220844
000110 74 65 77 3f ba d3 79 3f 86 20 83 3f 6b 2b 81 3f
       0.9663918 0.97588694 1.02443 1.0091375
000120 50 e3 77 3f 92 34 7e 3f e0 c0 85 3f e7 9a 7b 3f
       0.96831226 0.99298966 1.0449486 0.9828324
000130 59 88 74 3f cd fd 7b 3f 97 72 80 3f 88 b3 7f 3f
       0.9552055 0.98434144 1.003497 0.9988332
000140 40 01 81 3f ef df 7b 3f 1d 56 73 3f f0 af 82 3f
       1.0078506 0.9838857 0.95053273 1.0209942
000150 36 c1 7d 3f b3 d1 71 3f 2c 09 81 3f a9 31 7e 3f
       0.9912294 0.944606 1.0080924 0.99294525
000160 d5 14 81 3f f4 88 7c 3f 99 93 84 3f 63 18 7d 3f
       1.0084482 0.98646474 1.0357543 0.98865336
000170 bb 89 7b 3f 25 0f 7e 3f 00 49 7c 3f 7a d2 7e 3f
       0.98257035 0.9924186 0.9854889 0.9953991
000180 6f ad 84 3f b1 37 80 3f 47 24 74 3f 8f 16 85 3f
       1.0365428 1.0016996 0.95367855 1.0397509
000190 67 f3 82 3f 47 ee 7f 3f d8 6a 7d 3f 43 09 7d 3f
       1.023053 0.9997296 0.98991156 0.9884226
0001a0 66 db 7e 3f 55 1f 7c 3f 1f b0 84 3f 6f f8 80 3f
       0.99553525 0.9848531 1.0366248 1.0075816
0001b0 a1 65 7e 3f b2 63 81 3f 82 24 84 3f 17 a1 84 3f
       0.99373823 1.010855 1.0323641 1.0361661
0001c0 87 d9 82 3f 2c d2 86 3f d4 b6 80 3f dd 31 82 3f
       1.0222634 1.0532889 1.0055795 1.0171467
0001d0 b3 3a 80 3f e2 79 83 3f b2 95 7d 3f 93 41 81 3f
       1.0017914 1.0271571 0.9905654 1.0098137
0001e0 7f 24 80 3f 4a ea 83 3f a7 c6 83 3f a4 22 7d 3f
       1.0011138 1.0305874 1.0294999 0.9888098
0001f0 72 9e 7d 3f 6a 0c 7e 3f 48 6e 83 3f 6a d1 81 3f
       0.99069893 0.9923769 1.026803 1.0142033
000200 76 80 83 3f 9c 0d 84 3f 70 a3 7f 3f db a7 7f 3f
       1.0273578 1.0316653 0.9985876 0.998655
000210 54 1d 81 3f 25 b4 85 3f e7 b1 7e 3f 63 a9 7d 3f
       1.0087075 1.0445601 0.9949021 0.9908659
000220 ce a9 78 3f b3 93 81 3f 0c 2a 83 3f 7e 9c 7c 3f
       0.971341 1.0123199 1.0247207 0.9867629
000230 ed c6 82 3f c6 c7 83 3f 6c e5 82 3f 57 c6 7b 3f
       1.0216957 1.0295341 1.0226264 0.9834952
000240 9f 60 86 3f bc b8 7f 3f c0 ec 7c 3f f2 2f 7f 3f
       1.0498236 0.9989126 0.9879875 0.99682534
000250 ec 8e 7c 3f 8e b0 82 3f 0c a3 84 3f bf 1a 7b 3f
       0.9865558 1.021013 1.0362258 0.98087686
000260 85 c0 7e 3f 48 3b 80 3f 06 7c 87 3f 07 a6 7e 3f
       0.9951251 1.0018091 1.0584724 0.9947209
000270 44 44 81 3f ac ea 82 3f a9 b3 84 3f 6a 81 7a 3f
       1.0098958 1.0227866 1.0367328 0.9785372
000280 54 23 7c 3f 36 f3 80 3f 14 2b 83 3f 61 ab 7e 3f
       0.98491406 1.0074222 1.0247521 0.99480253
000290 fc e9 7c 3f f2 1f 82 3f 60 26 7c 3f f9 b6 80 3f
       0.9879453 1.0165999 0.98496056 1.0055839
0002a0 9d 35 7f 3f a9 a3 84 3f ec cc 81 3f 2d b8 80 3f
       0.9969118 1.0362445 1.0140662 1.0056206
0002b0 21 ce 80 3f 3c d5 85 3f d7 43 7b 3f d9 90 7c 3f
       1.0062906 1.0455699 0.9815039 0.9865852
0002c0 6a 81 85 3f 1e a3 7c 3f f5 e1 80 3f 17 a6 7c 3f
       1.0430119 0.986864 1.0068957 0.98690933
0002d0 b0 ca 7b 3f d7 6d 7f 3f 94 1d 7e 3f 0a 13 79 3f
       0.9835615 0.9977698 0.9926388 0.97294676
0002e0 15 c0 72 3f 9a a1 7b 3f e0 0d 84 3f 94 51 75 3f
       0.94824344 0.9829346 1.0316734 0.95827603
0002f0 04 45 78 3f 2c 2d 7a 3f b4 ae 81 3f d0 2f 82 3f
       0.9698031 0.97725177 1.013144 1.0170841
000300 c5 b1 7a 3f 7f 38 81 3f 81 47 77 3f 40 42 82 3f
       0.97927505 1.0095366 0.9659348 1.0176468
000310 fa a7 7f 3f 8c d0 7d 3f 79 f4 76 3f 60 6a 77 3f
       0.99865687 0.9914634 0.96466786 0.9664669
000320 49 10 82 3f 24 07 7c 3f a6 d3 7b 3f 5b 3f 80 3f
       1.016122 0.98448396 0.98369825 1.0019335
000330 8f 30 80 3f 4e 49 7f 3f bb 64 81 3f b8 cb 80 3f
       1.0014819 0.9972123 1.0108865 1.006217
000340 54 ed 80 3f c9 57 77 3f a6 94 82 3f 89 62 7d 3f
       1.0072427 0.96618325 1.0201614 0.9897848
000350 d4 1a 7d 3f de 06 80 3f f4 38 76 3f c4 29 81 3f
       0.9886906 1.0002096 0.96180654 1.0090871
000360 54 b7 7e 3f 0c bd 7c 3f a9 80 80 3f 1c c6 7d 3f
       0.99498487 0.9872596 1.0039264 0.99130416
000370 51 2e 7f 3f b4 03 79 3f 8b 53 7e 3f 5c c3 7e 3f
       0.9968005 0.97271276 0.99346226 0.99516845
000380 88 6f 82 3f 07 ca 83 3f 83 20 7c 3f 59 e6 7b 3f
       1.0190287 1.0296029 0.9848711 0.9839836
000390 d9 cf 81 3f dc 3c 81 3f f7 ae 7c 3f 8a 4d 81 3f
       1.0141555 1.0096698 0.98704475 1.0101788
0003a0 3c 7a 80 3f 7c b2 7e 3f 57 43 81 3f 61 94 81 3f
       1.0037303 0.99491096 1.0098675 1.0123407
0003b0 3b ac 82 3f ac 55 83 3f 9f 88 7f 3f 9c 32 86 3f
       1.020881 1.026052 0.9981784 1.0484195
0003c0 14 70 7e 3f 2c cb 6e 3f 52 f5 81 3f e1 95 81 3f
       0.9938977 0.93278766 1.0152991 1.0123864
0003d0 97 5c 7f 3f c0 54 74 3f 88 38 7e 3f 5a 96 7d 3f
       0.99750656 0.9544182 0.9930501 0.99057543
0003e0 98 5d 86 3f f3 33 80 3f 9f 53 80 3f ee 98 81 3f
       1.0497313 1.0015854 1.0025519 1.0124795
0003f0 52 9f 84 3f 05 cb 81 3f 89 c9 80 3f 6f 9a 83 3f
       1.0361121 1.0140082 1.0061504 1.0281504

conv0.0.bias f4 [256, 1]
000000 82 e9 51 3c 75 bc d9 3b 40 61 c2 ba 30 e9 d4 bc
       0.01281202 0.0066447803 -0.0014830008 -0.025990099
000010 7a 73 7f 3c cd 73 68 bb 5e 00 f6 3c d3 d9 70 3c
       0.015591497 -0.0035469413 0.030029472 0.014700371
000020 dc e7 a3 bb ae 1b 40 bc 04 4f 67 bc d3 80 4a b9
       -0.005002005 -0.011725349 -0.01411796 -0.00019312212
000030 db 4e 2f bb d1 34 85 ba 85 ff 0c bc 71 f0 5d bb
       -0.0026749882 -0.0010162835 -0.0086058425 -0.0033865238
000040 18 3a 0d 3c 76 48 00 3d 28 3c d0 bc e8 3e 57 3c
       0.008619808 0.031319104 -0.02541931 0.013137557
000050 cb 39 8f 3c 53 0b 06 bb d0 ce 26 bc f9 9f 97 3b
       0.017483613 -0.0020453527 -0.010181144 0.0046272245
000060 29 a2 1a bc 0d a2 b0 bc d8 37 b2 3c bd 1c 40 3c
       -0.009438076 -0.021561647 0.021755144 0.011725602
000070 37 f4 b6 bc 73 de bd 3b 74 c1 a8 bc 88 18 cb 3c
       -0.022333248 0.0057943403 -0.020600058 0.02479197
000080 39 ef 1f 3d 26 c7 10 bc f8 3a 08 bd 80 cf e1 3a
       0.0390465 -0.008836543 -0.033259362 0.0017227978
000090 23 04 b3 3a 53 f9 1b 3c e3 fe ad bc a4 ab f5 3c
       0.0013657849 0.009519893 -0.021239704 0.029989071
0000a0 22 2a e9 38 c0 2d c6 3a 33 3c 50 bc 11 2c 99 bc
       0.000111181536 0.0015119836 -0.012709665 -0.01869777
0000b0 ed 66 de bc b6 a0 9e 3a cc b2 15 3d d3 38 cd 3a
       -0.027148688 0.0012102339 0.036547467 0.0015657194
0000c0 e8 c2 0b 3d d7 cd c6 bc 3d a7 c1 bb 33 1e 23 3d
       0.034121424 -0.024268074 -0.005909829 0.039823722
0000d0 20 05 a5 bc b0 72 bb b9 fa e4 34 bd fa b9 94 3b
       -0.020144045 -0.00035752868 -0.04416368 0.0045387717
0000e0 27 bd b7 bc 13 51 9d bb 27 be 96 bb 9d 27 d0 bc
       -0.022429062 -0.0048009246 -0.0046003046 -0.025409514
0000f0 67 bb 82 bc 46 59 f9 bb ae 1d f3 bc c8 d0 33 3c
       -0.015958501 -0.007609519 -0.029677238 0.01097507
000100 b4 d3 bd bc fc 97 08 3d 27 41 54 3b 25 43 fe 3b
       -0.023172237 0.03334807 0.0032387467 0.007759469
000110 96 cc 5d bb b2 4f 96 3c 6b c0 a7 bc 25 61 f0 bc
       -0.0033843867 0.018348549 -0.020477494 -0.029343197
000120 36 ec a9 bc a4 1f 0a 3d 8e 63 12 bd a6 4d 22 3d
       -0.020742517 0.03372158 -0.035739474 0.039624833
000130 a4 08 ac bb 99 2e 7b ba a4 f0 05 bd 86 9f 9f 3c
       -0.0052500535 -0.0009581834 -0.032700196 0.019485246
000140 e7 07 af 3c a4 56 3d bc fc 79 8d bb f0 6b 0c 3c
       0.021366073 -0.011556301 -0.00431752 0.008570656
000150 1a 0d 85 bc 5c 8b 7d bc 0f e2 74 37 91 f8 63 bc
       -0.016241599 -0.01547512 1.4596167e-05 -0.013914243
000160 78 5c 10 3d 3e 1c 81 bc c1 9d 8d bc c8 ed 95 bb
       0.035244435 -0.015760537 -0.017287137 -0.004575465
000170 c2 e4 dd 3c 03 85 1d bb 67 a0 70 bb 55 e6 4b bc
       0.02708662 -0.002403558 -0.00367167 -0.012445052
000180 74 16 56 3b 30 f7 76 bc b8 30 e3 3c f8 1d ef 3b
       0.0032667192 -0.0150735825 0.027733192 0.0072972737
000190 60 07 05 b9 cf fd 60 bb 75 28 97 3c e2 d8 1c bd
       -0.00012686616 -0.003433097 0.018451909 -0.038292773
0001a0 c3 18 54 ba b9 59 eb 3b 29 89 8d 3c 33 e8 94 3b
       -0.0008090848 0.0071823266 0.017277317 0.004544282
0001b0 d6 e6 7d 3c 2a ba 27 3c 99 e9 a2 3c a1 36 31 3c
       0.01549693 0.010237256 0.019886779 0.010816247
0001c0 93 f7 c5 bb 30 d4 49 bc a6 43 4b b9 04 4c cc bb
       -0.006041476 -0.012318656 -0.0001938479 -0.0062346477
0001d0 eb 92 96 3c 4b 1f e9 bb 07 4b b3 3c 7f b9 0a bd
       0.018380603 -0.007114326 0.021886362 -0.03386831
0001e0 2a 4a 74 bd 80 7b b2 ba 03 bc 7a 3c 81 e0 0f 3c
       -0.05964104 -0.0013617128 0.015303615 0.008781553
0001f0 44 70 94 bc a2 44 02 ba e8 86 d0 bc e4 43 6d 3d
       -0.018119939 -0.00049693335 -0.025454953 0.057926074
000200 6a 4a 8b 3c cd 35 d8 bc 59 08 13 3d e5 8a 3e 3a
       0.017003257 -0.026392842 0.035896633 0.00072686217
000210 45 7b b8 3c ea 78 01 3b 2d 81 50 bc 1f 57 68 bc
       0.022519717 0.0019755908 -0.01272611 -0.014180928
000220 ef 66 a5 3c a1 f2 d5 bb f3 0d ba 3b 68 41 46 3c
       0.020190684 -0.0065291678 0.0056779324 0.012100555
000230 d8 66 91 bb 1a 1f 51 3b f1 dd c4 3c c7 7e 46 3c
       -0.0044373088 0.0031909407 0.024031611 0.012115187
000240 88 07 d6 bb 98 72 a4 bc 85 74 94 3c 43 c1 88 3b
       -0.0065316595 -0.020074174 0.018121967 0.004173429
000250 48 79 b4 3c 63 68 a2 3b d1 51 9d 3c 9a 5e c5 3c
       0.022030488 0.0049562915 0.019204052 0.024092961
000260 43 5c 75 3c 19 10 31 bc 6e 72 a0 bc 3e 76 ab 3c
       0.01497561 -0.010807061 -0.019585814 0.020930406
000270 8d 8c ad 3c 89 1c a8 bb 84 04 6d 3c c6 4e 4b bc
       0.021185184 -0.005130355 0.014466409 -0.012408918
000280 fe f7 b3 3c 4d 6b 3a bc 9a 1c 9b 3b 24 5b db bc
       0.021968838 -0.011378122 0.004733634 -0.026776858
000290 e0 e5 cc 3c 85 72 28 bd 29 82 9e ba b6 89 77 3c
       0.025011957 -0.04112484 -0.0012093234 0.015108516
0002a0 75 1f ac 3b 22 b7 1a bd 5a 90 7f bb f7 0d 64 3b
       0.0052527734 -0.037772305 -0.0038995952 0.0034798363
0002b0 84 2c 5a ba b2 fc 36 3b 7f 80 d2 bb 68 83 ce 3c
       -0.00083226734 0.0027921614 -0.0064240093 0.025209144
0002c0 a0 83 31 3c 5c 6d e0 3c 05 3c 97 3b 64 22 83 bb
       0.0108346045 0.027395897 0.004615309 -0.0040019024
0002d0 24 8c 9e bc 89 d4 01 3c 65 90 6c bc fc 74 a5 3c
       -0.019353934 0.0079242075 -0.014438723 0.020197384
0002e0 7f 43 51 bb 8a 1b 99 bc cf f2 e0 3b 31 75 b4 3c
       -0.00319311 -0.01868989 0.0068648825 0.022028537
0002f0 75 ce ca ba 72 47 f8 bc 2c 0c 8b 3c fa 23 06 3d
       -0.0015472906 -0.030307505 0.016973577 0.032749154
000300 2f 67 1e bd ec 37 57 bb f4 fe 15 bd 29 25 46 bc
       -0.038672622 -0.0032839729 -0.036620095 -0.012093821
000310 21 9d a7 3c 63 dc a7 bb e5 a3 b7 3c 24 21 89 bc
       0.020460667 -0.0051227077 0.022417018 -0.016739435
000320 b9 32 f2 3a 63 05 ca 3c 24 50 1a 3b f4 89 0d 3c
       0.0018478251 0.024660772 0.0023546303 0.008638848
000330 77 b3 ef 3c ea c3 b7 bb 5b 53 cd 3a 7d be a3 bb
       0.02926038 -0.0056080716 0.0015665101 -0.004997073
000340 43 32 2d bd 65 91 6a bc 6a 69 4e bc 62 8f 46 3b
       -0.04228426 -0.014316891 -0.012598375 0.0030297865
000350 a1 c1 d1 bc 40 9a 89 bb eb a3 cd bc e3 09 30 bb
       -0.025605025 -0.0041992962 -0.025102576 -0.0026861362
000360 16 88 19 3c cb dc af 3c 66 f0 ab bc 18 39 94 3c
       0.009370824 0.021467587 -0.020988654 0.01809363
000370 c8 3e 86 3c c0 4d 32 3d c8 44 7b 3b cf 1b 1a 3c
       0.016387358 0.04353118 0.0038340557 0.009406044
000380 91 96 08 bd a5 a9 2b bc 13 ca 89 3c 81 1e e3 bb
       -0.033346716 -0.010477458 0.01681999 -0.0069311266
000390 b6 9b 68 bc 5d 1b 2b bc c4 fa 82 3c 59 77 f6 bc
       -0.014197281 -0.010443536 0.015988715 -0.030086206
0003a0 44 39 86 bb 74 44 86 3c 58 69 da 3c 94 ac c0 bc
       -0.004096182 0.016390063 0.02666156 -0.023519792
0003b0 3d 6e 3c ba 3d a5 5e 3b ef 45 b3 3c 4f e7 85 bc
       -0.00071880576 0.0033973001 0.021883933 -0.016345648
0003c0 bb 8e 39 bc 87 6b b2 3b 29 06 47 3a f8 91 37 3b
       -0.0113255335 0.005444947 0.00075921655 0.0028010588
0003d0 85 03 8a 3c 23 90 c0 bc ab 31 ae ba b1 64 2f bc
       0.016847381 -0.02350623 -0.0013289949 -0.010705159
0003e0 fd ad 0c 3d d8 ef b9 bc de 68 b0 3c 88 64 a0 bb
       0.034345616 -0.022697374 0.02153438 -0.0048947968
0003f0 db d7 2e bb 88 05 80 3c 40 92 ee 3c 71 86 ba ba
       -0.0026678953 0.015627638 0.029122472 -0.001423074

conv0.1.weight f4 [32, 16, 3, 1]
000000 db a6 16 bb da 3b 1c be 2e bf ee bd d7 53 07 3e
       -0.0022987637 -0.15257207 -0.116575584 0.13215576
000010 d8 d7 89 bc 5b 85 a3 3d d7 43 ce bd d8 3d e6 3d
       -0.016826555 0.0798442 -0.10071533 0.112422645
000020 d6 ee 4e bd 67 b1 b3 bd ed bf 82 bc 2d ae ed bc
       -0.05052074 -0.08774071 -0.015960658 -0.029013718
000030 46 fe 97 bc 7a 0d 82 bd 40 f9 d0 3c 02 d0 01 be
       -0.018553864 -0.06350227 0.025509477 -0.12677005
000040 14 58 54 3d e1 23 0b 3d 77 1d b6 3d 25 61 eb 3d
       0.05184181 0.033969764 0.08892339 0.11493138
000050 fc 77 05 bd 13 9f 12 be da ba 98 3c 8b 8d 01 bd
       -0.03258513 -0.14318494 0.018643785 -0.031629127
000060 b5 33 5e bd 61 02 9b bd 33 4e 00 3e 4b 47 1d 3d
       -0.05424853 -0.07568813 0.1252983 0.03839807
000070 30 f4 80 bc 74 fd db bc 89 e6 3e 3c 52 bd cf bc
       -0.015741438 -0.026854254 0.011651644 -0.02535883
000080 01 75 88 3c 0a d3 22 bd 6b 4b e9 3d fe 17 d8 3d
       0.016657354 -0.039752044 0.11391338 0.10551451
000090 49 ac 7b 3c 51 4d 1c 3d 91 53 1e bd e8 da 0e be
       0.0153609 0.038159672 -0.038653914 -0.13950694
0000a0 22 37 90 3d df 22 04 bd f3 b7 ca bc 50 c3 89 bd
       0.07041766 -0.03225982 -0.024745917 -0.06726706
0000b0 c1 cb 8a bd b1 b9 59 3d ac 2c 95 3d 49 4b d9 3c
       -0.06777144 0.053155605 0.07283911 0.026525157
0000c0 79 2b fe 3c a4 f3 81 3b 50 ee 92 3c a1 53 86 bd
       0.031026589 0.003965812 0.017935902 -0.0655892
0000d0 83 6d 14 3e fa 71 1e bd cc 48 fa bd b5 b6 ec bd
       0.144949 -0.038682915 -0.12220916 -0.11558286
0000e0 e8 39 04 3e 1b 2c d1 3c da 78 3f 3c eb 51 3b bd
       0.12912714 0.025533726 0.011686528 -0.04573242
0000f0 f8 bd da 3d 36 73 55 bc 91 ca 48 3d da 38 a0 3c
       0.10680765 -0.013027957 0.049021307 0.019558359
000100 5f 57 86 bd a4 ae e7 3d 53 4f 0d be d3 dd e2 bd
       -0.065596335 0.11312607 -0.13799791 -0.11077466
000110 43 40 52 3c e3 04 dc bc f7 62 20 be f3 89 f5 bd
       0.012832704 -0.026857799 -0.15662752 -0.11989202
000120 cb 1d 20 3d cf 50 06 be a9 11 e8 bd 9c 6c 0c 3e
       0.039090913 -0.13116764 -0.113314934 0.13713306
000130 d6 31 78 3d a7 db a8 3d b5 b7 d4 3d fb f1 3f 3d
       0.060594402 0.0824502 0.10386602 0.04686163
000140 55 7a 00 be 04 2e ef 3d 38 d2 e5 bd a2 22 8e 3d
       -0.12546666 0.11678699 -0.11221737 0.069401994
000150 c8 de 96 3d 8e c6 0e be 84 ef 24 bd bf ea bf 3d
       0.07366711 -0.1394293 -0.040267482 0.09370946
000160 9d a4 01 bd a4 ef 02 be 3a 9f 9e bc 97 27 76 3d
       -0.031651128 -0.12786728 -0.019363035 0.06009635
000170 5a 08 cb bd 36 db d7 3d 7b 22 e2 bd da 59 63 3d
       -0.09913702 0.10539858 -0.11041733 0.05550561
000180 5f f8 9d 3d a5 56 1c 3e 6a 96 58 bd 33 92 ab bd
       0.07713389 0.15267427 -0.05287782 -0.08377495
000190 ab cd d5 bc 07 75 0f 3e 5e 99 03 bd 4d 00 31 bd
       -0.026099047 0.14009486 -0.032128684 -0.043213177
0001a0 5e 61 b5 3d fb ae a2 bd f5 ff 40 3c ef f9 0c 3e
       0.08856462 -0.07943531 0.011779775 0.13767217
0001b0 01 d4 5a 3d 61 ac c0 bd fa cb 09 be 57 41 bb bc
       0.05342484 -0.09407879 -0.13456717 -0.022858305
0001c0 c6 d0 82 bc 3b 93 a9 bd e1 d4 c6 3d 2c 5b 0f bd
       -0.015968692 -0.08280035 0.09708572 -0.034999058
0001d0 a1 4f 11 be 30 5a 3d bd 0c 8b 51 bd f3 48 2b 3d
       -0.14190532 -0.046228588 -0.051157996 0.041817617
0001e0 bc bd d3 3d d7 bd 62 3d fc 1d a5 ba 21 06 b5 bd
       0.10338923 0.055356827 -0.0012597437 -0.088390596
0001f0 de d0 d0 3d fb 15 f9 3c 8f 6c e8 bd 8c db 05 3e
       0.10196088 0.030405989 -0.11348831 0.13072032
000200 e7 79 88 3d 45 4d af 3d 05 00 e7 bd a4 ed 1f 3e
       0.06663876 0.0855966 -0.112793006 0.15617996
000210 42 94 0c 3e 55 4c da bd b9 1b 69 3d 99 3f 04 be
       0.13728431 -0.106590904 0.056911204 -0.12914886
000220 7e 14 f9 bc 46 03 02 3d 62 96 89 3d f5 d1 c1 bd
       -0.03040528 0.031741403 0.06718136 -0.09463874
000230 80 31 84 3d aa df eb bd 62 4a 5e bd 02 41 61 bd
       0.06454754 -0.1151727 -0.054270156 -0.054993637
000240 2b 97 c1 bd 61 40 d5 3d 06 63 ce bd 23 b6 81 3d
       -0.09452661 0.1041267 -0.10077481 0.06333568
000250 de 8a eb bd e5 d5 30 3b ec 70 09 3d d7 08 cc 3a
       -0.11501096 0.002698296 0.033554956 0.0015566599
000260 b2 99 24 3c 8d 8d 79 bd 28 8f fd bd 77 65 ff bb
       0.010046409 -0.06092601 -0.123808205 -0.007794078
000270 00 5e 06 be b8 3b 37 3d cb 27 c0 bd 6d a3 c3 3d
       -0.13121796 0.044734687 -0.0938259 0.09552655
000280 6f 13 ef bd f4 7b 50 3d b2 fb f3 bd 0b c5 73 bd
       -0.116736285 0.05089946 -0.119132414 -0.059514087
000290 8c 07 ed bd 0a 81 8e 3c ef 12 02 3c 4e 0f e9 3c
       -0.11573705 0.017395515 0.007939084 0.02844968
0002a0 56 7e ec bd 45 d4 a0 bd 1d c0 78 bd 1d ea 87 3c
       -0.11547534 -0.07852987 -0.06073009 0.016591126
0002b0 19 e3 64 3d 98 b2 12 bd 48 b7 4f 3d 5c 44 eb 3d
       0.05588064 -0.03581485 0.0507119 0.11487648
0002c0 8b f1 69 3d 50 35 10 3e 24 5c b6 3d 59 e3 d1 3d
       0.05711512 0.14082837 0.08904293 0.10248441
0002d0 d2 67 ac 3d 69 16 28 3e 6c b3 2c 3c 59 9d 77 3d
       0.0841824 0.16414799 0.010540824 0.060452793
0002e0 83 57 32 bd ce 9e d1 bd 7b cd a0 bd f7 78 a0 3d
       -0.04354049 -0.10235368 -0.07851692 0.07835572
0002f0 56 7f e1 bd 0b ea 96 bd 84 5c e1 bd 69 c0 fa 3c
       -0.110106155 -0.07368859 -0.11003974 0.030609326
000300 53 22 a4 bc c6 28 ea 3d ef 9d fd 3d 7a 53 ab bd
       -0.020035898 0.11433558 0.12383639 -0.08365531
000310 4c 8b 07 bd 95 15 37 3d 7a 3b d6 3d 96 2c 7d bb
       -0.03309183 0.044698317 0.10460563 -0.0038631312
000320 94 25 ae 3d d1 b9 2d bd 47 37 a1 bd 65 b8 20 3b
       0.08503261 -0.042413536 -0.078718714 0.002452397
000330 aa 71 2f 3d 4a 23 f1 3d fa d4 ab 3b 0a 69 04 be
       0.042833008 0.11774309 0.0052438946 -0.12930694
000340 a0 3b 03 3e 0d 75 a2 3d 3b e4 d9 3c 87 a2 f4 bc
       0.12815714 0.07932482 0.026598087 -0.029862655
000350 fc b6 c9 3c 2c d0 99 3d 5d 7e 13 39 0b 53 05 be
       0.024623387 0.07510409 0.00014066086 -0.1301996
000360 87 0f c3 bd 83 cd 93 3d 17 4b 00 be 4a ec de bd
       -0.09524446 0.072169326 -0.12528645 -0.10884912
000370 0c de 0f be 83 21 20 3e 22 a8 d5 bd d1 04 52 bd
       -0.14049548 0.15637784 -0.104324594 -0.051274125
000380 00 fa 8c 3d 97 e9 37 3d 05 fb 89 3c 29 a2 14 bb
       0.06883621 0.044900503 0.016843328 -0.0022679663
000390 0a 31 6f bd bb cb 65 3c ee 90 29 bd 01 e1 0b 3e
       -0.058396377 0.014025624 -0.04139798 0.13660051
0003a0 d2 16 cd 3a b4 23 f8 3d 48 26 2d 3d 16 36 39 bd
       0.001564706 0.12116185 0.042272836 -0.045217596
0003b0 4f 62 cd bd 8e b2 9a bd 86 4a f4 3d 00 80 bd bd
       -0.100285165 -0.07553588 0.11928277 -0.0925293
0003c0 c2 55 ac bd c6 a9 a4 bd cd e5 cd bd 71 e4 8b bd
       -0.084147945 -0.08040194 -0.10053597 -0.06830681
0003d0 da ba 0e 3e f4 3d 1a 3e dc 71 f7 bc 30 68 1b bc
       0.13938466 0.15062696 -0.03020566 -0.009485289
0003e0 38 e1 02 3e 95 a3 3d 3c 3f f5 1d bd fb 2c 4a 3d
       0.12781227 0.0115746455 -0.038563963 0.049359303
0003f0 65 1a 15 bd a3 b9 fb 3d 40 27 ef bc 67 69 07 be
       -0.036402125 0.12291267 -0.02919352 -0.13223802

conv0.1.bias f4 [32]
000000 2b a9 04 3d 95 01 95 bc d7 89 dc 3d 84 dd 8b bc
       0.032387894 -0.018189231 0.10768478 -0.0170734
000010 8e c7 d8 3d 4e 2f 01 3e c4 14 13 3d 85 3c 95 bd
       0.10584937 0.12615702 0.035908476 -0.07286934
000020 03 ca a0 bd af e9 1f 3d 08 5e 4e 3d 66 6b e0 bd
       -0.07851031 0.039041217 0.050382644 -0.109579846
000030 84 78 8c bd 16 33 fa bd 2f 78 0c 3e 23 06 72 bd
       -0.06858924 -0.12216775 0.13717721 -0.059087884
000040 80 f2 05 be 13 3e 13 3d 02 61 d4 bd a1 d8 04 be
       -0.13080788 0.03594787 -0.10370065 -0.12973262
000050 3f 5a 5d bd cd 07 05 be 1c b0 de bc 50 f3 44 bd
       -0.054041144 -0.12991257 -0.027183585 -0.048083603
000060 df f5 0c bd 3a 23 af 3c a8 d7 b5 bd 66 bb af 3d
       -0.03441417 0.021379102 -0.08879024 0.08580665
000070 83 68 ba bd 87 b7 3b 3d 7f 63 11 be fa f8 75 bd
       -0.09101965 0.045829322 -0.14198111 -0.060051896

conv0.2.weight f4 [32]
000000 bf cb 76 3e 79 6a 12 3f 9c d5 00 3f 83 e7 f9 3e
       0.2410116 0.57193714 0.5032594 0.48809442
000010 58 5a ff 3e c7 cf b6 3e 0c 8a 41 3f ab c3 59 3f
       0.49873614 0.35705397 0.7560127 0.8506419
000020 c2 1e bd 3e 6a 53 2d bc cb cc 19 3f 8e 16 57 3f
       0.3693753 -0.0105789695 0.60078114 0.8401879
000030 bc 98 85 3d db 72 6d 3f fb 5b 3d 3f 56 7f 4a 3f
       0.065232724 0.9275338 0.73968476 0.7910055
000040 6a 56 79 3e 16 5d b4 3c b1 01 97 3d 04 52 80 3f
       0.2434937 0.022017043 0.073733695 1.0025029
000050 3d ca 52 3f e1 3f de 3e bd d7 c3 3e 46 ee 23 3f
       0.8233984 0.4340811 0.38250533 0.6403545
000060 32 eb ce 3e e4 9c e4 3e 53 12 f2 3c 67 5c 75 3f
       0.40413815 0.44650948 0.029549753 0.9584412
000070 64 f1 44 3d 56 03 78 3f 69 6a 0e 3e d0 d2 33 3f
       0.04808177 0.9688009 0.1390778 0.7024355

conv0.2.bias f4 [32]
000000 d0 8c 83 3a 55 59 e5 3b 42 6c f4 3a 6d 69 b9 ba
       0.0010036472 0.0069991746 0.0018647986 -0.0014145799
000010 bf 1c 5f 3a 44 a6 cf 3b 3b 07 1d ba c5 36 b5 3b
       0.00085110584 0.006336959 -0.0005990152 0.0055302107
000020 e1 1a 0e bb 8a 40 6d bb f7 4a e5 3b bc 62 c4 bb
       -0.0021683502 -0.0036201798 0.006997462 -0.0059932154
000030 e6 c6 26 bc 6f 41 87 bc 25 9a 67 3a 1b d9 2e bb
       -0.010179257 -0.016510693 0.000883492 -0.0026679698
000040 6c d4 ac bb 25 d2 02 bb c0 2d d3 b8 3d 8e e0 b9
       -0.005274346 -0.0019961682 -0.00010069786 -0.00042830585
000050 52 d7 02 b6 6b de 89 3b 4d a7 39 bb b9 de ff bb
       -1.9496842e-06 0.0042074225 -0.0028328479 -0.007808533
000060 c6 68 20 ba af de 89 bb 15 27 85 ba 32 e8 bb bb
       -0.0006119128 -0.004207454 -0.0010158742 -0.005734467
000070 7c 22 ed ba 42 b3 84 ba 31 8b 15 3c 96 06 89 bc
       -0.0018091942 -0.0010124224 0.009127424 -0.016726773

conv0.2.running_mean f4 [32]
000000 27 b6 fe 3c f1 79 a1 39 3d 8b c3 3d f8 15 d5 3b
       0.031092716 0.00030799166 0.09548042 0.006502863
000010 9b d1 f1 3d eb af df 3d 86 73 42 3d 36 5e 71 bd
       0.11807557 0.109222256 0.047473453 -0.058927737
000020 44 54 7c bd 6e 28 66 3d e2 e9 79 3d 11 8f 1c be
       -0.0616038 0.0561909 0.061014064 -0.1528895
000030 3e 55 78 bd 43 19 12 be 3a df 2f 3e ee 9d 51 bd
       -0.06062817 -0.14267449 0.17174998 -0.051176004
000040 55 f0 1d be c3 ce 30 3d ef 06 a1 bd 29 88 0e be
       -0.1542371 0.043165933 -0.078626506 -0.13919128
000050 48 c9 4c bd 39 fc 0c be 6a 89 e2 bc 45 bc 41 bd
       -0.049996644 -0.1376809 -0.027653415 -0.04729869
000060 0a e1 f5 bc 61 a1 52 3c 0d c0 f8 bd 63 58 b1 3d
       -0.030014534 0.012855859 -0.12146006 0.086594366
000070 5b 29 98 bd 5a ba 01 3c b0 28 fb bd 0d 79 1b bd
       -0.07429763 0.007917965 -0.1226362 -0.03795724

conv0.2.running_var f4 [32]
000000 45 15 13 3e 8d 3e 57 3e b7 7f a4 3e 30 b3 dc 3e
       0.14363582 0.21019955 0.3212869 0.4310546
000010 87 45 52 3e 4a a5 af 3e 63 5a 14 3f 2a 68 30 3e
       0.20534335 0.34305793 0.5795042 0.17227235
000020 39 a4 7d 3e 73 6c b6 3e 8c 58 b4 3e 5c 41 0a 3f
       0.24769677 0.35629615 0.35223806 0.5400598
000030 be 7c 56 3e 1f 87 cd 3e 83 45 b6 3e e3 39 8b 3e
       0.20946023 0.40142152 0.35599908 0.27192602
000040 c5 b4 98 3e 18 4c e6 3e 6a 92 b4 3e 66 66 7e 3e
       0.29825416 0.4497993 0.35267955 0.2484375
000050 7f 85 99 3e 27 c2 db 3e 89 25 65 3e 8f 5f 85 3e
       0.29984662 0.42921564 0.223776 0.26049468
000060 4f 40 cd 3e 8d 4b 83 3e d8 cf b5 3e 04 f2 f5 3e
       0.40088126 0.25643578 0.35510135 0.48036206
000070 2f 3b 9e 3e 23 72 9d 3e a4 73 e2 3e 10 58 d5 3e
       0.30904528 0.30751142 0.44228852 0.4166875

bottleneck0.0.weight f4 [192, 32, 1, 1]
000000 79 e5 2d be 64 94 b6 bd 48 1e ea 3d 1b e8 57 39
       -0.16982068 -0.08915022 0.11431557 0.00020590464
000010 c4 35 60 39 fc 20 8e 3d 17 21 23 be 9b 52 f4 bd
       0.00021382334 0.06939885 -0.15930592 -0.11929818
000020 61 78 0e 3e ca 00 7c 3d 2f fe d5 bd 09 19 f3 bc
       0.13913108 0.06152419 -0.10448872 -0.029675024
000030 22 aa 8d bd 0c 47 22 be 08 50 12 be 2a ae 81 bd
       -0.06917216 -0.15847415 -0.14288342 -0.06332047
000040 70 64 25 3d 44 2d 07 3e 18 18 15 3e 4f 5e 34 3d
       0.040378988 0.13200861 0.14559972 0.044035252
000050 34 f9 83 bd f4 52 32 be 8f 6f 66 3d d4 5e 26 bd
       -0.06444016 -0.17414457 0.056258734 -0.04061778
000060 8f 43 a5 bd 21 d3 26 3e 2f 20 03 bc 5b 2a f9 bd
       -0.080695264 0.16291477 -0.008003279 -0.12166282
000070 77 4d a8 3d 38 16 21 3e e2 28 10 3e da 32 f4 bd
       0.082179 0.15731132 0.14078096 -0.11923762
000080 be bf 56 bd 02 1f 69 3b ba e0 15 3e d4 3f b9 3d
       -0.052428953 0.003557146 0.14636508 0.090453774
000090 73 47 19 3d 6e a7 e4 bd b4 8a 33 be 78 0a c3 bd
       0.037421655 -0.11164747 -0.1753338 -0.09523481
0000a0 ea e7 2c be 36 d6 4d bd ad ea 27 3e a8 5f e3 bd
       -0.16885343 -0.050253116 0.16398115 -0.11102229
0000b0 16 5e d6 3d 8b 3e dc bd f3 42 0f be bf 70 3f 3d
       0.10467164 -0.107541166 -0.13990383 0.046738382
0000c0 27 f2 06 be 31 1b b0 bc 4a 74 12 be ee 6b 10 3e
       -0.13178311 -0.02149734 -0.14302173 0.14103672
0000d0 29 a8 10 3e fa b3 3f 3d 48 c8 cf bd 90 55 f8 bd
       0.14126648 0.0468025 -0.101456225 -0.12125695
0000e0 ff a4 12 3e 1b c7 17 be 4c 1e c4 3d bf 33 b4 3d
       0.14320754 -0.14822046 0.09576091 0.08798932
0000f0 ef 65 21 be 26 60 78 3d 8c a7 9e 3d bc de 23 be
       -0.15761541 0.06063857 0.07746801 -0.16002935
000100 eb 61 cd bd e0 61 a3 bd 8a f5 06 bd 33 a1 3e 3e
       -0.10028442 -0.079776525 -0.032949008 0.1861618
000110 6c 5a 3c be 4e 63 e9 bd f3 70 45 3c 72 47 02 be
       -0.18393868 -0.11395894 0.012050855 -0.12722567
000120 ae 39 23 3d 69 1e 15 bd dc a4 b3 bd 26 11 05 be
       0.03984993 -0.036405955 -0.08771679 -0.12994823
000130 60 5b e8 3d 25 57 0d be ae 1f 1e 3c 2c 11 f9 bd
       0.113455534 -0.13802774 0.009651108 -0.121614784
000140 d2 44 39 3e ec d0 03 3d 75 45 75 3d d4 98 11 be
       0.18092659 0.032181665 0.059880693 -0.14218456
000150 08 98 50 bc 74 3f f9 bd 70 8b 2f be 44 2a 4b 3e
       -0.01273156 -0.12170306 -0.17143035 0.19840342
000160 cf 63 3e 3b c3 66 15 3e a6 82 dd 3d f4 08 10 be
       0.002905119 0.14589982 0.10815935 -0.14065915
000170 f8 2f 29 be 76 08 94 bd cf 71 b6 3d 44 be d8 3d
       -0.16522205 -0.07228176 0.08908426 0.10583165
000180 33 3c 8c 3d bc 2a 35 be 00 ec 14 bd ef 75 b1 3d
       0.068474196 -0.17692083 -0.03635788 0.08665072
000190 50 48 2b be cd 54 0e bd bf 04 8c bc f2 da c1 bc
       -0.16726804 -0.03474884 -0.017092107 -0.023663972
0001a0 d4 15 32 3e 25 86 81 bd 62 8b ac 3b f2 09 20 3e
       0.1739114 -0.06324414 0.005265639 0.15628794
0001b0 e2 76 97 bd c1 b5 fc 3d 73 a4 ab 3d cb c3 16 3e
       -0.07395722 0.12339354 0.083809756 0.14723127
0001c0 2e 56 c5 bd 16 bb 1f be 0f d7 53 3b b3 3d 70 3b
       -0.09635578 -0.15598711 0.003232423 0.003665787
0001d0 0a c8 43 3d c8 30 e5 bd 33 3c 3b be fa 87 71 3d
       0.047798194 -0.11190945 -0.18284683 0.058967568
0001e0 3f f7 bf bc 04 e5 8b bd f0 72 35 3b ac 66 16 3d
       -0.023433326 -0.06830791 0.0027686916 0.03671901
0001f0 85 c0 2e be 26 fc f1 bc ea e8 59 bd 0c 77 6d 3b
       -0.17065628 -0.029539179 -0.05320064 0.0036234288
000200 8d c1 0f bc 7b ec ff bd 32 5f 9d bd 1f 96 b4 bc
       -0.008774173 -0.12496277 -0.07684173 -0.02204424
000210 ea c5 4e be 17 7c c3 3d 21 a9 ce 3d 4f f9 a9 bd
       -0.20192686 0.09545153 0.100908525 -0.08299505
000220 cf 49 25 bd 93 cf eb 3d 5d 2b df 3d 6c 68 3e 3e
       -0.040353592 0.11514201 0.10896943 0.18594521
000230 3c 5a b0 bd 7e 61 f5 3d 89 fb 28 3c c4 2f a4 3d
       -0.08610961 0.11981486 0.010313877 0.08016923
000240 14 04 71 3d 40 26 e7 bc 5e 85 d5 3d bd 3a d4 bd
       0.05884178 -0.028216481 0.104258284 -0.10362766
000250 16 6c a2 bd ac 31 44 3d 45 26 72 bd 62 37 94 bd
       -0.07930772 0.047898933 -0.059118528 -0.07237126
000260 3f b9 18 be 4a 81 10 be 2d 17 49 bd c5 db 3f bc
       -0.14914416 -0.1411182 -0.049094368 -0.011710112
000270 9c 75 11 3e 00 0a 50 be df f9 31 be 3d 01 3a bd
       0.1420502 -0.20316315 -0.17380475 -0.045411337
000280 07 c3 01 3e ef 71 a6 3d 11 cc 35 3e 5c e4 8f bd
       0.12672053 0.081272 0.17753626 -0.07025978
000290 88 7b 28 3e 5b 59 87 bd 91 be ca 3d 39 92 a6 3d
       0.16453373 -0.0660884 0.09899629 0.081333585
0002a0 b6 18 bc 3d 25 92 b0 bd c0 64 45 3d f2 52 1e be
       0.09184401 -0.08621625 0.048191786 -0.15461329
0002b0 33 ee 67 3d 40 95 56 bb b2 27 0c 3e 34 ad 41 3e
       0.05662365 -0.0032742769 0.13687018 0.18913728
0002c0 46 69 a4 bd c8 2a 7a 3e f9 e8 06 be 6f 15 3d 3d
       -0.08027892 0.24430382 -0.1317481 0.04616302
0002d0 56 8e 4e be 9a 3a 83 bd 19 f8 9c bd 78 e4 10 3e
       -0.20171484 -0.06407662 -0.076645084 0.14149654
0002e0 d4 5b 29 be 20 de b7 3d 0f 3d 0e 3e 06 c2 96 3d
       -0.16538936 0.08977914 0.1389048 0.07361226
0002f0 f5 81 c4 3c f6 4c 80 bd 30 b5 29 3d cd f7 f5 bd
       0.02398775 -0.06264679 0.04143256 -0.12010155
000300 71 9a 3e bd 93 32 33 bd 33 de eb bc 5b 3d c1 bd
       -0.046534006 -0.043749403 -0.028792476 -0.09435531
000310 89 74 69 bd 7c 95 3a be db 48 06 bd 7d 93 e2 bd
       -0.056995902 -0.18221086 -0.032784324 -0.110632874
000320 7d 90 16 3d db e9 c9 bc fe 56 a2 3c 0e ac 0b 3e
       0.03675889 -0.024647644 0.019816872 0.13639852
000330 9f 33 09 3e f0 89 ac bc 7a a6 22 be 1a f8 93 3d
       0.13398598 -0.021061867 -0.15883818 0.07225056
000340 bf fa 45 bb 32 66 ba 3d bd 36 cf 3d c7 97 bb 3d
       -0.003020927 0.091015235 0.101178624 0.091598086
000350 65 5f d7 bd d1 4a 18 3e ca 88 51 3d 07 6b 82 3d
       -0.10516242 0.1487229 0.051155843 0.0636807
000360 0a 1f 8d bd 73 10 07 3e d4 29 13 be 70 f1 55 be
       -0.06890686 0.13189869 -0.14371425 -0.20892882
000370 1d 85 80 bd d5 da 08 3e 20 13 da 3d 4a 80 21 3e
       -0.06275389 0.13364728 0.10648179 0.15771595
000380 74 4d fc bd 67 fa 50 3d 6d e1 0d be 0c ad 80 3d
       -0.123194605 0.051020052 -0.13855524 0.06283006
000390 90 e4 c8 3d ab aa c7 3d ad 9f 96 3b 7b 20 e9 3d
       0.0980922 0.09749349 0.0045966716 0.11383148
0003a0 5f c6 70 3d c3 41 19 3e b1 66 09 3e d0 e2 4e 3e
       0.05878293 0.14966492 0.1341808 0.2020371
0003b0 15 c4 dc bd 9b a1 b1 3d 2b 26 06 be ff f9 4d 3d
       -0.10779587 0.08673402 -0.13100497 0.050287243
0003c0 72 4b 95 bd 02 7a c6 3d 02 25 1d 3e 5d 0d 8d bb
       -0.07289781 0.0969124 0.15346149 -0.0043045715
0003d0 10 ec 18 be bd 13 3d 3d 4b 5d 27 bd 28 da 15 3d
       -0.149338 0.046161402 -0.040860455 0.036585003
0003e0 8a d6 21 3e 2c 07 b7 bc e2 5f 2c 3e 1e 70 e5 3c
       0.15804496 -0.022342287 0.16833451 0.028007563
0003f0 18 f5 d3 3c 03 4d 4b 3c 65 e8 96 3d 5c 64 9f 3d
       0.025873706 0.012408498 0.073685445 0.07782814

bottleneck0.0.bias f4 [192]
000000 a6 04 ee 3d 0d a7 00 3e 1d bc 15 3e a5 9b 25 bd
       0.1162198 0.12563725 0.14622541 -0.040431637
000010 62 14 86 bd 35 92 f8 3c 83 17 2a 3e 2c bf 16 3e
       -0.065468565 0.030343154 0.16610532 0.14721364
000020 16 2a ff bd 80 4d c7 3c 6a 7f 30 bd 1c 92 fb bd
       -0.12459199 0.024328947 -0.04309026 -0.122837275
000030 f3 cf 94 bc 5b f9 69 bc 7d 13 c6 3d df 7b ec bb
       -0.018165564 -0.014280642 0.09671686 -0.007216915
000040 43 f4 81 3a 97 b3 d4 3d f3 66 1f 3e c6 7e 30 be
       0.0009914715 0.103858165 0.15566616 -0.1723586
000050 bd 39 ce bd 0f 25 76 3d 6d da 9d bc e2 ce cf bd
       -0.100696065 0.060093936 -0.019269193 -0.10146882
000060 05 f5 45 bd 0e 13 99 bd 4f 9a 15 3e 7c 2e c4 3c
       -0.048329372 -0.074743375 0.14609645 0.023947947
000070 c0 95 95 3d 4f f1 0c be 6b 82 a5 3d 48 c7 bb 3d
       0.07303953 -0.13763927 0.08081516 0.09168869
000080 f0 4c 24 be 96 b1 05 be 3b dc 8a 3d a0 8d a0 bd
       -0.16044974 -0.13056025 0.06780287 -0.07839513
000090 b4 5d a3 3d bf 79 b5 3d 21 c3 08 3d 26 00 a5 3d
       0.07976857 0.08861112 0.033389214 0.08056669
0000a0 4e 26 21 3e 2a 06 94 3d d8 42 90 3c 59 e4 3a be
       0.15737268 0.07227738 0.017609999 -0.1825117
0000b0 d3 f7 0c bd 04 fc db bd 36 96 0b 3e 5c 10 03 3e
       -0.03441603 -0.107414275 0.1363152 0.1279921
0000c0 ee e4 8d 3d 5e 3d 8c bd 8d e1 5d 3b 36 3d 6f 3b
       0.069284305 -0.06847642 0.0033856363 0.003650499
0000d0 4a 1d a9 bc 56 b9 77 bd 1f f0 83 3c bb 6a 8f bd
       -0.020643849 -0.060479484 0.01610571 -0.07002779
0000e0 b4 47 18 3d 6d 72 d4 3c 3d 75 ed 3d 4b 48 f7 3d
       0.037177756 0.025933469 0.11594627 0.12074336
0000f0 13 86 01 3e b4 88 fa 3d 07 24 b3 bc 03 57 a6 3d
       0.12648802 0.12233105 -0.021867765 0.08122065
000100 3f 75 c5 bc 37 8e f0 bd 8b fb cb 3c 6a 51 26 3e
       -0.024103759 -0.11745875 0.024900218 0.16241995
000110 7b cb 08 3d da 24 90 3d 85 ab f7 bd ef 35 ea 3c
       0.03339718 0.07038279 -0.12093262 0.02859017
000120 51 94 df bd 7a 5f 79 3d 54 eb 02 bd 62 ee 1a 3c
       -0.10916961 0.06088207 -0.031962708 0.009456249
000130 99 b8 18 3e 1d 41 bc 3d 89 41 39 3e 60 bc a4 bd
       0.14914168 0.09192107 0.18091406 -0.08043742
000140 94 01 e0 3d 55 64 fe bd 8d 44 13 3e 0c 07 14 3d
       0.10937801 -0.124214806 0.14381619 0.036139533
000150 f8 f6 58 3b 2e be 1c 3e f6 af 26 3e 3a 95 c7 3d
       0.003310619 0.15306923 0.16278061 0.097452596
000160 df ec 0a 3e f3 ab 0e 3e 50 f0 fb 3b 12 f1 b3 3d
       0.13566922 0.13932781 0.0076885596 0.08786215
000170 8a 32 95 3d d2 e9 8f bc 6f 3e 8a bc d0 77 24 be
       0.0728503 -0.017567549 -0.016875474 -0.1606133
000180 37 23 2b be 39 3e 4b 3e 67 f8 0b 3e 08 32 1e be
       -0.16712652 0.19847955 0.13668977 -0.15448773
000190 33 59 95 3d f9 34 b0 bd 25 46 83 3c e8 96 0c 3e
       0.07292404 -0.08603854 0.016024658 0.13729441
0001a0 f0 70 d8 3d 03 6a 6c bd b5 b4 a7 3c 4c db 2f 3e
       0.10568416 -0.05771829 0.02047191 0.17173499
0001b0 ab 32 63 3d 75 76 b8 3d a7 39 b8 bd b7 8e 05 3e
       0.055468243 0.09006969 -0.08995371 0.13042723
0001c0 df c5 da 3d 22 b1 54 bc f1 3f 34 3d 39 11 89 bc
       0.10682272 -0.012981685 0.04400629 -0.016731845
0001d0 ef 3b 20 be d7 18 ee 3c ce e7 9e 3d af 83 06 be
       -0.15647863 0.029064579 0.07759057 -0.13136171
0001e0 e4 ed f5 bd ef 45 d8 bd 34 0e a6 bc 6d b6 12 be
       -0.12008265 -0.10560214 -0.020270444 -0.14327402
0001f0 1e 7f 03 be 34 70 2c 3e bb 4f b0 bc 9c 26 34 be
       -0.1284146 0.16839677 -0.021522393 -0.17592853
000200 3e 9c d0 bb a7 5f 0c bd dc 8f 73 bd 9c de a4 3d
       -0.006366282 -0.03427091 -0.059463367 0.08050272
000210 22 fc 49 3d d4 ba 06 be c4 f2 29 b9 21 13 32 be
       0.04931272 -0.13157207 -0.00016207533 -0.1739011
000220 f5 09 1d 3d da 83 23 be 49 64 e3 3d 59 2e 61 bc
       0.038339574 -0.15968266 0.11103112 -0.01374396
000230 f3 de eb 3d 4d 69 2b 3e b0 2c 95 3c fe e4 9f 3d
       0.115171336 0.16739388 0.018209785 0.07807349
000240 a3 b7 1e 3d e7 d4 0f be f0 24 9f bd 70 7d 24 be
       0.03874935 -0.1404606 -0.07770717 -0.16063476
000250 bd 0e a9 3d 66 e5 5c bd d0 1e 9a bd 10 bf fa 3d
       0.08254764 -0.05392971 -0.07525408 0.122434735
000260 a2 1f 83 bd 8a 2a b1 bd 2d 71 27 be f2 f0 4b bd
       -0.06402518 -0.08650692 -0.16351767 -0.04979033
000270 32 6e c7 bd c2 43 93 bd c1 3e c9 3d 2f 2c 1e be
       -0.09737815 -0.07190658 0.098264225 -0.15446542
000280 30 da 45 bd 75 12 08 3e dd 87 36 3d 25 c4 dc bc
       -0.048303783 0.13288291 0.044563163 -0.026948998
000290 24 d6 a8 3d b5 b0 52 bc 9e 39 bf 3d 26 13 14 be
       0.08243969 -0.012859513 0.093371615 -0.1446043
0002a0 3d b0 81 3d 11 17 0f be 5b aa 0c 3e 22 bc 5e 3d
       0.06332443 -0.13973643 0.1373686 0.054378636
0002b0 e8 8b 71 bd 39 ac 93 3d 33 a3 bb bd f6 9d 4d 3a
       -0.058971316 0.07210583 -0.09161987 0.00078436674
0002c0 fe cf 82 bd 08 b3 76 bc 2c cb 24 3e a0 7c 99 3d
       -0.063873276 -0.015057333 0.16093129 0.074944735
0002d0 97 da c6 3d d2 fb 1d be 65 7b 06 3e 13 48 48 bd
       0.097096615 -0.15428093 0.13133009 -0.04889686
0002e0 e6 e8 b3 bd f4 5e 10 be ee 83 9e 3c 45 f2 54 bd
       -0.08784656 -0.14098722 0.019350018 -0.05198886
0002f0 7d 82 b6 bd 1a 7d b4 3d 1f b3 cc 3c 03 f2 0f 3e
       -0.089116074 0.08812924 0.024987755 0.14057164

bottleneck0.1.weight f4 [192]
000000 3c 19 ec 3d 64 16 50 3e 5b ce 9a 3e 80 af 5a 3f
       0.115282506 0.20321041 0.30235562 0.8542404
000010 87 23 57 3f 1a f9 04 3d 91 71 6b 3f fb d1 5b 3f
       0.84038585 0.032464124 0.91970164 0.8586728
000020 ce 87 24 3f 8c da c4 3e 6c 24 2f 3f c5 2d d1 3e
       0.6426972 0.38447988 0.6841495 0.40855232
000030 9e f3 6c 3f 46 b6 ea 3d 9f 57 5a 3f 34 30 2f 3f
       0.9255923 0.11460547 0.8528995 0.6843293
000040 96 80 82 3e fc 72 85 3e 04 63 a6 3e 17 c4 3c 3f
       0.25488728 0.2606429 0.32497418 0.7373671
000050 40 15 a9 3e 08 be cd 3e 21 96 a1 3e a7 91 f8 3c
       0.33024025 0.40184045 0.31559852 0.03034289
000060 ff 27 0d 3f 7d 66 af 3e f3 6d 4a 3f 96 7c 15 3f
       0.55139154 0.3425788 0.7907402 0.5839323
000070 3e ad 94 3e 50 a2 29 3f cc 81 ea 3e 59 ae 09 3f
       0.29038423 0.66263294 0.45802152 0.5378166
000080 28 f5 02 3f d1 d8 91 3e ff 9d 4f 3f e2 e2 af 3e
       0.5115533 0.2848573 0.8110046 0.34352785
000090 6d db 2a 3e 68 8a 4c 3f 15 39 4e 3f 1b 0d 31 3f
       0.16685267 0.7989869 0.8055585 0.6916062
0000a0 61 e1 6b 3e 0a df 16 3f f7 ff 3a 3f 83 ac 93 3e
       0.23035194 0.5893408 0.7304682 0.28842553
0000b0 d7 b7 c0 3e 64 40 6f 3f 30 b3 b4 3e 92 21 c2 3c
       0.3764026 0.9345763 0.3529296 0.023697648
0000c0 04 71 00 3f 08 d1 3f 3e 7d 4a 6b 3f 06 e8 fd 3e
       0.5017245 0.18732083 0.91910535 0.49591082
0000d0 90 e2 2a 3f 5d b1 fe 3e 5d 11 01 3f 58 c6 49 3e
       0.66751957 0.49744692 0.5041712 0.19704568
0000e0 28 36 7a 3f 2f f0 90 3e a7 48 03 3f 0b 81 d6 3e
       0.97738886 0.28308246 0.51282734 0.41895327
0000f0 64 d8 7d 3e 31 ab 47 3e 4c a9 a3 3d f8 19 2f 3e
       0.24789578 0.19498898 0.07991275 0.1709975
000100 77 ce 5a 3d 5c 7b 0b 3f 24 aa 7e 3e ab 41 cc 3e
       0.053419556 0.54485106 0.24869591 0.3989385
000110 bc 36 1a bb 6a 27 88 3e 6d 35 75 3e 2d 1e 79 3f
       -0.002353116 0.2659257 0.23946162 0.9731167
000120 d6 c3 b4 3d 6d 4a 82 3e 4b 6f 46 3f 1b e6 9c 3e
       0.08826415 0.25447407 0.7751357 0.30644307
000130 d4 5f ac 3e 9f 22 eb 3d 82 f5 c8 3e b9 04 ca 3d
       0.3366686 0.11481213 0.39249808 0.09864182
000140 26 81 5b 3e b3 35 52 3d 09 1e 83 3e 47 d1 02 3e
       0.21435985 0.051320743 0.25608853 0.12775145
000150 5f 44 78 3f 89 b6 3a 3f 45 62 35 3e c1 9b 50 3f
       0.96979326 0.72934777 0.17713268 0.8148766
000160 8a 09 5f 3f d3 90 fc 3e e4 e3 d4 3e 0c 85 cb 3e
       0.8712393 0.49329242 0.41580117 0.39749944
000170 36 ff 29 3f 39 46 9d 3e 4d 3e 07 3f 8b 6d 4a 3f
       0.66405046 0.30717638 0.5282944 0.790734
000180 86 da 1e 3f c6 2b 3c 3f 5c 30 0a 3f ce 28 54 3f
       0.6205219 0.7350429 0.5398004 0.82874763
000190 2d 12 9b 3d 89 e3 37 3f 76 4d 30 3f 03 3d c2 3d
       0.07571826 0.71831566 0.68868196 0.09484293
0001a0 a9 41 c7 3e bd 60 65 3f 75 e9 d8 3e 79 3f 06 3e
       0.38917282 0.89600736 0.42365614 0.1311015
0001b0 48 84 19 3e 93 b8 cd 3d 91 6e 6f 3f 2d ad 31 3f
       0.14991868 0.1004497 0.93528086 0.6940487
0001c0 47 73 70 3f 55 e2 06 3f 77 16 60 3f 26 f0 e7 3d
       0.939259 0.52689105 0.8753428 0.113251016
0001d0 48 2a 29 3f 37 cf b8 3e 28 47 f9 3e 0d b2 2b 3f
       0.6608014 0.36095592 0.486871 0.6706856
0001e0 76 51 13 3f 4e 70 cc 3d c3 a4 10 3f ce 48 96 3e
       0.57546175 0.09982358 0.56501406 0.2935242
0001f0 98 d8 70 3f 8d 3b 18 3d 2e e8 9c 3e 18 e0 bc 3e
       0.94080496 0.037166167 0.3064589 0.3688972
000200 1a c3 02 3e 53 3d 23 3f 06 3e 6d 3f b7 b4 59 3f
       0.12769738 0.6376545 0.92672765 0.85041374
000210 47 4b 31 3e a1 00 6c 3f 06 d4 56 3f a8 0b 5c 3f
       0.17313872 0.9218846 0.8391727 0.85955286
000220 00 53 99 3e 39 f6 63 3f 34 1c 6b 3f 26 ab 3b 3f
       0.29946136 0.8904758 0.9183991 0.73308027
000230 68 b7 89 3e 2d 17 e9 3d 98 79 81 3d 37 56 ff 3e
       0.2689774 0.113813736 0.0632202 0.49870464
000240 04 f8 0d 3f 37 41 36 3f 09 f7 db 3e 8b a5 40 3f
       0.55456567 0.7119326 0.4296191 0.752526
000250 18 13 0b 3f 76 63 6c 3f 41 67 60 3f ec dc 49 3f
       0.5432601 0.92339265 0.8765755 0.78852725
000260 e7 32 5e 3d e4 8c 4c 3f 61 a0 25 3e b1 3e c8 3e
       0.054247763 0.7990248 0.16174461 0.3911033
000270 90 ca 14 3e ec ef eb 3d 08 e3 d2 3e 0d 91 00 3f
       0.14530396 0.11520371 0.41188836 0.5022133
000280 66 62 31 3f de f9 4e 3e ab 2d 73 3f 0d d9 4c 3f
       0.6929077 0.20212504 0.9499156 0.80018693
000290 ff 8b 82 3f c6 d5 d5 3d 29 e4 07 3e bc 0d 94 3e
       1.0198973 0.10441165 0.1327063 0.28916728
0002a0 88 3f e8 3e 00 ec ab 3e 30 68 4a 3e a3 1e 5b 3f
       0.4536097 0.3357849 0.19766307 0.8559362
0002b0 aa 5f 76 3e e8 df 8e 3e df b3 ba 3e 8d d9 2c 3e
       0.2405993 0.27905202 0.36465356 0.16879864
0002c0 75 0c 61 3f 64 e9 2b 3e 6c fb 0e 3f c9 4e c6 3e
       0.8790963 0.1678825 0.5585239 0.38731983
0002d0 78 4d 43 3d 97 0f 52 3f 51 dc 9e 3e 57 ca fb 3e
       0.0476813 0.8205504 0.31027463 0.4917781
0002e0 e2 bd ed 3e 14 72 b1 3d 1b d2 37 3e 7f 3f 80 3d
       0.46433932 0.08664337 0.17951243 0.06262111
0002f0 ac 67 6f 3f 91 51 3e 3f 17 95 35 3f 3d ed 4c 3e
       0.93517566 0.7434321 0.7093062 0.20012374

bottleneck0.1.bias f4 [192]
000000 a3 11 b6 3a 89 1a 9f 3c df 18 3b 3c 9b d8 96 bc
       0.0013890754 0.019421833 0.011419504 -0.018413832
000010 68 f7 86 3c c1 67 91 3c 79 94 19 3d 16 2c ea 3b
       0.016475394 0.017749669 0.03749511 0.0071463687
000020 23 90 aa bc 72 b9 97 bc a0 ee a4 3b fc 6c 16 bb
       -0.020820683 -0.018521044 0.005033329 -0.0022953143
000030 44 aa 79 bb 6f 22 48 3b 81 f9 dc bb c5 76 8e bc
       -0.003809587 0.0030538102 -0.0067436104 -0.017390618
000040 2b 48 f6 bc 54 ec 5c bc d2 9b 04 3d ea c1 0f bc
       -0.03006371 -0.013484079 0.032375164 -0.00877426
000050 29 fd 8c 3a ba 46 7c bc fd 4f 55 3c 93 1f 10 3d
       0.00107566 -0.015397722 0.013019559 0.03518636
000060 7e 3c 30 3c 11 41 07 bd 60 be ec bb ed 61 88 3c
       0.01075661 -0.033021037 -0.007224843 0.016648257
000070 5d ce 08 3c 2d 75 2f 3c 4b 36 59 bb 67 a7 9e bc
       0.008349982 0.010709089 -0.0033143933 -0.019366933
000080 ac 0c fe bc 0e 65 42 3c dd 35 ae bc d1 27 0c 3c
       -0.031011902 0.011864914 -0.021265918 0.008554415
000090 18 70 3f 3d b0 80 03 3c ce 5a 09 bd 88 62 f9 3a
       0.04673776 0.008026287 -0.033533864 0.0019026557
0000a0 38 16 22 3b 7e 9b b3 3b 84 28 2c ba 34 ea cb bb
       0.0024732482 0.0054811826 -0.00065673166 -0.0062229875
0000b0 fb 4b d7 bc cd b0 3f 3c 25 e2 4c 3c f5 97 65 3c
       -0.026281347 0.011699867 0.012505089 0.01401328
0000c0 3a 0e 2a bc 22 a5 9d bc bf 06 18 bc a1 90 83 bc
       -0.010379368 -0.01924378 -0.009278952 -0.016060175
0000d0 e1 d9 f2 3c 44 e1 4c 3c 4b f8 c1 ba ee f1 b9 bc
       0.029644908 0.012504879 -0.0014798729 -0.022698369
0000e0 36 75 90 3c 0e 74 c8 bb 12 7d 75 ba 5c 8a 55 3b
       0.017634016 -0.0061173504 -0.0009364645 0.003258369
0000f0 92 4a 86 3b 97 90 48 3d 6f b9 5b 3c ac c7 00 3b
       0.004098245 0.048966017 0.01341091 0.0019650264
000100 1a 49 e8 3a 9e 8e 61 3c 25 17 7b 3c 9d 1a 17 3b
       0.0017721981 0.013766913 0.015325342 0.0023056634
000110 ee b2 0b bd 05 cb fa 3b d9 30 11 3c 41 16 8d 3b
       -0.034106188 0.0076535963 0.008861744 0.0043056314
000120 e9 4a 63 bb e7 99 71 3b 66 68 9d 3a 12 c7 75 bd
       -0.00346821 0.0036865415 0.0012009263 -0.0600043
000130 b4 02 d6 3b e5 85 91 3c 76 1e ae bc cf 66 34 bd
       0.006531084 0.017764041 -0.02125476 -0.04404336
000140 d6 57 2d 3c f2 80 48 bc 71 33 8c bc ff 8d b3 3b
       0.010580024 -0.012237774 -0.017114373 0.0054795737
000150 f2 77 01 bc 7b 0a 1e 3a a5 bb 2e 3c 9d 34 18 ba
       -0.007902132 0.00060287834 0.010664855 -0.000580618
000160 b1 2e 32 bc f7 95 92 3c 8a cf 0b bd cf 61 1c b9
       -0.01087539 0.017893774 -0.03413347 -0.00014913756
000170 9e ef a2 bb 2d 41 c6 bc f9 9e e7 3b 5b 63 87 3b
       -0.0049724123 -0.024201 0.0070685116 0.004131717
000180 27 b8 e9 3b 7f d4 e3 bb c2 17 e0 bc 3d 7d bf 3c
       0.0071325484 -0.0069528217 -0.027355079 0.023375148
000190 99 92 88 bc ea 93 5b 3c fb 00 08 3c f4 36 a5 3b
       -0.016671466 0.013401965 0.008301015 0.0050419513
0001a0 09 fc 98 bc 66 79 de bc 17 48 4f bc 46 a9 4c bb
       -0.018674867 -0.027157497 -0.012651465 -0.0031228825
0001b0 40 7b 99 bb e9 bb 1f 3c 33 3b b8 3a 87 bc 61 3b
       -0.004683882 0.009749391 0.0014055729 0.0034444646
0001c0 b3 cd 27 bc a5 64 35 3a c7 64 fc 3c 39 3b 5a 3c
       -0.010241914 0.0006919599 0.030809773 0.013319784
0001d0 a1 25 d2 3a 88 66 3e 3c 35 eb 3d 3d 79 7f 74 bc
       0.0016032943 0.011621125 0.04636689 -0.01492297
0001e0 2b 43 cf bc 3f 72 a3 3b ca c9 90 3c c3 ab a9 3c
       -0.025300583 0.0049879844 0.017674346 0.020711785
0001f0 a7 86 cd 3c f2 32 07 3b 8e e6 0f 3c b4 83 b3 bc
       0.025088621 0.002062973 0.008782996 -0.021913387
000200 1b 40 0a 3d ad 18 7d 3c ae cc 64 3c dc a5 a4 3b
       0.033752542 0.015447778 0.013964815 0.005024655
000210 44 a1 5d bc e7 89 a6 3c d9 fa 0b 3d c4 f2 3e bc
       -0.013527218 0.020329429 0.034174774 -0.0116545595
000220 4a 3f 60 3c 0b ec 12 3d 01 65 ec bc ba 5c a1 bb
       0.013686964 0.03586964 -0.028856756 -0.004924384
000230 26 66 ae bb cc 0e 03 bc 81 b4 32 bc 01 24 14 3d
       -0.0053222356 -0.007999133 -0.010907293 0.03616715
000240 8d 2d da 3b 60 7c 9c bc 54 bf 98 3b be be ad 3c
       0.006658262 -0.019102275 0.00466148 0.021209117
000250 2e b5 c9 bc fe 80 29 bc 15 a6 8f 3c 3b 5e b1 ba
       -0.024622526 -0.010345696 0.017535249 -0.0013532111
000260 55 45 ab bc f2 8e 70 bc 4c 53 2b bc 62 f4 ed 3b
       -0.020907084 -0.014682518 -0.010456871 0.0072617987
000270 6b ec 43 bb bb 74 5d bc e3 8d 25 bc 95 ac 57 bc
       -0.0029895555 -0.0135166 -0.010104629 -0.013163705
000280 61 ac ed bc cc ab 95 3c 68 c0 8c bc 02 85 8f bc
       -0.02901286 0.018270396 -0.01718159 -0.017519478
000290 52 50 8b 3a 6a 38 ad 3c f9 2b 12 bb db 94 3d bc
       0.0010628796 0.021145064 -0.0022304042 -0.011571134
0002a0 96 62 b0 ba bf f8 9a 3c a7 14 0e 3d 11 6a 8b 3c
       -0.0013457115 0.01891744 0.034687664 0.01701835
0002b0 b9 89 b6 bc 13 bd 81 bb bd a2 0f 3d 0e 24 4d 3c
       -0.022282468 -0.003959307 0.03506731 0.012520803
0002c0 23 8a 3d bc c7 e8 d6 3c 95 22 e5 ba a7 8a 30 3c
       -0.011568579 0.026234044 -0.001748162 0.010775245
0002d0 24 ed 15 3b 1a 57 b1 3c 9c 2c 67 bc d4 da a6 bc
       0.0022876943 0.021647979 -0.014109757 -0.020368017
0002e0 d8 cd 18 3c f9 26 b3 bc e8 47 1c 3d 67 29 06 bc
       0.009326421 -0.02186917 0.038154513 -0.008188582
0002f0 26 7b 68 bc 84 10 1b 3c 99 a6 01 bd 57 0c 4a b9
       -0.014189517 0.009464387 -0.03165302 -0.00019268818
