TradingGym/TradingGym_300.pth (torch_old, 699326 bytes, 52 tensors)

conv0.0.weight f4 [256, 1]
1.0320059 0.9659403 0.93603534 1.0291095 0.99325216 1.0015851 0.96506554 0.917512
0.96764845 1.0281509 0.98473376 0.9229898 1.0130858 0.94901925 1.024335 0.98268497
1.006128 0.9650776 1.0012943 1.0267159 1.0249897 0.96325725 1.0076339 0.9343809
0.9732506 0.9409678 1.0262209 0.96301955 0.9336704 0.9479457 0.9771312 0.95119405
1.0060813 0.9827947 0.99586326 0.9536582 1.0172554 1.0046428 0.96844816 0.95512104
0.9676711 1.0521595 1.0199159 0.9913438 0.94008946 0.95571446 1.0381937 0.98607385
1.0072391 0.96102786 1.0034461 1.030148 1.0614606 0.9896259 0.9530517 0.9737405
1.0173643 0.95053905 0.9799561 0.93145174 0.9758911 1.016387 0.99810845 0.99106586
1.0116729 1.002148 0.9913194 1.0067626 1.0019621 0.977451 0.96404046 1.0170851
1.0047162 1.0385294 0.9664647 1.0181681 0.9849535 1.0178226 1.0348707 0.9869447
0.9596648 1.039464 1.03836 1.0689886 0.9863839 0.96123147 0.99465424 1.0724741
0.9925324 0.93665534 0.95838743 0.9669712 1.0404799 0.9503725 1.0049254 0.9987333
1.0240383 1.0350964 1.0359794 1.0208784 0.9666854 0.97848547 1.0094681 1.021252
1.0295796 1.0195817 0.9992009 1.026103 1.0025972 1.0169306 1.0314301 0.9851554
1.0409931 0.9848749 0.98495466 1.0289857 0.9705315 1.0377187 1.0035095 0.99013716
0.97916174 1.0128486 0.9590139 1.0076187 0.9749547 0.96918386 0.99028414 1.1025044
0.95727843 1.002476 0.9559697 0.9913102 1.0300448 1.0003856 0.9587676 0.9765834
1.0710808 1.0138009 1.0096271 1.0050833 1.0333524 1.0369546 1.0314686 0.9428828
0.9593918 1.0198072 0.97549546 1.0008795 1.0077055 0.97023356 1.0125381 1.0118276
1.0389956 1.0538251 0.9693908 1.0259655 0.9672052 1.0393493 1.002852 0.99239045
1.0492673 0.991159 0.9959974 0.9904167 0.9821138 1.0593797 1.0322729 0.984006
0.98689675 1.0113069 1.0697694 0.98938173 0.9680399 0.9946544 1.0378683 1.0470337
1.0098484 0.9484262 0.91225314 0.9448304 1.0022451 0.94608974 1.0066508 1.0116739
0.979319 0.98727006 0.96823406 0.9893367 0.9887777 1.0373076 0.9510756 0.9513002
0.9591342 1.0169677 0.98508173 0.9724839 1.0009401 0.9958783 1.0068297 1.017019
1.0112586 1.0043452 1.0031087 1.0200392 0.99167234 1.0225195 1.0006768 1.0384336
0.9897609 0.96349204 0.97951716 1.0268526 1.0187516 0.99325615 1.0231774 1.0114071
0.9643657 0.9907539 1.0072923 1.0507861 0.98288345 0.97940624 0.99380153 1.0165225
1.1116825 0.98126775 0.99973917 1.0290033 0.9965218 0.9959655 1.0439925 0.99439675
0.99499065 1.0130601 1.0055279 1.0078127 1.024417 0.9977156 1.0197023 1.0407175
1.1020554 0.97121835 1.0190105 0.95286137 0.9985172 1.038352 1.0345365 1.0302382
0.9710876 1.0857122 1.0599172 1.0438657 0.98467183 1.0023593 1.0477561 1.0422566
00000000: c518 843f dd47 773f 03a0 6f3f dcb9 833f
00000010: c645 7e3f f133 803f 890e 773f 11e2 6a3f
00000020: cfb7 773f 739a 833f 8317 7c3f 0f49 6c3f
00000030: ccac 813f edf2 723f 691d 833f 3e91 7b3f
00000040: cdc8 803f 530f 773f 692a 803f 6d6b 833f
00000050: dd32 833f 0798 763f 26fa 803f 9633 6f3f
00000060: f426 793f 44e3 703f 355b 833f 7388 763f
00000070: 0605 6f3f 92ac 723f 4525 7a3f 7481 733f
00000080: 46c7 803f 6f98 7b3f e5f0 7e3f f222 743f
00000090: 6d35 823f 2398 803f 38ec 773f d082 743f
000000a0: 4bb9 773f 2aad 863f 9b8c 823f b5c8 7d3f
000000b0: b4a9 703f b4a9 743f 88e3 843f 566f 7c3f
000000c0: 36ed 803f ec05 763f ec70 803f e4db 833f
000000d0: f1dd 873f 1f58 7d3f 32fb 733f 0f47 793f
000000e0: fe38 823f 8756 733f 67de 7a3f 9f73 6e3f
000000f0: 00d4 793f f818 823f 0984 7f3f 7eb6 7d3f
00000100: 7f7e 813f 6346 803f 1cc7 7d3f 99dd 803f
00000110: 4b40 803f 3b3a 7a3f 5bcb 763f d82f 823f
00000120: 8a9a 803f 88ee 843f 3b6a 773f 5553 823f
00000130: ea25 7c3f 0348 823f a576 843f 68a8 7c3f
00000140: 98ac 753f 280d 853f fbe8 843f 9ed4 883f
00000150: a883 7c3f 4413 763f a9a1 7e3f d546 893f
00000160: 9a16 7e3f a5c8 6f3f e158 753f 6d8b 773f
00000170: 722e 853f 9d4b 733f 65a1 803f fcac 7f3f
00000180: b013 833f 0a7e 843f f99a 843f 25ac 823f
00000190: b278 773f 067e 7a3f 4036 813f 63b8 823f
000001a0: 44c9 833f a781 823f a1cb 7f3f 5857 833f
000001b0: 1b55 803f c82a 823f e705 843f 2533 7c3f
000001c0: 433f 853f c320 7c3f fd25 7c3f ceb5 833f
000001d0: c174 783f f7d3 843f 0073 803f a179 7d3f
000001e0: 58aa 7a3f 06a5 813f ef81 753f a6f9 803f
000001f0: a296 793f 6f1c 783f 4383 7d3f dd1e 8d3f
00000200: 3310 753f 2251 803f 6eba 743f 81c6 7d3f
00000210: 82d8 833f a30c 803f cb71 753f 5f01 7a3f
00000220: 2d19 893f 3ac4 813f 763b 813f 92a6 803f
00000230: e444 843f eeba 843f 2a07 843f c460 713f
00000240: b39a 753f 0b89 823f 12ba 793f d21c 803f
00000250: 7efc 803f 3a61 783f d99a 813f 9183 813f
00000260: cffd 843f bee3 863f ff29 783f d652 833f
00000270: c39a 773f 6609 853f 745d 803f 4d0d 7e3f
00000280: 644e 863f 99bc 7d3f b0f9 7e3f f38b 7d3f
00000290: cf6b 7b3f c199 873f 8521 843f d1e7 7b3f
000002a0: 44a5 7c3f 8172 813f 34ee 883f 1f48 7d3f
000002b0: 76d1 773f aca1 7e3f ded8 843f 3305 863f
000002c0: b642 813f 0fcc 723f 6c89 693f 68e0 713f
000002d0: 9149 803f f032 723f efd9 803f 887e 813f
000002e0: a6b4 7a3f bbbd 7c3f 30de 773f 2c45 7d3f
000002f0: 8920 7d3f 7fc6 843f b179 733f 6988 733f
00000300: d289 753f ff2b 823f 512e 7c3f b4f4 783f
00000310: ce1e 803f e1f1 7e3f ccdf 803f ae2d 823f
00000320: ec70 813f 628e 803f de65 803f a590 823f
00000330: 3dde 7d3f ebe1 823f 2d16 803f 64eb 843f
00000340: f860 7d3f 6aa7 763f a3c1 7a3f e86f 833f
00000350: 7466 823f 0946 7e3f 7af7 823f ca75 813f
00000360: ace0 763f 0ca2 7d3f f4ee 803f 2980 863f
00000370: 409e 7b3f 5eba 7a3f c769 7e3f 691d 823f
00000380: 9d4b 8e3f 5d34 7b3f e8ee 7f3f 61b6 833f
00000390: 0d1c 7f3f 98f7 7e3f 8ca1 853f c990 7e3f
000003a0: b5b7 7e3f f4ab 813f 23b5 803f 0200 813f
000003b0: 1920 833f 4a6a 7f3f 9b85 823f 3b36 853f
000003c0: 2710 8d3f c4a1 783f f06e 823f b9ee 733f
000003d0: d39e 7f3f b8e8 843f b16b 843f d8de 833f
000003e0: 3299 783f 9ef8 8a3f 5eab 873f 649d 853f
000003f0: 7413 7c3f 4f4d 803f df1c 863f aa68 853f

conv0.0.bias f4 [256, 1]
0.054710846 0.006497408 -0.02482166 -0.056494646 0.047290992 0.0017287353 -0.01430129 -0.021537596
-0.005490348 0.011033124 -0.046463847 -0.06330225 -0.0064534303 0.0012788859 -0.0034481108 -0.016361019
0.010211196 0.003564677 -0.019148557 -0.023292389 -0.015937056 -0.031451058 -0.026678218 -0.035645578
0.019412229 -0.04551883 -0.04942119 -0.062576465 0.006827493 -0.012595426 -0.0035267503 -0.022417897
-0.025716666 0.016670909 0.01754648 -0.015781626 -0.024873868 -0.022627892 -0.017120918 -0.033953294
-0.06409378 -0.10616183 -0.022132637 -0.010295748 -0.023188122 -0.028274124 -0.05905577 -0.021201063
0.002506949 0.02740904 -0.00043662073 0.033504188 -0.05652087 -0.021933375 0.016151126 -0.011921602
-0.0080023585 -0.04141792 0.00011319789 -0.07461556 0.021286001 -0.00067571097 0.045941643 0.0017981732
-0.03081993 -0.04688139 -0.049723174 -0.03131981 -0.027685225 0.0035586467 0.013301037 -0.014642821
-0.041389074 -0.068093985 -0.012192714 0.03295366 -0.067109615 -0.050539214 0.008671794 0.046206295
0.010728918 0.012549255 -0.08702413 -0.08795168 0.04147481 0.0019909164 0.003980733 -0.042203438
-0.0157276 -0.089293614 -0.03614043 -0.0469332 -0.00020047264 -0.050777487 -0.01693482 -0.020306952
0.013796639 0.017511455 0.008363654 -0.011116925 0.01862022 0.019593827 0.030131843 0.014506358
0.023251241 -0.05428052 0.008747178 -0.008844306 0.026551103 -0.051469915 -0.032596357 -0.0683257
-0.0060868296 -0.06487283 -0.02908921 -0.07323189 -0.011924807 -0.005623035 -0.037897553 -0.019076569
0.009394663 0.022249684 0.0378093 0.040630426 -0.037703935 -0.023487268 0.061894033 0.053392503
-0.05390995 -0.07628413 0.03574247 -0.008276685 0.027365396 -4.9565555e-05 0.07739586 0.06003924
0.0014025405 0.008077178 0.022130005 0.010391695 -0.026808968 -0.00748326 0.01144589 0.046291452
-0.0056803627 -0.04815241 0.03809911 0.0125663625 -0.0820211 -0.034053594 0.025814794 0.038848717
-0.014576036 0.01788368 0.016411742 0.038944688 -0.023569327 0.07118976 0.02328958 0.018224513
-0.02414532 0.0031989836 0.027132716 0.041993476 -0.031998318 0.026534261 -0.011634634 0.009884435
-0.010375602 0.02823946 0.001259251 0.018715534 -0.0050143353 -0.013305387 0.038782846 0.045637183
0.0051571373 0.040656343 0.048322022 0.04299867 -0.02566012 0.007457457 0.035859916 0.041553754
-0.015575468 0.02972213 0.038174845 0.02487548 -0.031972818 0.030921267 0.044244155 0.054871473
0.032374945 0.077595666 0.032069903 0.03652624 -0.03655403 0.0010862269 0.034607075 0.08025972
-0.02376711 0.02035304 0.039711785 0.04891554 -0.024358498 0.035910062 -0.01123981 0.0014385524
0.008186455 0.02117682 0.011255687 -0.021866007 0.016508419 0.034272265 0.01847553 0.041840978
0.04404276 0.023305422 -0.03723099 0.010505171 -0.0043623885 0.030507967 0.0051590237 0.009632486
-0.020261511 -0.016393436 -0.035850294 0.009400323 -0.021674406 0.016974889 0.0059067304 0.010395647
-0.005270243 0.00881788 0.02970304 0.012210186 0.018449921 0.040502977 -0.0117584895 0.04281392
0.028109804 0.04037386 0.012344262 0.038025692 0.076387465 0.022616519 -0.010467244 0.0015439928
0.03107226 0.0010262323 0.029758511 0.01701878 0.029628187 0.05745845 0.0055205747 0.02554923
00000000: 7b18 603d 35e8 d43b cb56 cbbc ee66 67bd
00000010: 33b4 413d bb96 e23a f54f 6abc 9d6f b0bc
00000020: 61e8 b3bb 47c4 343c e050 3ebd 9ca4 81bd
00000030: 4c77 d3bb 4aa0 a73a b3f9 61bb 8b07 86bc
00000040: dc4c 273c 5b9d 693b 6fdd 9cbc aecf bebc
00000050: 6e8e 82bc d3d2 00bd 478c dabc 1901 12bd
00000060: 6506 9f3c f471 3abd e06d 4abd 1728 80bd
00000070: 2ab9 df3b 0c5d 4ebc 0d21 67bb bda5 b7bc
00000080: c2ab d2bc 6e91 883c a3bd 8f3c 7848 81bc
00000090: 48c4 cbbc 215e b9bc 2b41 8cbc 9c12 0bbd
000000a0: 9a43 83bd 606b d9bd 814f b5bc 7faf 28bc
000000b0: 04f5 bdbc 239f e7bc 77e4 71bd daad adbc
000000c0: a04b 243b ec88 e03c 3eea e4b9 b03b 093d
000000d0: 6e82 67bd 9fad b3bc 5e4f 843c d352 43bc
000000e0: 531c 03bc d6a5 29bd a864 ed38 0bd0 98bd
000000f0: fb5f ae3c 3222 31ba 4e2d 3c3d aeb0 eb3a
00000100: 147a fcbc b306 40bd 87aa 4bbd 3349 00bd
00000110: 20cc e2bc 2f38 693b 98ec 593c 71e8 6fbc
00000120: 9787 29bd dc74 8bbd f3c3 47bc 6bfa 063d
00000130: c470 89bd 3502 4fbd 2414 0e3c d042 3d3d
00000140: 58c8 2f3c 649b 4d3c b539 b2bd 0320 b4bd
00000150: 7ee1 293d 097a 023b cf70 823b 83dd 2cbd
00000160: 2bd7 80bc 92df b6bd fd07 14bd 073d 40bd
00000170: f735 52b9 0efc 4fbd e4ba 8abc c45a a6bc
00000180: 4c0b 623c 2f74 8f3c b507 093c c323 36bc
00000190: 6e89 983c 3c83 a03c 0ed7 f63c 13ac 6d3c
000001a0: 6379 be3c 4055 5ebd 5350 0f3c b5e7 10bc
000001b0: b381 d93c 1ed2 52bd c283 05bd 58ee 8bbd
000001c0: 0774 c7bb 0cdc 84bd 7f4c eebc 9afa 95bd
000001d0: 4460 43bc 7041 b8bb 773a 1bbd 7746 9cbc
000001e0: 13ec 193c f844 b63c eddd 1a3d 176c 263d
000001f0: 716f 1abd 5f68 c0bc 9984 7d3d 19b2 5a3d
00000200: aed0 5cbd db3a 9cbd b266 123d ef9a 07bc
00000210: 652d e03c 9ce4 4fb8 b881 9e3d b5eb 753d
00000220: 73d5 b73a 2456 043c fc49 b53c ee41 2a3c
00000230: 7b9e dbbc 2236 f5bb 8b87 3b3c 1b9c 3d3d
00000240: 5622 babb 763b 45bd d00d 1c3d 25e3 4d3c
00000250: aefa a7bd c87b 0bbd 8c79 d33c d51f 1f3d
00000260: 53d0 6ebc cc80 923c eb71 863c 7784 1f3d
00000270: 7614 c1bc f0cb 913d cac9 be3c 934b 953c
00000280: 68cc c5bc 0aa6 513b 6e45 de3c 5a01 2c3d
00000290: ab10 03bd 615e d93c 319f 3ebc 53f2 213c
000002a0: 6efe 29bc 7156 e73c 740d a53a 5251 993c
000002b0: 4b4f a4bb d7fe 59bc c3da 1e3d 0eee 3a3d
000002c0: 34fd a83b 4487 263d 50ed 453d 601f 303d
000002d0: 2c35 d2bc af5d f43b d9e1 123d 4534 2a3d
000002e0: 3f30 7fbc d37b f33c 3a5d 1c3d aac7 cb3c
000002f0: eef5 02bd 994e fd3c 5c39 353d e9c0 603d
00000300: 979b 043d 7aea 9e3d bb5b 033d 8a9c 153d
00000310: aeb9 15bd ba5f 8e3a 26c0 0d3d 355f a43d
00000320: 3eb3 c2bc 6bbb a63c d3a8 223d a95b 483d
00000330: 798b c7bc 6e16 133d 2e27 38bc cf8d bc3a
00000340: 7b20 063c 037b ad3c c669 383c 5720 b3bc
00000350: aa3c 873c 1361 0c3d ff59 973c 7261 2b3d
00000360: 2e66 343d 03eb be3c 867f 18bd e11d 2c3c
00000370: 5ef2 8ebb d8eb f93c 070d a93b 93d1 1d3c
00000380: 78fb a5bc 874b 86bc c2d7 12bd d003 1a3c
00000390: 868e b1bc ec0e 8b3c 3f8d c13b 8152 2a3c
000003a0: 01b2 acbb df78 103c ca53 f33c 3b0d 483c
000003b0: 4a24 973c 73e6 253d aea6 40bc a65d 2f3d
000003c0: 8846 e63c 105f 253d 963f 4a3c d4c0 1b3d
000003d0: 0871 9c3d 4746 b93c ce7e 2bbc cd5f ca3a
000003e0: 418b fe3c a482 863a 1fc8 f33c f86a 8b3c
000003f0: d0b6 f23c 8d59 6b3d f0e5 b43b 9e4c d13c

conv0.1.weight f4 [32, 16, 3, 1]
-0.03688738 0.020051442 -0.06612614 0.0073237843 -0.07720279 0.01695506 -0.12914588 0.07641477
0.039135896 -0.10785834 0.012314076 0.0710121 -0.004569498 0.07911488 -0.09379167 -0.12480592
-0.09526526 -0.03199368 -0.13506538 0.03422533 -0.03951526 0.028102376 -0.09079387 -0.11826099
0.0014746378 -0.08857187 -0.19637847 -0.030422134 0.011767075 0.013887385 -0.0030278885 0.06451912
0.060488515 -0.050619807 -0.02231368 -0.01944893 0.15757115 -0.07956945 -0.09152173 -0.124176696
0.082412824 0.108677946 0.114609875 0.13584636 0.09098255 0.09240941 -0.022116633 -0.12859565
-0.11468269 -0.15056948 0.012681218 -0.0931383 -0.08597237 0.12425111 0.0981581 0.063922465
-0.06859629 0.05179622 0.072018504 0.09482593 -0.12962066 0.09694946 -0.025829036 0.0619765
0.1386171 -0.105418146 0.009272699 -0.0032604535 0.12488924 -0.08394126 0.106213935 -0.10726216
-0.04582608 0.022781216 -0.08289091 0.0861096 0.0276936 -0.17863694 -0.059306968 -0.075065985
0.0045004818 -0.07222905 -0.1489387 0.037946552 0.09956036 -0.14823821 -0.1686195 0.051409397
0.1026711 0.062022876 0.09866848 0.082376175 -0.05715673 -0.09036263 0.017610177 0.10362912
-0.101667814 0.11353276 0.035059717 -0.056222502 -0.10863863 -0.13552953 0.12276557 -0.052542794
-0.04039356 0.013491146 -0.13520156 0.028922077 -0.087429345 0.01119014 -0.04467724 0.122529
-0.03681904 0.009004523 -0.1169141 0.09050357 0.021367978 0.040887006 0.008221434 0.0869168
-0.048092995 -0.08539766 0.12676895 -0.22530195 -0.07195209 -0.23340265 0.14156088 0.17971101
-0.08854558 0.07398342 0.077001266 0.09706412 0.0077392035 0.1281928 -0.0012940263 -0.15309337
-0.0009874539 0.014993305 -0.13636106 -0.02011301 0.009624585 0.027968217 -0.05067435 -0.13962448
-0.123047166 0.11951537 0.03989039 0.07895047 -0.104044795 0.048725832 -0.06543006 0.13679211
0.12249269 0.14597915 -0.116802074 0.0030381999 0.117035 -0.013418025 -0.05199813 0.05739241
-0.03999536 0.063746594 -0.15690826 -0.16846603 -0.0688958 -0.101437345 0.0794276 0.08227429
-0.10124592 0.12530011 0.073500864 -0.08347144 0.1042638 -0.04611781 -0.00035704614 -0.102442816
0.10507368 -0.114834785 -0.110384114 -0.15682071 0.057618026 -0.06803378 -0.084447645 0.023409227
0.13079333 0.045932475 -0.05213323 -0.0060791266 0.011128768 -0.13238461 0.13388105 -0.13221358
0.022876078 0.15898412 -0.0752299 0.07446649 -0.09985013 -0.04458123 -0.025560835 -0.0098055005
-0.07258289 -0.03984318 -0.0710844 0.019839628 0.0050553693 -0.092595644 0.03594167 -0.0627969
0.013767621 -0.055618457 0.048318878 0.10524335 -0.025072234 -0.0328992 0.16556934 0.12142993
0.11284157 -0.0067083566 -0.051260997 0.06320597 -0.07522882 0.055953853 -0.07388916 0.14349255
0.056054562 0.07142012 0.048476275 0.100193426 -0.10935763 -0.13815801 -0.09568626 0.11945134
0.07442351 -0.041863646 0.103801064 0.05757573 0.17480832 -0.032024864 -0.124485105 0.010895408
0.10362877 0.015101309 -0.06667934 0.113716125 0.039274983 -0.0034004045 -0.09756778 -0.011195896
0.16872805 -0.09248083 -0.0234961 0.1662388 0.06661004 -0.092539355 0.1404547 0.021105504
00000000: 3917 17bd ec42 a43c 246d 87bd 5bfc ef3b
00000010: 7f1c 9ebd 57e5 8a3c d13e 04be 597f 9c3d
00000020: f64c 203d d5e4 dcbd fac0 493c cb6e 913d
00000030: babb 95bb fb06 a23d d915 c0bd 3f9a ffbd
00000040: 6f1a c3bd ce0b 03bd 944e 0abe dc2f 0c3d
00000050: c1da 21bd f436 e63c 23f2 b9bd d132 f2bd
00000060: a248 c13a 2b65 b5bd 7017 49be d737 f9bc
00000070: b1ca 403c ea87 633c 8a6f 46bb 9a22 843d
00000080: cec2 773d b756 4fbd 2ecb b6bc 5d53 9fbc
00000090: 555a 213e 4ff5 a2bd bf6f bbbd 5a50 febd
000000a0: 0ec8 a83d 8b92 de3d 95b8 ea3d 4f1b 0b3e
000000b0: 0f55 ba3d 2541 bd3d f12d b5bc 94ae 03be
000000c0: c2de eabd e32e 1abe e2c4 4f3c 4bbf bebd
000000d0: 4812 b0bd 5e77 fe3d 1d07 c93d c8e9 823d
000000e0: 367c 8cbd 4628 543d 707e 933d 1934 c23d
000000f0: 47bb 04be 708d c63d 6a97 d3bc 12db 7d3d
00000100: a4f1 0d3e 78e5 d7bd 85ec 173c 55ad 55bb
00000110: eec5 ff3d 65e9 abbd b186 d93d 43ac dbbd
00000120: 21b4 3bbd ac9f ba3c b6c2 a9bd 3b5a b03d
00000130: b0dd e23c 9aec 36be ddeb 72bd 32bc 99bd
00000140: c778 933b d3ec 93bd 6383 18be d86d 1b3d
00000150: 4de6 cb3d c2cb 17be 97aa 2cbe a992 523d
00000160: 3a45 d23d b30b 7e3d b312 ca3d d7b4 a83d
00000170: 2d1d 6abd 0b10 b9bd 3843 903c 813b d43d
00000180: 3737 d0bd dd83 e83d c79a 0f3d 9149 66bd
00000190: ee7d debd 41c8 0abe 846c fb3d 1d37 57bd
000001a0: b873 25bd f809 5d3c 4772 0abe feed ec3c
000001b0: 280e b3bd d956 373c 7bff 36bd 7cf0 fa3d
000001c0: 90cf 16bd b587 133c a970 efbd f059 b93d
000001d0: e60b af3c 2279 273d 32b3 063c 6f01 b23d
000001e0: 29fd 44bd f8e4 aebd b8cf 013e 8eb5 66be
000001f0: 9e5b 93bd 1b01 6fbe 56f5 103e 2a06 383e
00000200: 6357 b5bd 9f84 973d d7b2 9d3d 8ec9 c63d
00000210: 2599 fd3b f944 033e 519c a9ba 82c4 1cbe
00000220: 746d 81ba 7ba6 753c 3ca2 0bbe 0ac4 a4bc
00000230: 6fb0 1d3c 9a1d e53c e88f 4fbd b8f9 0ebe
00000240: 2700 fcbd 79c4 f43d 1b64 233d c9b0 a13d
00000250: 7015 d5bd bd94 473d 3200 86bd 3b13 0c3e
00000260: 73dd fa3d 8f7b 153e ed35 efbd 891c 473b
00000270: 0cb0 ef3d 47d7 5bbc fefb 54bd 4e14 6b3d
00000280: 2dd2 23bd 938d 823d 8fac 20be 5c82 2cbe
00000290: 3e19 8dbd 62be cfbd f0aa a23d 6c7f a83d
000002a0: 055a cfbd ac4e 003e 9f87 963d 13f3 aabd
000002b0: 4288 d53d 07e6 3cbd ec31 bbb9 8acd d1bd
000002c0: df30 d73d 802e ebbd 1111 e2bd 9c95 20be
000002d0: e100 6c3d 4b55 8bbd e3f2 acbd b5c4 bf3c
000002e0: b0ee 053e b123 3c3d a789 55bd 6933 c7bb
000002f0: 7055 363c d58f 07be 1d18 093e ff62 07be
00000300: 9d66 bb3c bccc 223e 2212 9abd e381 983d
00000310: 3a7e ccbd cf9a 36bd f564 d1bc 40a7 20bc
00000320: 57a6 94bd 9a32 23bd b394 91bd b786 a23c
00000330: 83a7 a53b c9a2 bdbd 9337 133d a99b 80bd
00000340: 9691 613c 2ed0 63bd 04ea 453d d389 d73d
00000350: 4964 cdbc 50c1 06bd 028b 293e 41b0 f83d
00000360: 7b19 e73d c6d1 dbbb 0df7 51bd 2272 813d
00000370: 9111 9abd de2f 653d 3353 97bd b6ef 123e
00000380: 7899 653d b644 923d 0f8f 463d 3632 cd3d
00000390: e5f6 dfbd 4b79 0dbe 28f7 c3bd e7a2 f43d
000003a0: 5a6b 983d 3779 2bbd a795 d43d 87d4 6b3d
000003b0: f400 333e 812c 03bd 0cf2 febd a782 323c
000003c0: 523b d43d 7b6b 773c 2e8f 88bd 00e4 e83d
000003d0: cede 203d 52d9 5ebb 9ed1 c7bd fe6e 37bc
000003e0: 0cc7 2c3e 9766 bdbd e57a c0bc 813a 2a3e
000003f0: d86a 883d 4685 bdbd 5bd3 0f3e 73e5 ac3c

conv0.1.bias f4 [32]
-0.015649777 -0.009156116 -0.09771978 0.10450693 -0.13457297 0.07895955 0.031921107 -0.010843027
-0.048206504 -0.10185885 -2.4237583e-05 -0.005310012 -0.12851763 0.09116171 -0.11832627 -0.07030489
0.1355063 0.046681557 0.05608121 0.029011048 0.07420208 0.007121698 0.087903276 0.09030117
-0.011232528 0.06849734 -0.07567507 -0.13030352 0.10877312 0.07144668 0.058367442 -0.03750746
00000000: f633 80bc 8903 16bc 4f21 c8bd bb07 d63d
00000010: 7fcd 09be 8bb5 a13d b5bf 023d f4a6 31bc
00000020: 2f74 45bd 5f9b d0bd d051 cbb7 9cff adbb
00000030: 209a 03be feb2 ba3d 0b55 f2bd 03fc 8fbd
00000040: 2ac2 0a3e 2935 3f3d 69b5 653d 94a8 ed3c
00000050: 43f7 973d 225d e93b a206 b43d d2ef b83d
00000060: a308 38bc 5548 8c3d 88fb 9abd 496e 05be
00000070: 71c4 de3d a352 923d b312 6f3d 6ca1 19bd

conv0.2.weight f4 [32]
0.4657601 0.4271349 0.008014975 0.10819114 0.85672057 0.255972 0.64866257 0.6398237
0.0046815565 0.38592306 0.86249906 0.9241287 0.2940099 0.07951345 0.8556946 0.6320799
0.6489424 0.11247298 0.15351723 0.4199937 0.9351505 0.9039022 0.85093254 0.9504581
0.44925246 0.7058629 0.7316461 0.7395013 0.5456964 0.77985543 0.039906576 0.66882014
00000000: 1c78 ee3e 6db1 da3e 3e51 033c 5193 dd3d
00000010: 0a52 5b3f c30e 833e c00e 263f 7ccb 233f
00000020: be67 993b b597 c53e bdcc 5c3f b393 6c3f
00000030: 7788 963e f3d7 a23d cd0e 5b3f fdcf 213f
00000040: 1721 263f 3c58 e63d 9f33 1d3e 6a09 d73e
00000050: 0666 6f3f 2266 673f b7d6 593f 3951 733f
00000060: 6b04 e63e 6eb3 343f 294d 3b3f f54f 3d3f
00000070: c2b2 0b3f 9ba4 473f 1475 233d cc37 2b3f

conv0.2.bias f4 [32]
-0.0008966329 0.0073387907 -0.0014638406 0.005220767 -0.007928311 0.003474655 0.0032425656 0.00052554964
-0.007840774 0.0017213346 -0.007871911 0.0041481094 -0.0011412755 -0.0015742606 -0.007391376 0.00023756635
0.0035212887 -0.0022994964 0.007819089 -0.0024432556 -0.00079012243 0.0027971014 -0.006877951 0.013715518
0.0015854287 -0.0032522376 -0.008502174 -0.0034867523 -0.007804931 -0.0013302163 0.0015476604 -0.0031627577
00000000: 040c 6bba 3d7a f03b 57de bfba f812 ab3b
00000010: bfe5 01bc 0ab7 633b 3981 543b 0ac5 093a
00000020: 9776 00bc 689e e13a 30f9 00bc ddec 873b
00000030: da96 95ba 6c57 ceba 5b33 f2bb 3b1b 7939
00000040: 6cc5 663b 26b3 16bb a31b 003c 071f 20bb
00000050: 3820 4fba 934f 373b 6f60 e1bb 0db7 603c
00000060: 29ce cf3a 7e23 55bb b44c 0bbc ff81 64bb
00000070: 82c0 ffbb a75a aeba deda ca3a 4546 4fbb

conv0.2.running_mean f4 [32]
-0.019612242 -0.0010869609 -0.07607319 0.106294386 -0.1590674 0.08320848 0.021719754 -0.03991711
-0.05832388 -0.12038857 0.020392278 0.0064117494 -0.14464675 0.12048694 -0.1119524 -0.06345105
0.15363377 0.05305087 0.10059916 -0.010003173 0.12375635 -0.017451646 0.08514067 0.055192124
-0.047000866 0.093342975 -0.08635596 -0.13581628 0.12446249 0.044679586 0.063493416 -0.038413372
00000000: daa9 a0bc 5b78 8eba 43cc 9bbd dfb0 d93d
00000010: 91e2 22be 3569 aa3d a0ed b13c 2080 23bd
00000020: 05e5 6ebd 488e f6bd b50d a73c a719 d23b
00000030: 471e 14be dbc1 f63d 4d47 e5bd a0f2 81bd
00000040: 2c52 1d3e de4b 593d ef06 ce3d 59e4 23bc
00000050: f873 fd3d c1f6 8ebc 3b5e ae3d 2311 623d
00000060: fb83 40bd 9a2a bf3d 65db b0bd 6c13 0bbe
00000070: 31e6 fe3d f101 373d d608 823d 5757 1dbd

conv0.2.running_var f4 [32]
0.27277493 0.43168467 0.3507592 0.47928244 0.34841943 0.377559 0.524943 0.34486532
0.6175153 0.48110795 0.49056002 0.35939157 0.61632544 0.31125268 0.45619386 0.3591043
1.1033593 0.31333283 0.333202 0.6030097 0.388359 0.5212339 0.40562218 0.32425302
0.41224268 0.35244295 0.30457166 0.46449807 0.2569044 0.44219232 0.6149451 0.67036355
00000000: 28a9 8b3e c605 dd3e b696 b33e 8264 f53e
00000010: 0864 b23e 6a4f c13e aa62 063f 3092 b03e
00000020: 7c15 1e3f c853 f63e af2a fb3e 2c02 b83e
00000030: 81c7 1d3f 835c 9f3e 3e92 e93e 85dc b73e
00000040: e13a 8d3f 296d a03e 7499 aa3e d85e 1a3f
00000050: fed6 c63e 966f 053f b6ad cf3e 7e04 a63e
00000060: 7911 d33e 6773 b43e d1f0 9b3e b1d2 ed3e
00000070: f988 833e 0867 e23e 0b6d 1d3f f29c 2b3f

bottleneck0.0.weight f4 [192, 32, 1, 1]
0.03692819 -0.12080604 -0.12145448 -0.109439775 0.08442062 0.17506139 0.16412891 0.18013015
0.04030409 0.20172618 -0.11758629 0.0631636 -0.10582769 0.094439656 0.11678197 0.109051466
-0.14759727 -0.028299164 -0.046377983 0.037860308 0.042062733 -0.08895405 -0.08150419 0.05546609
0.053636033 0.041731853 -0.18296698 0.01890379 -0.049080674 0.02508172 0.064121716 -0.14897795
-0.21006006 -0.15545839 0.186641 -0.05564665 0.1463518 0.16381454 0.16091819 -0.007401853
-0.020161537 -0.02170872 0.17680089 0.078013055 0.12697886 0.1658362 0.082033135 0.12437051
-0.104450375 0.032109432 0.1878684 0.05012389 -0.17193691 0.09349252 0.15948722 0.0020818987
0.12806062 0.04220976 -0.080328 -0.092302084 0.097839884 0.066071466 0.16408856 0.1670897
0.05285371 0.10646248 -0.20259528 0.11744082 0.0562966 -0.12602629 0.0691065 0.12680109
0.002076901 0.102543674 0.124761455 0.09580386 -0.01310438 0.0039852415 -0.042323466 -0.017272703
0.113142654 0.051451046 -0.004956832 -0.011292908 0.15648906 0.14175254 0.07340978 0.15487824
-0.11222803 0.10306888 0.10366946 -0.102980785 -0.092768334 0.16707359 -0.021239962 -0.14534703
-0.031547647 -0.020424154 0.052272107 -0.07860182 0.11732107 0.21659774 -0.06761271 0.007087471
0.10956486 0.1354642 0.084683985 -0.067338645 0.10508543 0.018639313 0.15809287 0.13514009
-0.055869766 0.10649025 0.07317138 0.06464969 -0.030110167 -0.16099477 0.064449005 -0.069880545
0.08206273 -0.048131008 -0.08345075 0.07331286 -0.004254625 0.117412075 0.11502184 0.068785615
0.039817274 0.0676047 -0.120622136 0.14381006 -0.02800954 0.0013087557 0.03515784 -0.055367164
-0.064476654 0.05313668 0.1469701 -0.17796533 0.09322597 -0.034898303 -0.030849103 -0.17356338
-0.13971393 -0.06786154 0.13692334 -0.1379212 0.039621864 -0.15339252 0.16211395 -0.008456204
-0.04250316 -0.06936932 -0.16178939 -0.1705345 -0.0955416 0.009415257 -0.03066751 0.16460168
0.050994027 -0.107671075 -0.11925532 -0.0029128485 0.15960231 -0.015190356 0.17525443 0.06723791
0.017639382 0.12553298 -0.15174998 -0.088472664 0.1336912 -0.01580642 0.10649336 0.09585613
-0.06419854 -0.10339304 0.11694537 -0.040009975 -0.13614887 -0.023248954 -0.11464685 -0.0985494
-0.1496483 -0.021748161 -0.07787078 -0.09683354 -0.0058993436 -0.16446353 -0.05992898 0.017726919
0.060829446 -0.111803025 -0.11370063 0.022086548 -0.10525665 0.0859743 -0.12812148 -0.11512497
-0.02334805 -0.15718018 -0.123798706 0.06217671 0.03766447 -0.034983363 0.14963093 -0.16153069
0.014271517 -0.0063424725 -0.12283315 0.019294884 0.106636435 -0.028035121 0.0047938316 -0.18112442
0.16819501 0.04089714 0.017660566 0.12571235 -0.035756614 -0.13855037 0.11831215 -0.051565837
-0.10881175 -0.027371343 -0.14856751 -0.16964445 0.066385835 0.029508656 0.050857816 0.1488951
-0.056395937 -0.0146725355 -0.1461709 -0.001762938 0.14679092 0.052328527 -0.041466985 -0.21721679
-0.109807655 -0.13998862 -0.011759193 0.13167307 -0.005175828 -0.15827626 0.018281972 0.1518121
0.029316828 -0.13389787 0.04328113 -0.10172549 -0.051662512 -0.16473684 -0.20771515 -0.06443253
00000000: 0442 173d 2869 f7bd 20bd f8bd f621 e0bd
00000010: b8e4 ac3d 4b43 333e 6911 283e 0a74 383e
00000020: e715 253d 4f91 4e3e 15d1 f0bd eb5b 813d
00000030: 30bc d8bd 9469 c13d 632b ef3d 6056 df3d
00000040: bd23 17be a6d3 e7bc d7f6 3dbd 6913 1b3d
00000050: f949 2c3d 8a2d b6bd abeb a6bd 6930 633d
00000060: 75b1 5b3d 05ef 2a3d b25b 3bbe 1fdc 9a3c
00000070: d108 49bd 2e78 cd3c 3f52 833d ad8d 18be
00000080: fc19 57be 7c30 1fbe d11e 3f3e beed 63bd
00000090: 3fdd 153e 00bf 273e bdc7 243e 3e8b f2bb
000000a0: cf29 a5bc 7cd6 b1bc 4b0b 353e 4fc5 9f3d
000000b0: bf06 023e f7d0 293e fd00 a83d f7b5 fe3d
000000c0: 14ea d5bd 2e85 033d 9360 403e b54e 4d3d
000000d0: 3b10 30be 0279 bf3d 9e50 233e 7770 083b
000000e0: 5322 033e 24e4 2c3d 0283 a4bd e008 bdbd
000000f0: 4760 c83d 7a50 873d d506 283e 9019 2b3e
00000100: 227d 583d 0009 da3d 2375 4fbe d084 f03d
00000110: 4397 663d 090d 01be b587 8d3d 25d8 013e
00000120: 9e1c 083b 6b02 d23d ef82 ff3d d034 c43d
00000130: c1b3 56bc a196 823b 5f5b 2dbd 7c7f 8dbc
00000140: 56b7 e73d 55be 523d ec6c a2bb e405 39bc
00000150: ab3e 203e 9427 113e de57 963d 6798 1e3e
00000160: cfd7 e5bd c715 d33d a750 d43d 97e7 d2bd
00000170: 53fd bdbd 5715 2b3e 6eff adbc dad5 14be
00000180: 1b38 01bd 8e50 a7bc 471b 563d fef9 a0bd
00000190: 0746 f03d cccb 5d3e 8878 8abd 043e e83b
000001a0: 8b63 e03d 21b7 0a3e cc6e ad3d d8e8 89bd
000001b0: 0837 d73d 79b1 983c 19e3 213e 2a62 0a3e
000001c0: b2d7 64bd 8f17 da3d e0da 953d 0f67 843d
000001d0: 99a9 f6bc d0db 24be d7fd 833d 881d 8fbd
000001e0: 8110 a83d 0525 45bd 3ae8 aabd 0e25 963d
000001f0: 626a 8bbb be75 f03d 9290 eb3d 79df 8c3d
00000200: 7017 233d 5574 8a3d bd08 f7bd f242 133e
00000210: 4374 e5bc 8e8a ab3a ab01 103d aec8 62bd
00000220: 560c 84bd d9a5 593d 547f 163e 8b3c 36be
00000230: 42ed be3d 86f1 0ebd 42b7 fcbc 99ba 31be
00000240: 2b11 0fbe fefa 8abd a235 0c3e 373b 0dbe
00000250: 894a 223d ee12 1dbe 3301 263e e48b 0abc
00000260: cb17 2ebd 8111 8ebd 1eac 25be 99a0 2ebe
00000270: 50ab c3bd 7342 1a3c 6e3a fbbc 588d 283e
00000280: 1ddf 503d a782 dcbd 223c f4bd 7de5 3ebb
00000290: ca6e 233e f9e0 78bc e675 333e 08b4 893d
000002a0: 7780 903c b88b 003e 5964 1bbe 2831 b5bd
000002b0: 59e6 083e 777c 81bc 3119 da3d 3850 c43d
000002c0: 867a 83bd bbbf d3bd 0e81 ef3d 80e1 23bd
000002d0: 9c6a 0bbe 9774 bebc f8cb eabd 45d4 c9bd
000002e0: 673d 19be 3329 b2bc b77a 9fbd aa50 c6bd
000002f0: 484f c1bb 2169 28be 1778 75bd 0b38 913c
00000300: 4c28 793d fcf8 e4bd e0db e8bd d9ee b43c
00000310: cc90 d7bd 4b13 b03d 4732 03be a4c6 ebbd
00000320: 6944 bfbc d7f3 20be 2d8a fdbd 02ad 7e3d
00000330: 0f46 1a3d b74a 0fbd da38 193e 4d68 25be
00000340: 15d3 693c 84d4 cfbb f28f fbbd 4e10 9e3c
00000350: 3464 da3d e9a9 e5bc 9315 9d3b ae78 39be
00000360: 503b 2c3e c283 273d e4ac 903c bdba 003e
00000370: 8775 12bd 26e0 0dbe a44d f23d b336 53bd
00000380: b2d8 debd de39 e0bc 1522 18be 46b7 2dbe
00000390: 4cf5 873d 23bc f13c 4950 503d f577 183e
000003a0: 6dff 66bd 1365 70bc d3ad 15be 6212 e7ba
000003b0: 5c50 163e 7056 563d 49d9 29bd 146e 5ebe
000003c0: d6e2 e0bd 2d59 0fbe a1a9 40bc 4ed5 063e
000003d0: fe99 a9bb 2c13 22be 13c4 953c a274 1b3e
000003e0: d829 f03c 861c 09be 8e47 313d 7455 d0bd
000003f0: 129c 53bd c6b0 28be 48b3 54be 34f5 83bd

bottleneck0.0.bias f4 [192]
0.085152864 0.10938444 0.03943471 0.05722977 -0.03404988 -0.11409351 0.07043088 0.061081607
-0.04190711 -0.064944856 0.078482926 0.19149971 -0.12228432 -0.06769323 -0.13000956 0.02539323
0.124694996 -0.007894361 0.09904037 -0.044449862 -0.0015867867 -0.050519716 -0.009745318 -0.060133502
0.0045812563 0.046953186 -0.03602599 0.053012155 0.06560187 -0.16291109 -0.16065305 0.11381095
-0.044432517 -0.14814599 0.054492146 0.1617672 0.09195739 -0.073800646 -0.07220977 0.082842074
-0.0027544973 -0.16106205 0.10900991 -0.07648248 0.0813268 0.08224582 0.045661017 0.047217775
-0.04842885 0.101831496 0.06690427 -0.15105216 -0.025695033 -0.09082954 -0.0066022007 0.14270641
-0.16102514 -0.065397054 0.14443898 -0.15427867 0.04431603 0.12918273 0.0035198578 0.042787917
-0.0007950595 0.08308249 0.10975773 0.12444996 -0.1940434 0.08836694 -0.08462424 0.09973806
-0.11796377 -0.06309905 -0.09850632 -0.102064006 -0.005106918 -0.015142868 0.00811352 0.028018402
-0.14475724 -0.16179368 -0.20817073 0.1618423 0.050273594 -0.096152395 -0.100305304 -0.12789108
-0.123634756 0.016590768 0.0077429917 0.07357373 0.060849637 -0.108208366 0.100039475 0.14414124
-0.058581624 -0.13860154 0.13760503 0.1345872 -0.03671848 -0.0041331598 -0.0021671765 -0.15444902
0.18990324 0.15872927 -0.02521575 0.019410523 -0.082828514 0.08390125 0.085777394 0.04644558
-0.016761372 0.17268756 0.03919935 -0.12964477 -0.10989168 -0.08471397 -0.17401473 0.01736573
0.18241315 0.091251545 -0.08648018 0.009500424 0.07565795 -0.10435198 -0.05653297 -0.18120626
0.118785284 0.08551641 0.09005308 -0.12611699 -0.17654195 -0.14530458 -0.049008206 -0.016398026
-0.008511443 0.17306736 0.101493195 -0.030636113 -0.049821977 0.02601652 -0.16408567 -0.03707147
-0.02162899 -0.035877332 0.15314998 0.17064466 0.10344267 0.0038611472 -0.026826542 0.047270734
-0.099578634 -0.09035315 0.16431983 0.0013433408 -0.12899868 0.06630859 0.065014 0.10265127
-0.013647403 -0.09089575 0.10439706 -0.15365337 -0.09771028 -0.12739378 0.061187893 -0.14353855
-0.116594605 -0.18634056 -0.021729112 -0.043813452 0.14406261 -0.100160025 -0.17199026 0.12337741
0.095471546 -0.0018166931 0.10645801 0.14144729 -0.098902956 0.0791019 -0.17639813 0.16364557
0.092241876 -0.1501865 0.12723303 0.1717093 -0.032298565 -0.07904035 -0.13566862 -0.085646845
00000000: a064 ae3d f304 e03d 4a86 213d c369 6a3d
00000010: e377 0bbd dca9 e9bd 113e 903d b530 7a3d
00000020: caa6 2bbd cf01 85bd a8bb a03d 8018 443e
00000030: 3470 fabd c0a2 8abd 3a21 05be 7705 d03c
00000040: 1760 ff3d 5a57 01bc add5 ca3d 0f11 36bd
00000050: bafb cfba c3ed 4ebd d4aa 1fbc 8c4e 76bd
00000060: 5d1e 963b fc51 403d fd8f 13bd 4623 593d
00000070: 465a 863d 2ad2 26be 3c82 24be b715 e93d
00000080: dffe 35bd 95b3 17be 2833 5f3d 4da6 253e
00000090: 2854 bc3d cb24 97bd b7e2 93bd 1ba9 a93d
000000a0: cc84 34bb 73ed 24be 9640 df3d d9a2 9cbd
000000b0: aa8e a63d 7f70 a83d 0c07 3b3d 6d67 413d
000000c0: 545d 46bd 088d d03d 1b05 893d 6bad 1abe
000000d0: 647e d2bc d604 babd 4657 d8bb a121 123e
000000e0: c6e3 24be e4ee 85bd d0e7 133e 3afb 1dbe
000000f0: ba84 353d 7a48 043e 6aad 663b 6242 2f3d
00000100: 8a6b 50ba 2727 aa3d a9c8 e03d 9fdf fe3d
00000110: 50b3 46be baf9 b43d 794f adbd 7843 cc3d
00000120: fd96 f1bd 133a 81bd aebd c9bd ef06 d1bd
00000130: ef57 a7bb cb19 78bc 92ee 043c d986 e53c
00000140: 3e3b 14be 3ead 25be b52a 55be fdb9 253e
00000150: afeb 4d3d 8ceb c4bd de6c cdbd e1f5 02be
00000160: 3834 fdbd 5de9 873c ecb8 fd3b d3ad 963d
00000170: 783d 793d 599c ddbd 7fe1 cc3d c399 133e
00000180: 49f3 6fbd 90ed 0dbe 55e8 0c3e 3ad1 093e
00000190: 1e66 16bd 756f 87bb 3007 0ebb e227 1ebe
000001a0: ff75 423e ed89 223e 4391 cebc d102 9f3c
000001b0: ffa1 a9bd 6bd4 ab3d 0fac af3d b83d 3e3d
000001c0: 254f 89bc 02d5 303e 7f8f 203d 99c1 04be
000001d0: e40e e1bd 857e adbd eb30 32be 9342 8e3c
000001e0: 83ca 3a3e 17e2 ba3d 851c b1bd aba7 1b3c
000001f0: 8ef2 9a3d 7eb6 d5bd 1e8f 67bd 228e 39be
00000200: b345 f33d 3a23 af3d c06d b83d d024 01be
00000210: 6ac7 34be b9ca 14be d4bc 48bd 2755 86bc
00000220: 9473 0bbc 9238 313e aadb cf3d 96f8 fabc
00000230: 2112 4cbd 9920 d53c 1306 28be 41d8 17bd
00000240: 482f b1bc 1cf4 12bd 59d3 1c3e 79bd 2e3e
00000250: c0d9 d33d 4d0b 7d3b 56c3 dbbc f59e 413d
00000260: e2ef cbbd 130b b9bd 7543 283e 0a13 b03a
00000270: 3b18 04be cccc 873d 0f26 853d d43a d23d
00000280: 5b99 5fbc 8d27 babd 20ce d53d 4f57 1dbe
00000290: 541c c8bd 8473 02be 28a0 7a3d c5fb 12be
000002a0: 27c9 eebd 0fd0 3ebe 4001 b2bc bc75 33bd
000002b0: 2685 133e b320 cdbd 371e 30be 4cad fc3d
000002c0: 9686 c33d 1b1e eeba a806 da3d 8fd7 103e
000002d0: a28d cabd 2d00 a23d b6a1 34be b492 273e
000002e0: 4fe9 bc3d 7dca 19be 6049 023e 90d4 2f3e
000002f0: 804b 04bd e8df a1bd b7ec 0abe 9d67 afbd

bottleneck0.1.weight f4 [192]
0.22474049 0.06656246 0.9009678 0.19099237 0.89689916 0.9487738 0.055031378 0.2351904
0.23762332 0.39468214 0.32430798 0.3421607 0.90935004 0.5138786 0.57003057 0.6212054
0.2108342 0.059008867 0.26991367 0.42385378 0.52434343 0.11436168 0.43567282 0.48577073
0.66718197 0.1878006 0.52577776 0.3660048 0.6459816 0.5450162 0.4094595 0.12734993
0.61076134 -0.04383638 1.0117339 0.28089234 0.14037067 0.46608755 0.75235903 0.2919303
0.7578702 0.27386248 0.6353675 0.9925013 0.5628841 0.7335352 0.002028975 0.63790905
0.4348256 0.13471106 0.76349574 0.034652136 0.8891595 0.39478365 0.3253578 0.717126
0.15782678 0.12872389 0.9717605 0.1657684 0.58682925 0.1694615 0.9210638 0.933389
0.33160552 0.80928 0.9544694 0.034554336 0.082648516 0.43946683 0.9490909 0.7777696
0.27132195 0.36595172 0.37183845 0.6948931 0.05953432 0.2820208 0.38539422 0.15631631
0.26285553 0.7395405 0.56761986 0.5233579 0.7448011 0.36897668 0.50906974 0.7073199
0.100071475 0.8180467 0.7541108 0.73835796 0.81854963 0.51691824 0.56153625 0.6885897
0.3017674 0.6403928 0.4464365 0.7571336 0.6469347 0.17387761 0.5131306 0.15350093
-0.029888734 0.8883455 0.15371743 0.5405053 0.66383135 0.41544908 0.68510747 0.5261646
0.72113544 0.20830752 0.37327337 0.8907099 0.0027926355 0.8267882 0.6773494 0.97716975
0.41476867 0.073541105 0.085166365 0.5060724 1.0143031 0.4364778 0.22337256 0.11835993
0.5393904 0.89409715 0.85768455 0.71529526 0.6918824 0.13155362 0.3228268 0.14268018
0.34592694 0.5637614 0.11570553 0.3582825 0.649188 0.2562305 0.28010702 0.30885413
0.5128738 0.4788091 0.28891763 0.06746586 0.9403528 0.99389774 0.908615 0.2350588
0.28603685 0.71192884 0.9018013 0.48403642 0.84972596 0.7969997 0.4274615 0.66774017
-0.0010909484 0.9484562 0.60794795 0.16991447 0.38368815 0.10155978 0.1082824 0.53472644
0.7361223 0.44573864 0.64959836 0.25501716 0.8483742 0.74074847 0.14992642 0.84648955
0.64341533 0.6259831 0.40729424 0.6693287 0.7495541 0.96934855 0.06561385 0.91669714
0.72739154 0.26256275 0.77950394 0.8819816 0.36920995 0.53698915 0.10857606 0.3497388
00000000: 5f22 663e e651 883d d3a5 663f 8193 433e
00000010: 2f9b 653f d7e2 723f 9568 613d c1d5 703e
00000020: 8753 733e c713 ca3e b20b a63e b02f af3e
00000030: 2acb 683f 8c8d 033f 86ed 113f 5107 1f3f
00000040: ece4 573e 48b3 713d 2032 8a3e 5d03 d93e
00000050: 5f3b 063f 7536 ea3d 8210 df3e f1b6 f83e
00000060: 70cc 2a3f cd4e 403e 5f99 063f fb64 bb3e
00000070: 0d5f 253f 2f86 0b3f ada4 d13e 0568 023e
00000080: db5a 1c3f c78d 33bd 7f80 813f 1fd1 8f3e
00000090: 54bd 0f3e 07a3 ee3e 9a9a 403f e377 953e
000000a0: c803 423f b437 8c3e 72a7 223f 9114 7e3f
000000b0: 2c19 103f f6c8 3b3f 8df8 043b 024e 233f
000000c0: 76a1 de3e b2f1 093e 7574 433f 66ef 0d3d
000000d0: f59f 633f 1521 ca3e 4c95 a63e 9295 373f
000000e0: 589d 213e 32d0 033e 4cc5 783f 31bf 293e
000000f0: 713a 163f 5187 2d3e d6ca 6b3f 95f2 6e3f
00000100: 33c8 a93e f92c 4f3f 1b58 743f d988 0d3d
00000110: a043 a93d cc01 e13e 9ff7 723f e91b 473f
00000120: b6ea 8a3e 065e bb3e 9c61 be3e 84e4 313f
00000130: 42da 733d 0865 903e 6452 c53e 6211 203e
00000140: 0095 863e 8752 3d3f 894f 113f c9fa 053f
00000150: 49ab 3e3f 83ea bc3e 6552 023f eb12 353f
00000160: 46f2 cc3d 826b 513f 680d 413f 0705 3d3f
00000170: 788c 513f c154 043f d7c0 0f3f 6a47 303f
00000180: 4281 9a3e c8f0 233f 5393 e43e 82d3 413f
00000190: 839d 253f f90c 323e 875c 033f 592f 1d3e
000001a0: 38d9 f4bc 9c6a 633f 1a68 1d3e 8e5e 0a3f
000001b0: daf0 293f beb5 d43e 3463 2f3f b9b2 063f
000001c0: 559c 383f 914e 553e b01d bf3e 9005 643f
000001d0: a604 373b 64a8 533f c566 2d3f cc27 7a3f
000001e0: 8f5c d43e b89c 963d b46b ae3d f68d 013f
000001f0: afd4 813f 057a df3e c7bb 643e b166 f23d
00000200: 7d15 0a3f 8de3 643f 3791 5b3f 971d 373f
00000210: 341f 313f feb5 063e 8e49 a53e c11a 123e
00000220: 561d b13e ab52 103f 05f7 ec3d ce70 b73e
00000230: 2f31 263f a530 833e 306a 8f3e 2122 9e3e
00000240: b34b 033f 7726 f53e 03ed 933e 8a2b 8a3d
00000250: f6ba 703f 1570 7e3f fe9a 683f 41b3 703e
00000260: 6c73 923e f840 363f 73dc 663f 9fd3 f73e
00000270: a487 593f 2c08 4c3f 3cdc da3e 05f1 2a3f
00000280: 27fe 8eba 07ce 723f 7aa2 1b3f 0ffe 2d3e
00000290: c672 c43e 93fe cf3d 2ac3 dd3d d5e3 083f
000002a0: 8372 3c3f db37 e43e 144c 263f 9c91 823e
000002b0: 0d2f 593f b1a1 3d3f 5086 193e 8ab3 583f
000002c0: deb6 243f 6e40 203f df88 d03e 2059 2b3f
000002d0: c7e2 3f3f 3a27 783f 8e60 863d aaac 6a3f
000002e0: 5536 3a3f a06e 863e 928d 473f 8cc9 613f
000002f0: 1609 bd3e 1f78 093f 205d de3d f710 b33e

bottleneck0.1.bias f4 [192]
0.023302615 0.025478551 0.008327232 0.06482798 0.045503657 -0.028085055 -0.0102905845 0.0330435
-0.051839776 0.1290606 0.020538708 0.0344743 0.052438006 0.020435825 -0.016498094 0.02989929
-0.031195141 -0.030224185 0.0153232915 0.0064908722 0.020145172 -0.0059681367 -0.0033072266 0.04770044
0.020685416 0.003575735 0.024603691 0.08452682 0.027749998 -0.025049185 0.042258345 -0.04838384
-0.01719613 0.030116402 0.025723455 0.0039501865 0.010399921 0.049936615 0.007721456 -0.004473224
-0.04566976 -0.00794795 -0.012411486 0.011155187 -0.028433759 -0.011203714 -0.020366175 0.0065688333
0.017216984 0.024946192 0.037937377 0.04692444 0.042035658 -0.030781254 0.02614254 0.00084104587
-0.011286896 -0.008031136 0.0018375269 -0.016571762 0.00556596 -0.018507227 0.0101169245 -0.012188306
0.05567462 -0.022456225 -0.026983822 -0.002656173 0.018449305 0.0053748684 0.009167398 0.046309073
-0.0011478445 -0.013663766 0.039806586 -0.019757275 0.039017674 -0.026272682 -0.006131834 0.05949195
0.032836236 0.022708962 0.017769275 0.00065168925 0.02663995 -0.052276704 -0.09085812 0.07396074
-0.03199364 -0.0047281897 -0.02237953 0.034952015 -0.015739491 0.028661184 0.103478916 0.000897976
-0.0010247228 -0.02388233 0.021289777 0.023813741 0.02414116 0.021834528 -0.011603618 0.07572828
-0.021090634 -0.0026541 0.0060145124 0.012688003 -0.03396413 -0.03704502 0.014145081 0.010374202
0.035841074 -0.01266141 -0.07818775 0.016306814 -0.033509914 0.006945201 0.0056186123 -0.0076029957
0.0037099335 0.004218624 0.001456005 -0.01144941 -0.0061252858 0.02056417 -0.02124585 0.002773081
-0.026791189 -0.033080686 0.012328449 0.00033681633 -0.056254067 -0.013256345 -0.01876753 0.021082262
0.014231195 -0.03957954 0.06575134 0.0283806 0.0019901693 -0.053792667 0.0021400533 0.013950784
0.036624473 0.038582865 0.005725703 0.017575057 -0.015318856 0.026126975 0.057702146 0.05306961
-0.0058791586 -0.015890688 -0.044083245 0.011583867 0.008028271 -0.02679422 0.0007966468 -0.0022144755
-0.019917661 0.039984208 -0.04102909 -0.06571442 -0.044838894 0.00895114 0.036455873 -0.035481144
0.011993729 0.053324465 -0.04165003 0.0073308204 0.02634158 -0.06551602 -0.01171859 0.026168307
0.007785867 -0.028296845 0.05531725 -0.022987492 0.00395038 0.013807399 -0.018629706 -0.0076702517
-0.003197794 0.043248482 -0.0036037457 -0.00817384 -0.043220337 -0.0053670034 0.025818681 0.0015301746
00000000: 20e5 be3c 65b8 d03c f16e 083c 88c4 843d
00000010: 0b62 3a3d a112 e6bc d799 28bc 9f58 073d
00000020: f255 54bd 7628 043e cb40 a83c ec34 0d3d
00000030: 3cc9 563d 0869 a73c 0327 87bc 5bef f43c
00000040: f48c ffbc b698 f7bc 8b0e 7b3c 62b1 d43b
00000050: 7d07 a53c 5c90 c3bb 0ebe 58bb 8961 433d
00000060: 7674 a93c e156 6a3b ae8d c93c 661c ad3d
00000070: f753 e33c f333 cdbc 1617 2d3d 222e 46bd
00000080: e6de 8cbc acb6 f63c ffb9 d23c 9170 813b
00000090: 6e64 2a3c 568a 4c3d 4404 fd3b 1f94 92bb
000000a0: 3710 3bbd 1e38 02bc 8c59 4bbc 3fc4 363c
000000b0: eaed e8bc c88f 37bc f7d6 a6bc 5e3f d73b
000000c0: a20a 8d3c f55b cc3c 3964 1b3d d733 403d
000000d0: 952d 2c3d f828 fcbc e128 d63c a279 5c3a
000000e0: acec 38bc 0795 03bc 2cd9 f03a 81c1 87bc
000000f0: a862 b63b 789c 97bc 75c1 253c 76b1 47bc
00000100: 120b 643d 1ef6 b7bc 2d0d ddbc 3013 2ebb
00000110: ff22 973c aa1f b03b db32 163c 95ae 3d3d
00000120: 4573 96ba fddd 5fbc 3b0c 233d 02da a1bc
00000130: ffd0 1f3d cf39 d7bc 8ded c8bb d5ad 733d
00000140: 4a7f 063d 2508 ba3c df90 913c 20d6 2a3a
00000150: 063c da3c 1920 56bd d213 babd ba78 973d
00000160: c30b 03bd eeee 9abb 4755 b7bc d829 0f3d
00000170: 1bf0 80bc dcca ea3c c1ec d33d 2666 6b3a
00000180: fe4f 86ba e0a4 c3bc e667 ae3c 0915 c33c
00000190: afc3 c53c 53de b23c 1a1d 3ebc 6e17 9b3d
000001a0: 44c6 acbc 69f0 2dbb 6315 c53b 57e1 4f3c
000001b0: f91d 0bbd 85bc 17bd c5c0 673c 8ff8 293c
000001c0: 17ce 123d cd71 4fbc e620 a0bd de95 853c
000001d0: b141 09bd 9294 e33b 561c b83b 8d22 f9bb
000001e0: 5b22 733b 623c 8a3b 6cd7 be3a 4e96 3bbc
000001f0: 9fb6 c8bb 3176 a83c c70b aebc 94bc 353b
00000200: 3279 dbbc 9d7f 07bd 43fd 493c b996 b039
00000210: aa6a 66bd 2431 59bc 5dbe 99bc b5b4 ac3c
00000220: f529 693c 281e 22bd a3a8 863d 6f7e e83c
00000230: 806d 023b b355 5cbd 2340 0c3b d491 643c
00000240: 8b03 163d 1109 1e3d ae9e bb3b 91f9 8f3c
00000250: f0fb 7abc 3d08 d63c 1659 6c3d 855f 593d
00000260: f5a5 c0bb 302d 82bc a290 34bd 42ca 3d3c
00000270: 0289 033c 8d7f dbbc 10d6 503a bc20 11bb
00000280: 5d2a a3bc 7bc6 233d 1e0e 28bd 4895 86bd
00000290: fda8 37bd cda7 123c c152 153d ad54 11bd
000002a0: 5881 443c c16a 5a3d 3999 2abd 6137 f03b
000002b0: 4cca d73c 432d 86bd 54ff 3fbc eb5e d63c
000002c0: 9620 ff3b c9ce e7bc 5794 623d 4450 bcbc
000002d0: 3072 813b 6e38 623c 539d 98bc bc56 fbbb
000002e0: 1592 51bb 5225 313d d22c 6cbb 92eb 05bc
000002f0: cf07 31bd b0dd afbb b381 d33c 2490 c83a

bottleneck0.1.running_mean f4 [192]
0.08764331 0.107427426 0.042426825 0.05246923 -0.03199722 -0.11368533 0.06718933 0.06380417
-0.048018232 -0.06886582 0.076560564 0.18674423 -0.11770955 -0.06817903 -0.12533693 0.023886835
0.12029425 -0.011390582 0.09339996 -0.044158343 -0.004872105 -0.05442497 -0.0088892365 -0.056514334
0.0077727586 0.04738104 -0.04119054 0.054961253 0.0648643 -0.16482186 -0.16392535 0.10995319
-0.036859997 -0.1467244 0.054812223 0.15898542 0.09169068 -0.073869504 -0.07664631 0.08340766
-0.0049771736 -0.15652974 0.10716705 -0.07977846 0.08477988 0.079673946 0.04571491 0.049293194
-0.05006062 0.10249991 0.06645129 -0.1435334 -0.024231857 -0.09477624 -0.011897832 0.14236304
-0.15651996 -0.06692666 0.14566964 -0.1550216 0.04329729 0.1261821 0.007898975 0.04022175
0.003941009 0.08538843 0.11079634 0.12219821 -0.1911161 0.08133807 -0.08652295 0.09619845
-0.11597806 -0.07030647 -0.10203081 -0.10201015 -0.0038278815 -0.01405659 0.010461535 0.028891347
-0.1399318 -0.15897188 -0.20355847 0.16394179 0.04735936 -0.098120436 -0.10909855 -0.13011351
-0.120269895 0.018968381 0.010522655 0.072397195 0.06319986 -0.1078742 0.096685454 0.14260589
-0.05582238 -0.13838123 0.13598639 0.13109373 -0.04081233 -0.007013154 -0.0012114929 -0.15917113
0.18834758 0.158844 -0.025573285 0.016920071 -0.07516605 0.08395448 0.07878404 0.049259473
-0.019912537 0.16756618 0.045122758 -0.13281268 -0.11235282 -0.07706113 -0.17131536 0.017990537
0.1792528 0.08840824 -0.087432496 0.014417298 0.07763815 -0.10578926 -0.061402973 -0.18197282
0.11435022 0.08445472 0.09216448 -0.12600228 -0.17315856 -0.14735405 -0.04608514 -0.013819335
-0.0027756284 0.17123646 0.10053826 -0.031950347 -0.051620986 0.025184982 -0.15750933 -0.033973217
-0.022422075 -0.04216656 0.15680993 0.16916396 0.09953891 0.0026632594 -0.028085591 0.047010005
-0.10504808 -0.09556626 0.16462438 0.0065153046 -0.13124841 0.06510009 0.06609133 0.103906535
-0.012439914 -0.08835075 0.10786488 -0.15306297 -0.095789164 -0.1264616 0.060595624 -0.13892812
-0.11691151 -0.18993375 -0.025285352 -0.04650711 0.14786044 -0.107633576 -0.17280829 0.1256028
0.09439701 -0.006862747 0.1004338 0.13984883 -0.10287508 0.08305374 -0.18053617 0.16640626
0.090062924 -0.1537201 0.129094 0.17649299 -0.029467711 -0.07050647 -0.14004086 -0.08985281
00000000: 567e b33d e902 dc3d c0c7 2d3d fae9 563d
00000010: 840f 03bd dbd3 e8bd 8f9a 893d c3ab 823d
00000020: c4ae 44bd 8609 8dbd c9cb 9c3d e139 3f3e
00000030: b411 f1bd 73a1 8bbd 5358 00be 53ae c33c
00000040: d55c f63d 909f 3abc 7a48 bf3d 61df 34bd
00000050: 2ea6 9fbb b8ec 5ebd 29a4 11bc 937b 67bd
00000060: a0b2 fe3b 9f12 423d 69b7 28bd 0d1f 613d
00000070: 93d7 843d 10c7 28be 0cdc 27be 232f e13d
00000080: 82fa 16bd ec3e 16be c882 603d 13cd 223e
00000090: 53c8 bb3d e548 97bd bef8 9cbd a3d1 aa3d
000000a0: 8f17 a3bb 5549 20be 667a db3d e462 a3bd
000000b0: 13a1 ad3d 182c a33d 8f3f 3b3d a9e7 493d
000000c0: 5d0c 4dbd 79eb d13d 9d17 883d 6bfa 12be
000000d0: e381 c6bc 0c1a c2bd 20ef 42bc 9ec7 113e
000000e0: c546 20be d810 89bd 6c2a 153e fbbd 1ebe
000000f0: 8058 313d e135 013e b46a 013c 90bf 243d
00000100: 9423 813b 21e0 ae3d 31e9 e23d 0e43 fa3d
00000110: f0b3 43be 9394 a63d f232 b1bd b103 c53d
00000120: e885 edbd d7fc 8fbd 88f5 d0bd b3ea d0bd
00000130: 32dd 7abb 9d4d 66bc dc66 2b3c 8cad ec3c
00000140: 484a 0fbe 86c9 22be a271 50be 5be0 273e
00000150: e3fb 413d 5ef3 c8bd 106f dfbd 7a3c 05be
00000160: 1050 f6bd 9463 9b3c 3767 2c3c fb44 943d
00000170: ee6e 813d 26ed dcbd 0603 c63d 4707 123e
00000180: 02a6 64bd cfb3 0dbe 0440 0b3e 6f3d 063e
00000190: d42a 27bd 9ace e5bb f5ca 9eba c2fd 22be
000001a0: 30de 403e 00a8 223e 117f d1bc f69b 8a3c
000001b0: a8f0 99bd 54f0 ab3d 8759 a13d 4dc4 493d
000001c0: 9e1f a3bc 7896 2b3e a4d2 383d 0c00 08be
000001d0: 3c19 e6bd 3ad2 9dbd 4b6d 2fbe e460 933c
000001e0: 0c8e 373e 610f b53d cf0f b3bd 8836 6c3c
000001f0: c000 9f3d 0aa8 d8bd af81 7bbd 1557 3abe
00000200: 7330 ea3d 99f6 ac3d bbc0 bc3d be06 01be
00000210: 7a50 31be fbe3 16be c6c3 3cbd 7e6a 62bc
00000220: 51e7 35bb 9c58 2f3e 01e7 cd3d 5ede 02bd
00000230: 8770 53bd bc50 ce3c 204a 21be 8027 0bbd
00000240: 80ae b7bc d8b6 2cbd c892 203e 5139 2d3e
00000250: 0edb cb3d 148a 2e3b c113 e6bc 908d 403d
00000260: 7323 d7bd 3eb8 c3bd 4b93 283e 567e d53b
00000270: fc65 06be 3253 853d e45a 873d f3cc d43d
00000280: c8d0 4bbc 3df1 b4bd 43e8 dc3d 8abc 1cbe
00000290: 1c2d c4bd 267f 01be 1e33 783d 2c43 0ebe
000002a0: 4d6f efbd fe7d 42be 3a23 cfbc 3d7e 3ebd
000002b0: ba68 173e fe6e dcbd a8f4 30be 059e 003e
000002c0: 3853 c13d e5e0 e0bb 3cb0 cd3d 8834 0f3e
000002d0: 2cb0 d2bd 1418 aa3d 79de 38be 6766 2a3e
000002e0: e972 b83d cd68 1dbe 3831 043e 94ba 343e
000002f0: 4566 f1bc b265 90bd df66 0fbe c004 b8bd
