TradingGym/TradingGym_400.pth (torch_old, 699326 bytes, 52 tensors)

conv0.0.weight f4 [256, 1]
000000 be 67 83 3f 7b 91 7e 3f ae d6 6d 3f d8 9c 83 3f
       1.0266035 0.99440736 0.929057 1.028224
000010 ca 84 81 3f 17 d1 82 3f c8 eb 7a 3f a7 4d 6a 3f
       1.0118649 1.0220059 0.98016024 0.9152474
000020 22 77 74 3f 0b 01 86 3f 2d 99 81 3f 6d de 71 3f
       0.9549428 1.0469068 1.012487 0.9448002
000030 20 e4 7c 3f 01 71 78 3f f1 03 84 3f 27 5c 76 3f
       0.9878559 0.9704743 1.0313703 0.96234363
000040 5e e8 82 3f 8f 52 7d 3f e7 f2 7c 3f 55 7d 83 3f
       1.0227163 0.989541 0.9880814 1.0272623
000050 fc e4 84 3f 45 0a 73 3f 3f ec 82 3f 6c 9c 6d 3f
       1.038238 0.94937545 1.0228347 0.92816806
000060 a8 16 7d 3f c5 1e 70 3f 69 14 83 3f 77 81 77 3f
       0.98862696 0.9379695 1.0240604 0.9668192
000070 a7 7f 72 3f 81 1c 74 3f e2 22 77 3f 96 dc 6b 3f
       0.9472603 0.95355994 0.965376 0.9213346
000080 83 9b 81 3f a7 ca 79 3f a0 fc 80 3f 3c a5 71 3f
       1.0125583 0.9757485 1.0077095 0.9439275
000090 1f d0 83 3f 14 fc 80 3f 62 12 7f 3f 68 5e 77 3f
       1.0297889 1.0076928 0.99637425 0.9662843
0000a0 66 59 7b 3f 65 42 87 3f 6d 3e 81 3f 22 df 7a 3f
       0.98183286 1.0567137 1.0097176 0.97996724
0000b0 55 66 6c 3f 46 53 74 3f ab f9 88 3f 25 ae 7f 3f
       0.92343646 0.95439565 1.0701193 0.998751
0000c0 3d 0e 81 3f 0d dd 80 3f 42 7c 80 3f f9 d4 86 3f
       1.008247 1.0067459 1.003792 1.0533744
0000d0 30 9f 86 3f 38 99 7b 3f c3 62 7c 3f cb 54 78 3f
       1.051733 0.9828067 0.985882 0.97004384
0000e0 be e4 79 3f cd d7 6e 3f f4 21 7f 3f c2 34 6c 3f
       0.9761466 0.93298036 0.99661183 0.92268
0000f0 0d 73 7b 3f 70 70 85 3f ce ba 7f 3f 0a cc 7c 3f
       0.9822243 1.0424938 0.99894416 0.9874884
000100 a7 01 83 3f aa 40 82 3f b9 7f 81 3f 2e 44 83 3f
       1.0234879 1.0175984 1.0117103 1.0255182
000110 b5 1d 83 3f e3 48 78 3f 31 db 75 3f dc 09 7f 3f
       1.0243441 0.96986216 0.96037585 0.9962442
000120 b5 a9 81 3f 5c 45 86 3f 50 a8 6f 3f c3 26 82 3f
       1.0129915 1.0489917 0.936162 1.0168079
000130 90 cf 7d 3f 86 0b 81 3f c1 24 86 3f 47 d8 80 3f
       0.9914484 1.0081642 1.0479966 1.0066003
000140 18 4f 7c 3f 7b ac 85 3f 9b 94 85 3f ed dd 87 3f
       0.9855819 1.0443262 1.0435976 1.0614601
000150 b6 d0 79 3f 1b 9b 76 3f 6e dd 7f 3f 93 b9 86 3f
       0.9758409 0.9633042 0.9994725 1.0525383
000160 a5 da 80 3f 97 dd 6d 3f 81 45 70 3f 1d d3 76 3f
       1.0066725 0.92916244 0.93856055 0.96415883
000170 bc c6 87 3f 13 b9 6f 3f 58 7a 81 3f 81 bc 7e 3f
       1.0607524 0.93641776 1.0115461 0.99506384
000180 28 76 84 3f 17 48 83 3f fa 41 86 3f f5 82 85 3f
       1.0348558 1.0256375 1.0488884 1.043059
000190 09 aa 7a 3f e6 45 7e 3f f5 25 80 3f 90 61 83 3f
       0.97915703 0.99325407 1.0011584 1.0264149
0001a0 15 37 87 3f 3a f0 83 3f e2 d6 7e 3f d9 fb 84 3f
       1.0563685 1.0307686 0.99546635 1.0389358
0001b0 1f 26 83 3f ea f3 82 3f 72 d9 87 3f c6 a2 81 3f
       1.0246009 1.0230687 1.0613234 1.01278
0001c0 b4 95 83 3f 68 c8 7a 3f 2f 74 80 3f dc 48 86 3f
       1.0280061 0.97962046 1.0035456 1.0490985
0001d0 9c 17 76 3f 46 9b 85 3f 37 d7 81 3f 1d d7 7f 3f
       0.96129775 1.0438011 1.0143803 0.9993761
0001e0 52 40 80 3f c0 ca 7f 3f a5 d4 6f 3f c0 3d 7d 3f
       1.0019629 0.99918747 0.93683845 0.9892235
0001f0 74 aa 7c 3f 20 ed 79 3f f4 9f 77 3f 3c 6b 8c 3f
       0.9869759 0.9762745 0.96728444 1.0970225
000200 8b a0 6d 3f be 4c 7b 3f 31 09 77 3f b2 a0 7e 3f
       0.92823094 0.98163974 0.964984 0.9946395
000210 f2 1c 85 3f 8d b5 83 3f fc bb 79 3f a5 fc 75 3f
       1.0399458 1.028978 0.97552466 0.9608863
000220 ee 9f 8a 3f 0f 50 83 3f c8 2e 82 3f 5a df 7e 3f
       1.0830057 1.0258807 1.0170527 0.9955956
000230 87 df 85 3f b4 46 86 3f 96 f7 82 3f b9 af 66 3f
       1.045884 1.0490327 1.0231807 0.9011188
000240 77 07 76 3f cd 84 7e 3f 1d e5 74 3f 04 56 77 3f
       0.9610514 0.9942139 0.956621 0.96615624
000250 d6 d5 77 3f a2 e1 6f 3f 7e 3a 7e 3f a9 57 7e 3f
       0.9681066 0.93703663 0.99308 0.9935251
000260 dc 9a 86 3f b8 8a 86 3f 45 6f 78 3f 98 c2 81 3f
       1.0516009 1.0511084 0.97044784 1.013751
000270 a9 77 78 3f b2 f6 83 3f 00 52 82 3f 46 6f 81 3f
       0.97057587 1.030966 1.0181274 1.0112083
000280 84 68 82 3f cb ed 7c 3f c8 bc 78 3f a5 a6 82 3f
       1.0188146 0.98800343 0.9716306 1.0207106
000290 ef 23 74 3f da 45 85 3f 63 19 83 3f 8e e8 72 3f
       0.9536733 1.0411942 1.0242122 0.948861
0002a0 4d ec 78 3f 45 ec 78 3f 7d d6 8a 3f 45 2a 81 3f
       0.97235566 0.9723552 1.0846707 1.0091025
0002b0 17 76 73 3f 07 7a 78 3f 75 51 83 3f ae 17 88 3f
       0.95102066 0.970612 1.0259234 1.0632226
0002c0 7f 67 79 3f bb e2 76 3f cb ce 65 3f 40 27 70 3f
       0.9742355 0.96439713 0.89768666 0.9380989
0002d0 3b e1 81 3f d1 8f 76 3f bc 4d 7a 3f 62 6a 7f 3f
       1.014686 0.96313196 0.97774863 0.997717
0002e0 9e 5e 78 3f 58 8c 7f 3f e6 63 7d 3f c1 7f 7f 3f
       0.97019374 0.9982352 0.9898056 0.9980431
0002f0 75 4c 77 3f d7 72 83 3f 41 1c 6e 3f 40 c6 7e 3f
       0.9660104 1.0269421 0.9301186 0.99521255
000300 f0 f2 73 3f 3f 06 83 3f 85 14 7d 3f e7 80 84 3f
       0.9529257 1.0236281 0.98859435 1.0351838
000310 7e a0 84 3f f0 ba 7b 3f 99 86 7c 3f 5b 6f 7e 3f
       1.0361478 0.9833212 0.9864288 0.99388665
000320 5c 07 81 3f bf 29 81 3f 19 60 82 3f 18 19 82 3f
       1.0080371 1.0090865 1.0185577 1.0163908
000330 cb cf 7c 3f 84 29 85 3f 7e 5a 82 3f b6 e0 88 3f
       0.98754567 1.0403295 1.0183866 1.0693576
000340 9d bd 74 3f ee a7 70 3f d7 05 7b 3f 35 16 85 3f
       0.95601827 0.9400624 0.98055786 1.0397402
000350 25 ba 7e 3f bb 4c 7c 3f 15 14 7c 3f 55 21 83 3f
       0.99502784 0.9855458 0.9846814 1.0244547
000360 34 a4 76 3f 71 35 7f 3f 3a 45 7f 3f 0c ee 85 3f
       0.96344304 0.9969092 0.99715006 1.0463271
000370 72 02 7a 3f 30 5a 7d 3f 80 a9 7b 3f 77 1f 84 3f
       0.9765998 0.9896574 0.9830551 1.0322102
000380 d6 bd 8e 3f 72 9e 7c 3f ef 6e 78 3f 8a d8 83 3f
       1.1151683 0.9867927 0.9704427 1.0300457
000390 46 1f 80 3f f8 bd 7f 3f e3 7c 83 3f b2 4b 77 3f
       1.0009544 0.99899244 1.0272487 0.96599877
0003a0 71 7d 7f 3f 9b e5 80 3f 40 dd 80 3f 72 e0 7f 3f
       0.99800783 1.007007 1.006752 0.9995185
0003b0 a3 6a 82 3f c5 29 81 3f f0 73 83 3f 0c 89 86 3f
       1.0188793 1.0090872 1.0269756 1.0510573
0003c0 e2 42 8d 3f 7c 99 73 3f 3e 5e 82 3f 94 44 71 3f
       1.1036036 0.95156074 1.018501 0.94245267
0003d0 57 88 74 3f bc d2 82 3f b8 78 83 3f a9 3e 83 3f
       0.9552054 1.0220561 1.0271215 1.0253497
0003e0 f3 74 78 3f dd 58 8b 3f ba 32 89 3f 83 7e 87 3f
       0.9705345 1.0886494 1.0718606 1.0585483
0003f0 e8 b2 7c 3f c3 1e 80 3f bd af 86 3f 59 16 88 3f
       0.9871049 1.0009388 1.0522381 1.063182

conv0.0.bias f4 [256, 1]
000000 3e 5f 5e 3d 46 6f da bc 8e 0d e9 bc 2c 36 b1 bd
       0.05429005 -0.026664387 -0.028448846 -0.086529106
000010 1d 60 15 3d f7 82 71 bd e5 1a c6 bc 66 62 80 bd
       0.036468614 -0.05896279 -0.024182746 -0.06268768
000020 65 d2 48 bc c0 36 ea bc c3 ed 5f bd c6 49 e9 bd
       -0.012257193 -0.02859056 -0.054670107 -0.11391024
000030 0c 20 42 bc 1a 28 0b bc de 4f db 3b 63 e1 12 bc
       -0.011848461 -0.008493448 0.0066928705 -0.008964869
000040 93 7e 58 bb 4e 11 47 3c 43 6f f1 bc b0 d2 4e bc
       -0.0033034428 0.012150122 -0.029471999 -0.012623474
000050 56 e4 d3 3b 04 cb 00 bd 63 5d a1 39 e5 ec 8c bc
       0.0064664287 -0.03144361 0.00030777892 -0.017202804
000060 14 7e 73 3b e5 f5 a2 bd ad 62 4e bd a4 b6 99 bd
       0.0037154006 -0.07957057 -0.050387073 -0.07505539
000070 d0 2f a5 bb 32 6a 04 bd a0 f3 8a bc ec 96 69 bd
       -0.0050411 -0.03232784 -0.016961873 -0.057028696
000080 42 85 1d bd 3f 3f 57 3b bb 98 ef bb 72 48 39 bd
       -0.038457163 0.0032844094 -0.007311908 -0.045235105
000090 7f 45 c7 bc 92 79 97 bd 45 ca 42 bd a9 c8 97 bd
       -0.02432513 -0.073962346 -0.04755618 -0.0741132
0000a0 af ed 1a bd 08 16 b8 bd 30 74 64 bc 67 3b be bb
       -0.03782433 -0.08988577 -0.013943717 -0.005805421
0000b0 df 6f 08 bd 46 f3 a4 bc 7f 92 82 bd 55 02 57 bc
       -0.033309814 -0.020135533 -0.06375598 -0.013123115
0000c0 61 22 b1 3c cb 63 83 3d 77 ed 52 3b 3b e9 a0 3c
       0.021622838 0.064155184 0.0032184997 0.019642463
0000d0 24 74 cf bc e6 69 4d 3b 5d 7f a5 3c f5 7c 6b bc
       -0.025323935 0.0031343638 0.020202333 -0.014373054
0000e0 37 f8 26 bb 13 94 41 bd ec 56 9e b9 87 77 9e bd
       -0.0025477537 -0.047260355 -0.0003020087 -0.07737642
0000f0 ce 48 e6 3c 6a f9 8b 3b 10 7c 8d 3d 81 8e 93 3c
       0.028110888 0.004271676 0.06908429 0.018012287
000100 c3 0a 0c 3c 21 8a db ba 1b 72 2a bd 67 60 c6 bc
       0.008547488 -0.001674954 -0.041612726 -0.02421589
000110 77 89 e4 bc 67 45 a5 bc de 79 10 3d 05 e5 02 bc
       -0.02789758 -0.020174695 0.03527247 -0.007989173
000120 1b dc 7c bd 64 2f c8 bd 6c a4 ab bc cf 3f 92 3b
       -0.061733346 -0.09774664 -0.020952426 0.004463173
000130 25 dd 83 bd 18 59 51 bd ae 2f 26 3c 93 3d ec 3c
       -0.06438664 -0.051110357 0.010143204 0.028837955
000140 56 99 09 3b c2 61 96 bc 99 cf 98 bd fd 45 b3 bd
       0.0020995936 -0.018357161 -0.07461471 -0.087535836
000150 b3 14 18 3d af 63 bf bc 62 92 82 bc 7f 0d 5c bd
       0.037129115 -0.023362963 -0.015938941 -0.05372381
000160 96 0e 60 bb ea 15 b0 bd 0d 95 05 bd e7 c3 03 bd
       -0.0034188381 -0.0859793 -0.03261285 -0.03216925
000170 12 7d 55 3c 87 fc 35 bd 13 63 93 3b ab 04 1d bd
       0.013030307 -0.044430282 0.0044978946 -0.03833453
000180 64 de 64 3c 19 53 90 3c 08 f3 a8 3c dd 6a d8 3b
       0.013969038 0.017617749 0.020623699 0.006604536
000190 00 f5 f1 3c 17 2d e7 ba 81 f1 11 3c d1 ac cc 3c
       0.02953577 -0.0017637339 0.008907677 0.024984749
0001a0 14 a9 87 3d cd 25 3a bc 23 29 6d 3b 6b c8 87 bc
       0.06624046 -0.0113615515 0.003618785 -0.016575059
0001b0 8c 45 13 3d 92 29 fe bc b2 c3 0e bd de 11 92 bd
       0.035954997 -0.031025682 -0.0348546 -0.07132314
0001c0 4d a1 d4 3b c0 59 4c bd 0f 52 30 bd d4 e5 c4 bd
       0.006488955 -0.04989028 -0.043047007 -0.09614149
0001d0 bc f9 42 bc ea 93 8f bc db 38 01 bd e0 43 00 bb
       -0.011900362 -0.017526586 -0.031548362 -0.0019571707
0001e0 b4 1e c9 bc f0 bc ca bc 77 8b 0b bc c0 aa a0 3a
       -0.024550773 -0.024748296 -0.008517138 0.0012257919
0001f0 61 ac 59 bd fd 70 41 bd c4 0d 63 3d 72 68 15 3d
       -0.05314291 -0.047226895 0.05543305 0.03647656
000200 96 56 d6 bc c3 63 91 bd 60 2b 81 3d 5e a0 46 3d
       -0.026164334 -0.07099106 0.06307101 0.04849278
000210 5f f9 04 3d 61 40 86 3d 6f 8e a6 3d 66 3a a8 3d
       0.03246438 0.06555248 0.08132636 0.082142636
000220 7e 9e b9 bb d0 df fa 3b 3a 0b 0e 3d ab 97 2c 3c
       -0.0056646457 0.007656075 0.034678675 0.010534207
000230 b2 b6 fb bc 65 4d e4 bc 55 16 3b 3c 3f 2b 26 3d
       -0.030726764 -0.027868936 0.011418899 0.040568586
000240 73 e6 28 bd d3 4e 16 bc 1d 19 68 3d 88 0f 70 3d
       -0.0412354 -0.009174067 0.056664575 0.05860856
000250 1f 46 8c bd 9c 01 8c bc 98 34 54 3c 0d 20 30 3d
       -0.06849312 -0.017090611 0.012951992 0.042999316
000260 4e 0d aa 3c 33 8b b9 3c f9 d0 5d 3b 76 db f6 3c
       0.020758297 0.022649383 0.0033846481 0.030133944
000270 5b b5 08 3c c9 f9 af 3d bb be d3 bb 52 0e 98 bc
       0.00834402 0.085925646 -0.006461946 -0.018561516
000280 2b 8c a9 bd ed e7 6f bd e0 5c b7 3c 4b 88 8d 3c
       -0.08278688 -0.05857079 0.022383153 0.017276904
000290 42 9b a9 bd 21 0b b4 3c 62 81 24 bc 94 1e ce 3b
       -0.08281566 0.021977963 -0.010040613 0.0062902663
0002a0 24 5c f0 bc 85 7b 14 3d 69 cf 0d 3d 21 ed 28 3d
       -0.029340811 0.03625061 0.03462163 0.04124177
0002b0 0a f4 a2 bb 76 c4 05 bd c4 c4 48 3d 79 18 1a 3d
       -0.0049729394 -0.032658063 0.049015775 0.037620995
0002c0 90 8d 8c bb 7f 29 21 3d 34 64 2a 3d 5b d6 32 3d
       -0.0042893365 0.039346214 0.041599467 0.043661457
0002d0 97 0f 85 bd 6c 1c 88 bc 4f 66 ad 3c c3 84 da 3c
       -0.06497114 -0.016615115 0.021166949 0.026674634
0002e0 60 69 a8 bc 32 08 60 3c d4 65 4d 3c 7f 9f a7 3b
       -0.02055806 0.013673829 0.012536485 0.005115449
0002f0 bc d7 62 bd 12 62 ea 3c 71 6f 7f 3c a6 4e 86 3c
       -0.05538152 0.028611217 0.015590535 0.016394924
000300 24 09 e1 3a d7 c6 29 3d f7 70 92 3c cc 21 1d 3c
       0.0017168862 0.041449394 0.017876131 0.009590577
000310 12 74 8e bd 34 4b c7 bc 41 b9 a5 3c d7 fb ef 3d
       -0.069557324 -0.024327852 0.020229938 0.117179565
000320 33 c8 9a bb 25 4e 9e 3d 01 b3 89 3d a7 5e e4 3d
       -0.0047235726 0.07729749 0.067235954 0.11150866
000330 13 4b 41 bc d3 4e 93 3d b3 78 67 bc c6 be 08 3d
       -0.011797684 0.07192769 -0.014127898 0.03338506
000340 c9 18 c4 3c 06 e8 f4 3c 36 db a6 3c 4a a9 aa bc
       0.0239376 0.029895794 0.0203682 -0.020832676
000350 d1 4e a8 3c 1d c0 2f 3d 03 0a 52 bc c5 a6 86 3c
       0.020545395 0.042907823 -0.01281977 0.016436944
000360 33 11 5e 3d 48 18 5b 3d 65 85 da bc 6e 31 1e 3d
       0.05421562 0.053489953 -0.026674936 0.03862136
000370 a5 a9 48 bc ab ee 41 3d 87 77 94 3b 66 0b 24 3d
       -0.012247478 0.047346752 0.0045308503 0.040049933
000380 ec 5c 13 bd 5e c0 2d bc eb c6 cf bc 4a d3 03 3d
       -0.03597729 -0.010604946 -0.025363406 0.032183923
000390 4a 03 03 bd 58 47 80 3d e6 fa 13 3d 32 ac 13 3d
       -0.03198556 0.06263608 0.036127947 0.03605289
0003a0 e7 43 07 3d 42 14 00 3d b3 69 2b 3d 28 39 27 3d
       0.03302374 0.03126932 0.04184885 0.040825993
0003b0 94 a5 46 3d 38 dc a4 3d 5c d7 80 3c f6 d7 bb 3d
       0.04849775 0.08049816 0.015727691 0.09172051
0003c0 ae dc 1e 3d bb 63 5a 3d 7c 20 61 bb f5 78 c4 3c
       0.038784675 0.053317767 -0.0034351638 0.023983458
0003d0 c9 58 c2 3d 2a 22 92 3d 4d 5d 42 bc fc e3 a3 3b
       0.09489591 0.071354225 -0.011863065 0.005001543
0003e0 81 9d b5 3c 47 ed a0 3b b2 58 54 3d 2b 8f cf 3c
       0.02216983 0.004911098 0.0518424 0.025336822
0003f0 b4 7d 09 3d 99 60 8e 3d c5 0c 5d 3c 15 d3 54 3d
       0.033567145 0.06952018 0.013491814 0.051959116

conv0.1.weight f4 [32, 16, 3, 1]
000000 4a 68 16 bd 2b 6a a6 3c 35 7e 89 bd e3 be d8 3c
       -0.03672055 0.020314297 -0.06713525 0.02645821
000010 4b 70 ac bd a5 ed ad 3c 7c 03 01 be 5f 6c 9b 3d
       -0.08419856 0.021231482 -0.12598985 0.075890295
000020 06 5a 2d 3d c0 23 d9 bd 80 f0 1c 3c 45 1a a0 3d
       0.04232218 -0.10602522 0.009578824 0.078175105
000030 26 18 4e 3c a3 4e ab 3d 12 6c c8 bd 7a b7 fe bd
       0.012579 0.08364608 -0.09786238 -0.12437339
000040 6f 6d c8 bd 27 38 b0 bc 60 4d 09 be 50 91 17 3d
       -0.09786498 -0.02151115 -0.13408422 0.037003815
000050 6d bc 16 bd c5 3b 24 3d 95 00 ce bd ec 78 03 be
       -0.03680079 0.040096063 -0.10058705 -0.12839097
000060 d8 09 40 39 c4 fb bd bd 5c 0f 4e be d4 d9 25 bd
       0.00018314214 -0.09276536 -0.20123047 -0.04049094
000070 4b e5 fd 3a 45 99 bc 3b 69 f5 a8 ba bc 20 a2 3d
       0.0019370703 0.005755576 -0.0012890521 0.079164
000080 fd 5b 84 3d c8 a7 4e bd ed a3 b4 bc 7f 97 a7 bc
       0.06462858 -0.050452977 -0.022050822 -0.020457981
000090 31 1e 27 3e 61 3a 93 bd 4a ca b1 bd 06 a2 e4 bd
       0.16320111 -0.07188869 -0.08681162 -0.11163716
0000a0 70 e1 cd 3d 5e b4 01 3e 2d a9 9d 3d 5d ae ed 3d
       0.100527644 0.12666461 0.07698283 0.11605523
0000b0 4b c1 5f 3d d0 dc bd 3d 20 15 80 bc 91 36 02 be
       0.054627698 0.09270632 -0.015635073 -0.12716128
0000c0 21 70 e7 bd 83 83 17 be 72 c9 05 3c 98 4f b8 bd
       -0.11300684 -0.14796261 0.008165704 -0.08999556
0000d0 54 bd a8 bd 18 04 db 3d 4e fa c3 3d cf bb 88 3d
       -0.082392365 0.1069414 0.09569226 0.06676447
0000e0 41 68 83 bd b8 fa 52 3d 11 c7 94 3d d5 0b c3 3d
       -0.06416369 0.051508635 0.072645314 0.09523741
0000f0 6a 9e 06 be 0a b1 bb 3d 5f b0 05 bd 5b ae 9b 3d
       -0.13146368 0.09164627 -0.032638904 0.07601615
000100 54 42 19 3e b8 a8 04 be 78 b3 43 3a 47 70 51 bc
       0.14966708 -0.12954986 0.00074654026 -0.012783117
000110 67 11 e8 3d 25 01 98 bd 03 43 fd 3d a4 69 f0 bd
       0.11331444 -0.07422093 0.12366297 -0.11738899
000120 59 cf 75 bd a4 c3 2d 3c 5e 9a c4 bd a9 42 9e 3d
       -0.060012195 0.010605726 -0.09599756 0.07727558
000130 e1 86 12 3d 5b 52 4b be 2e 98 60 bd 27 51 c1 bd
       0.03577316 -0.19855635 -0.05483263 -0.09439307
000140 b6 95 e3 bb 30 7e 90 bd 03 d8 15 be ff ee 08 3d
       -0.006945337 -0.07055318 -0.14633183 0.03343105
000150 1b 48 bd 3d bd 4a 1d be 48 39 30 be 4d 05 d2 3c
       0.09242269 -0.15360542 -0.17209351 0.025637293
000160 2d fd ad 3d ae 3a 5f 3d 38 d6 9b 3d ae f8 d6 3d
       0.08495555 0.05449932 0.07609218 0.10496651
000170 6a e4 bb bd 03 52 b2 bd d7 fb 89 3b 2e 2a cb 3d
       -0.09174426 -0.08707049 0.00421093 0.099201545
000180 47 a9 cb bd a8 51 f3 3d 33 8e 33 3d c0 14 51 bd
       -0.099443965 0.11880809 0.043836784 -0.05104518
000190 1a 03 dc bd 45 44 05 be be be 02 3e 12 3e 4c bd
       -0.10742779 -0.13014324 0.12768075 -0.049863882
0001a0 34 60 17 bd 48 f8 9e 3c 1f 4a 07 be 1c 3b 09 3d
       -0.03695698 0.0194055 -0.13211869 0.033503637
0001b0 15 3f b3 bd 66 28 a5 3c cd 84 29 bd c4 75 04 3e
       -0.08752266 0.020160865 -0.041386414 0.12935549
0001c0 b8 9a 30 bd 7d a2 56 3c a7 18 e1 bd 5c 27 c8 3d
       -0.0431163 0.013100264 -0.1099103 0.09773132
0001d0 e4 1e e9 3c 22 61 09 3d 1f 0d 86 3c 77 8e ac 3d
       0.028457113 0.0335399 0.016363679 0.084256105
0001e0 87 42 35 bd 9d eb a8 bd 57 7e 05 3e a3 34 61 be
       -0.0442529 -0.08248065 0.13036476 -0.21992736
0001f0 72 7e 95 bd 7e e1 61 be 7a 7b 03 3e cf 38 3d 3e
       -0.07299508 -0.22058675 0.12840071 0.18478702
000200 42 2d ba bd 8f 12 9c 3d a2 80 a8 3d 4c c3 d8 3d
       -0.090906635 0.07620727 0.0822766 0.10584125
000210 9e 88 64 3b ac fa 03 3e df 50 b7 ba 0c 85 17 be
       0.003487147 0.12888592 -0.0013985893 -0.14796847
000220 14 0c f5 3a 04 42 85 3c fe 8d 05 be d3 ab b2 bc
       0.0018695616 0.01626683 -0.13042447 -0.021810448
000230 a1 dc b3 3c a4 a9 f6 3c 07 5b 76 bd 33 be 07 be
       0.02195579 0.030110188 -0.060145404 -0.13256149
000240 47 14 0d be 9d 50 d9 3d 26 71 f6 3c bd a1 81 3d
       -0.13777266 0.10611079 0.03008325 0.06329677
000250 58 99 eb bd 68 c5 39 3d 38 da 96 bd 72 68 07 3e
       -0.115038574 0.045354277 -0.07365841 0.13223436
000260 bf 85 ec 3d 39 9e 0b 3e ff 44 f6 bd 91 7b d5 bb
       0.115489475 0.13634576 -0.12024879 -0.0065149744
000270 bf 26 b6 3d 5e 96 a2 bc 15 ba 6d bd 93 1b 81 3d
       0.08894109 -0.019847091 -0.05803879 0.063040875
000280 4e 57 50 bd a6 ef 5d 3d b6 11 2a be 0c c8 34 be
       -0.05086451 0.054183625 -0.16608319 -0.17654437
000290 66 13 a0 bd 9c e5 e0 bd d4 e5 ad 3d 93 09 bb 3d
       -0.078162 -0.109812945 0.08491102 0.091326855
0002a0 62 cd c7 bd d5 c4 04 3e b5 26 9d 3d 1d ca e9 bd
       -0.097559705 0.1296571 0.076733984 -0.11415503
0002b0 e5 e5 d4 3d ee f9 9c bd 63 ca 5a bc a4 19 d8 bd
       0.103954114 -0.07664858 -0.013353917 -0.105517656
0002c0 05 ae be 3d 71 ab 04 be eb 84 fd bd 7e a0 2a be
       0.09310535 -0.12956025 -0.12378868 -0.16662785
0002d0 f0 02 6c 3d 26 e3 88 bd 9a f5 af bd 2e 4e 77 3c
       0.05761999 -0.0668395 -0.08591767 0.015094323
0002e0 39 be f1 3d 3c d9 df 3c 7f 8e 88 bd 4d 26 22 bb
       0.1180386 0.027325265 -0.06667804 -0.0024742067
0002f0 88 bc 26 bb 0c 45 1e be d7 17 df 3d 39 6e 1e be
       -0.0025441963 -0.15456027 0.10893219 -0.15471734
000300 a9 c6 60 3b 8e 75 0e 3e 99 fc be bd 00 a4 aa 3d
       0.0034298098 0.13912031 -0.09325523 0.08332062
000310 23 46 c8 bd bb 4f 33 bd 94 ab 1e bd 5f 6a ba bc
       -0.097790025 -0.04377721 -0.03873785 -0.0227558
000320 b7 2a b7 bd 00 48 43 bd a3 a1 9b bd 1b e4 b5 3b
       -0.08943694 -0.047676086 -0.07599189 0.005550874
000330 12 be 7f 3b b7 36 c7 bd 04 f9 08 3d ca 0b 66 bd
       0.0039023203 -0.09727233 0.033440605 -0.056163587
000340 03 fc 93 3c 89 87 6c bd 3e f7 38 3d e4 1c da 3d
       0.018064504 -0.057746444 0.045157664 0.10650042
000350 e7 89 c5 bc 8f 97 1b bd 57 d0 30 3e 5a f6 14 3e
       -0.024113609 -0.037986334 0.17266975 0.145471
000360 8d fa 01 3e 30 4b cc 3b b1 81 16 bd 7b 05 fe 3c
       0.12693234 0.006234549 -0.036744777 0.031008473
000370 38 8d 9e bd b5 e4 03 3d 0c 51 df bc f0 70 0e 3e
       -0.07741779 0.032200534 -0.027260326 0.1391027
000380 ba e6 ea 3d 8f e2 54 3d c8 64 ea 3c bf 47 a8 3d
       0.11469789 0.051973876 0.02861251 0.082168095
000390 46 c6 da bd 2d f1 15 be ac ca cf bd 3f 63 ed 3d
       -0.10682349 -0.14642783 -0.101460785 0.11591195
0003a0 ca 0d 76 3d 97 45 6b bd c3 05 fe 3d 31 eb 4b 3d
       0.060071744 -0.057439413 0.12403443 0.049784843
0003b0 7c 34 51 3e b9 7d 8f bc a5 f9 06 be 20 8e f4 3c
       0.20430177 -0.017516004 -0.1318117 0.029852927
0003c0 0d 7e cc 3d 63 08 2a 3c 8a c4 81 bd f9 69 dc 3d
       0.0998498 0.010377976 -0.06336315 0.107624
0003d0 aa e5 52 3d a4 f6 db bc 55 d4 e9 bd 17 b4 b7 bc
       0.051488556 -0.026851006 -0.11417452 -0.02242474
0003e0 50 ca 1c 3e 37 19 c9 bd 31 be c8 bc a5 4c 24 3e
       0.15311551 -0.098192625 -0.024504753 0.16044863
0003f0 dd d5 87 3d 82 7b c8 bd 5d 68 0f 3e 4e dd a3 3c
       0.06632588 -0.09789182 0.14004655 0.020002987

conv0.1.bias f4 [32]
000000 6d b8 5e bc 88 1a ac ba b7 46 c7 bd 2f 83 d5 3d
       -0.013593775 -0.0013130466 -0.09730285 0.10425412
000010 ac d5 15 be b6 f5 ae 3d 6c 0a 1f 3d 52 00 9d bb
       -0.1463229 0.085429594 0.0388283 -0.004791298
000020 e1 ef 43 bd e2 ef d8 bd b5 a4 a2 bc 60 1b d8 38
       -0.04783619 -0.10592629 -0.019853929 0.000103047816
000030 9d 1b 0e be 4e a3 c1 3d 7a 54 eb bd 38 2d 49 bd
       -0.13877721 0.09454976 -0.11490722 -0.04911539
000040 33 08 12 3e 87 68 35 3d 64 e7 4a 3d 59 18 f5 3c
       0.1426094 0.04428914 0.049537078 0.029918836
000050 92 6a a2 3d cc 93 cf 3c a8 59 db 3d 4c 12 ac 3d
       0.07930483 0.02533903 0.1071046 0.08401927
000060 88 07 92 37 b8 3e 94 3d 32 3a 8f bd 69 3c ff bd
       1.7408063e-05 0.07238525 -0.06993522 -0.12462694
000070 24 21 b8 3d ea 48 52 3d e1 31 81 3d 24 84 61 bd
       0.08990696 0.051339068 0.06308342 -0.05505766

conv0.2.weight f4 [32]
000000 7a cd ee 3e 22 9d db 3e 34 56 aa ba 2a cc 05 3e
       0.4664114 0.4289332 -0.0012995661 0.13066164
000010 f0 76 58 3f ae 17 88 3e 7d 07 29 3f 99 29 21 3f
       0.84556484 0.26580566 0.6602705 0.629541
000020 ca c3 45 b9 e0 8f c6 3e 0a db 5d 3f 35 09 69 3f
       -0.00018860321 0.38781643 0.8666235 0.91029674
000030 93 ac 94 3e d0 f3 69 3d 80 47 5c 3f 28 3d 20 3f
       0.29037914 0.057117283 0.860466 0.6259332
000040 bf c4 26 3f d4 08 ca 3d db 73 ff 3d bf b9 de 3e
       0.6514396 0.09864965 0.124732696 0.43501088
000050 f6 83 71 3f 43 5c 6b 3f a8 28 56 3f 91 a6 77 3f
       0.9434198 0.91937655 0.83655787 0.96738535
000060 87 b6 e5 3e f4 64 31 3f e5 b3 3c 3f ce 8a 3b 3f
       0.4486582 0.6929467 0.73712 0.73258674
000070 2f c1 0c 3f 6d 1b 45 3f 84 41 24 3d 2e f4 2c 3f
       0.54982275 0.76994973 0.040101543 0.6756009

conv0.2.bias f4 [32]
000000 30 23 3a ba 4b d9 d8 3a bf c1 ff 3a f4 b4 e1 3b
       -0.000710058 0.001654425 0.0019512697 0.0068880264
000010 bc 13 09 bc 59 91 45 3c 78 87 9f bb 8a d2 99 ba
       -0.008366521 0.012058579 -0.004868444 -0.0011735719
000020 06 9f 24 bb dd 64 60 3b c8 8a e3 bb 7c 43 fa 3b
       -0.00251192 0.0034239807 -0.0069440342 0.0076374393
000030 40 89 91 bb f7 3d f5 3a f8 65 04 bc cf 12 35 3a
       -0.0044414103 0.0018710484 -0.008080952 0.0006907405
000040 45 03 9f 3b 31 8c 2b bb 81 84 a8 3b fe e9 7f bb
       0.0048526847 -0.002617609 0.005142749 -0.0039049382
000050 74 87 31 3b c7 da 8f 3a 19 89 bf bb 65 3f 8d 3c
       0.0027088793 0.0010975235 -0.0058452007 0.017242143
000060 17 9d 19 3b 4e 2a 12 3b 4c d2 d4 bb 78 3c b8 bb
       0.002343958 0.0022303048 -0.006494796 -0.005622443
000070 d7 e1 01 bc 43 c9 b3 3b 5b c1 21 3b 41 4f a0 ba
       -0.00792738 0.0054866388 0.00246819 -0.0012230651

conv0.2.running_mean f4 [32]
000000 b1 2e 8b bc d0 2b e3 3c 89 96 a4 bd 0e fd 7e 3d
       -0.016990038 0.027730852 -0.08036525 0.06225305
000010 b0 48 35 be 8d 4d ca 3d 6b 4d 6a 3d 8f b5 b9 bc
       -0.1770351 0.09878073 0.057202738 -0.022669582
000020 f2 68 8e bd 94 67 3b be 0e 1c 6c 3c 14 75 b2 3c
       -0.069536105 -0.1830123 0.014410986 0.021784343
000030 b9 70 3a be f1 24 d3 3d 64 25 aa bd 65 63 19 bd
       -0.18207063 0.103097804 -0.08307913 -0.037448306
000040 23 7c 25 3e a6 da 7b 3d 6d e1 a4 3d 5b 55 86 bb
       0.16160636 0.061487816 0.08050809 -0.0040995306
000050 7c 91 06 3e 41 ca 30 bc 72 85 ae 3d d9 b2 2e 3d
       0.13141435 -0.010790409 0.085215464 0.04265103
000060 ca b7 30 bd 2f 33 ec 3d 9e 46 9f bd 83 ac 0d be
       -0.043144025 0.115332 -0.07777141 -0.13835339
000070 dd 99 d8 3d 9d d3 b8 3c 03 aa 9c 3d 1d 80 7b bd
       0.10576222 0.022561843 0.07649615 -0.061401475

conv0.2.running_var f4 [32]
000000 71 79 85 3e 64 a4 10 3f 1e 56 b0 3e 33 2b 02 3f
       0.26069215 0.5650084 0.34440702 0.50847167
000010 30 4f ba 3e 6a ad ba 3e 63 47 02 3f 80 cd a4 3e
       0.3638854 0.3646043 0.5089018 0.32188034
000020 95 cf 08 3f a0 81 b9 3e 56 4d ea 3e be fe cc 3e
       0.53441745 0.3623171 0.45762128 0.40038103
000030 db 26 21 3f a5 0e a9 3e 7e 9e 02 3f cd cf c2 3e
       0.62949914 0.33018985 0.5102309 0.38049164
000040 7a 5e 8e 3f 89 05 ce 3e 61 4e a6 3e 91 c0 26 3f
       1.1122582 0.40238598 0.32481673 0.65137583
000050 99 32 ce 3e ee 5e 1d 3f 31 90 d0 3e a4 fd c3 3e
       0.40272978 0.61472976 0.4073501 0.3827945
000060 66 91 fa 3e 61 0e af 3e 8d 4a d0 3e db 34 06 3f
       0.48939055 0.34190658 0.40681878 0.524244
000070 5b 3d 9b 3e d5 a8 d3 3e ed 1a 2b 3f b0 30 f0 3e
       0.30320248 0.41339746 0.6683796 0.46912146

bottleneck0.0.weight f4 [192, 32, 1, 1]
000000 a2 d9 00 3d 04 a2 f4 bd b7 b7 db bd 4d cd cc bd
       0.03145755 -0.119449645 -0.107284 -0.100000955
000010 3c 21 8b 3d e2 c5 37 3e c1 2a 33 3e 5f b7 27 3e
       0.06793448 0.1794658 0.17496778 0.16378544
000020 3b 6e f7 3c f6 17 41 3e 56 8d 02 be 63 c4 96 3d
       0.03020393 0.18856797 -0.12749228 0.073616765
000030 41 75 cc bd d3 2b 94 3d 72 22 01 3e 17 a2 e2 3d
       -0.09983302 0.07234921 0.12610796 0.110660724
000040 72 52 1c be 6b af de bc 2a 61 41 bd a5 35 26 3d
       -0.15265825 -0.027183255 -0.047211803 0.040578503
000050 37 5d 35 3d f1 50 b9 bd a8 b8 6d bd 83 c2 8f 3d
       0.04427835 -0.090486415 -0.05803743 0.07019522
000060 bb fc 5e 3d ce f1 36 3d 50 1d 49 be b0 c4 b0 3c
       0.05444024 0.044664197 -0.19640088 0.021578163
000070 43 84 69 bd e9 8d 2d 3d 07 0a 5a 3d 6a 99 12 be
       -0.0570109 0.042371664 0.05323222 -0.14316335
000080 a9 d5 69 be f0 83 24 be aa 61 42 3e 50 90 89 bd
       -0.22835411 -0.16065955 0.18982568 -0.067169785
000090 ce 5f 19 3e 56 cb 26 3e 8e 27 1a 3e 87 17 02 bd
       0.14977953 0.16288504 0.15054151 -0.03176072
0000a0 41 34 14 bc 89 31 c2 bc 76 af 3e 3e 81 a6 8e 3d
       -0.009045661 -0.02370526 0.1862162 0.06965352
0000b0 cf 73 0d 3e 2e 6d 24 3e e9 b4 a2 3d 91 20 f6 3d
       0.13813709 0.16057274 0.07944662 0.1201793
0000c0 1d bb c8 bd 7d 9b e2 3c 78 b7 53 3e 0f 29 12 3d
       -0.09801314 0.027662033 0.20675457 0.035683688
0000d0 62 58 23 be a4 e8 cd 3d 6d c8 1b 3e 12 4e 52 3c
       -0.15951684 0.10054138 0.15213175 0.012835996
0000e0 ba 1a 0a 3e 19 f5 fb 3c 4e cc 84 bd c0 88 8c bd
       0.13486758 0.03075652 -0.064842805 -0.068620205
0000f0 93 52 ed 3d 9f 0e b3 3d 44 d9 22 3e b8 7c 2e 3e
       0.115880154 0.08743023 0.15903193 0.17039764
000100 79 a7 72 3d 8c 71 f0 3d 66 ee 4f be 97 8f 01 3e
       0.059241746 0.11740407 -0.20305786 0.12652431
000110 50 46 40 3d 0b 69 04 be d2 df 91 3d ca 55 06 3e
       0.046942055 -0.12930696 0.071227685 0.13118663
000120 76 1b 3a 3b 74 86 b9 3d 68 f0 fd 3d 28 b2 d3 3d
       0.0028397716 0.09058848 0.123993695 0.10336715
000130 09 c9 be bc 9b a9 d2 3b 1b c7 11 bd aa 4b 6b bc
       -0.02328922 0.00642891 -0.035590272 -0.014361301
000140 7d 3c cb 3d 4e c8 58 3d 08 d1 87 bc 79 bb 0d 3c
       0.099236466 0.0529254 -0.016579166 0.008650654
000150 07 66 2a 3e d3 ae 11 3e 60 9e b4 3d 46 76 21 3e
       0.16640483 0.14226846 0.0881927 0.15767774
000160 1d b2 db bd 6c 5d ea 3d 65 56 a6 3d ed 32 d8 bd
       -0.10727332 0.114436 0.08121947 -0.10556588
000170 12 b2 c1 bd 9b c4 20 3e 1d 82 b8 bc f9 d4 0b be
       -0.09457792 0.15699999 -0.02252298 -0.13655461
000180 68 73 32 bd 7b 8f 83 bd 3c a8 38 3d 2c 89 10 be
       -0.04356709 -0.06423851 0.045082316 -0.14114827
000190 30 68 a5 3d 07 c1 46 3e 74 36 9b bd d4 05 e8 3c
       0.08076513 0.19409572 -0.075787455 0.028323092
0001a0 b2 65 80 3d 4f b2 fc 3d e9 7e be 3d 52 78 5e bd
       0.06269397 0.12338697 0.0930155 -0.054313965
0001b0 73 4b 92 3d 75 42 65 3c da 0d 45 3e 46 b0 26 3e
       0.07143297 0.013992895 0.19243565 0.1627818
0001c0 6a 3d b9 bd 43 4f fa 3d 3d 4f 24 3d 66 0d 77 3d
       -0.09044917 0.12222149 0.04011463 0.060315512
0001d0 c5 01 08 bd 33 29 3c be fd ea 1d 3c 1d 78 d3 bd
       -0.033204813 -0.18375091 0.009638545 -0.10325644
0001e0 48 2c ff 3d 04 62 ac bc 6d 04 90 bd 07 71 a4 3d
       0.12459618 -0.021042831 -0.07032094 0.08029371
0001f0 e8 ae 01 bb c5 2f b6 3d c0 b8 39 3e 52 aa af 3d
       -0.001978809 0.0889583 0.18136883 0.08577408
000200 b4 e8 e6 3c 5c 2f 8e 3d da 38 f9 bd 6b 11 17 3e
       0.028187133 0.06942627 -0.12169047 0.14752738
000210 e0 de 04 bd cb f7 5f 3c 43 8a 19 3d 37 0d 5d bd
       -0.032439113 0.013669918 0.037485372 -0.05396768
000220 3f ef 96 bd 09 87 4c 3d 1f a4 13 3e 49 24 36 be
       -0.07369851 0.049933467 0.14418076 -0.17787279
000230 ea 43 c9 3d bc 48 b2 bc 37 f0 e6 bc e2 a0 38 be
       0.09827407 -0.021763198 -0.028190715 -0.18030122
000240 c9 25 1b be d3 d3 a7 bd 16 08 ff 3d 37 b1 d2 bd
       -0.15151133 -0.08194699 0.12452714 -0.10287707
000250 16 97 8f 3c 59 da 19 be 84 44 2e 3e 11 00 8d bc
       0.017528098 -0.150247 0.17018324 -0.017211946
000260 d5 1f 24 bd b8 5a 4b bd b4 cb 21 be 12 cf 36 be
       -0.04006942 -0.049647063 -0.15800363 -0.17852429
000270 fd b6 ed bd b2 67 d8 bb a1 d1 10 bd 90 9f 30 3e
       -0.11607168 -0.0066041583 -0.035356168 0.17248368
000280 47 9a 68 3d 06 df e8 bd e0 7d f3 bd 14 f0 67 bc
       0.056787755 -0.11370663 -0.11889243 -0.01415636
000290 87 66 21 3e a1 7c 58 bc 6e 5f 35 3e f8 79 8b 3d
       0.15761767 -0.013213308 0.17712185 0.06810373
0002a0 ba ba a5 3c 93 22 ff 3d 85 1a 20 be a5 c2 cf bd
       0.02023064 0.124577664 -0.15635116 -0.101445474
0002b0 db f1 0c 3e 1f f2 86 bc b6 cf e8 3d 34 2c dd 3d
       0.13764136 -0.016472874 0.11367743 0.10799447
0002c0 de 83 8d bd c5 a7 cb bd 1a 6c eb 3d 7f 1b 31 bd
       -0.06909917 -0.09944109 0.11495228 -0.043239113
0002d0 e4 27 03 be 50 11 be bc fc e5 d8 bd ed 17 d2 bd
       -0.12808186 -0.023201615 -0.10590741 -0.1025847
0002e0 4c 7d 0c be f9 8b 90 bc c7 6b 9c bd 4e e9 c0 bd
       -0.13719672 -0.01764487 -0.076377444 -0.09419499
0002f0 c3 b1 59 ba cc dd 20 be 76 c6 74 bd ca 6f 69 3c
       -0.00083043816 -0.15709609 -0.05975958 0.014247844
000300 4c 28 79 3d fc f8 e4 bd e0 db e8 bd d9 ee b4 3c
       0.060829446 -0.111803025 -0.11370063 0.022086548
000310 cc 90 d7 bd 4b 13 b0 3d 47 32 03 be a4 c6 eb bd
       -0.10525665 0.0859743 -0.12812148 -0.11512497
000320 69 44 bf bc d7 f3 20 be 2d 8a fd bd 02 ad 7e 3d
       -0.02334805 -0.15718018 -0.123798706 0.06217671
000330 0f 46 1a 3d b7 4a 0f bd da 38 19 3e 4d 68 25 be
       0.03766447 -0.034983363 0.14963093 -0.16153069
000340 15 d3 69 3c 84 d4 cf bb f2 8f fb bd 4e 10 9e 3c
       0.014271517 -0.0063424725 -0.12283315 0.019294884
000350 34 64 da 3d e9 a9 e5 bc 93 15 9d 3b ae 78 39 be
       0.106636435 -0.028035121 0.0047938316 -0.18112442
000360 50 3b 2c 3e c2 83 27 3d e4 ac 90 3c bd ba 00 3e
       0.16819501 0.04089714 0.017660566 0.12571235
000370 87 75 12 bd 26 e0 0d be a4 4d f2 3d b3 36 53 bd
       -0.035756614 -0.13855037 0.11831215 -0.051565837
000380 7d 88 ca bd 1d 50 69 bc fd 1e 15 be 91 7b 2f be
       -0.09889314 -0.014240292 -0.14562602 -0.1713698
000390 d2 5e 99 3d 83 f1 9a 3c 7f ab 68 3d 94 d8 18 3e
       0.07488789 0.01891399 0.056804176 0.14926368
0003a0 c3 99 1d bd 77 7e a7 bc 1e c5 17 be 8a d9 49 bc
       -0.038476717 -0.020446045 -0.14821288 -0.012319932
0003b0 b3 79 1d 3e e6 28 50 3d 2e ac 52 bd 71 16 6b be
       0.15378456 0.050820254 -0.051433735 -0.2295778
0003c0 cd 27 ce bd b9 ef 05 be 85 62 24 3c bb ef 03 3e
       -0.10066185 -0.13079728 0.0100332545 0.12884419
0003d0 35 c7 56 3b 51 ab 15 be 2c fd f4 3b e0 87 22 3e
       0.0032772545 -0.14616133 0.0074764695 0.15872145
0003e0 94 b8 9a 3c 4f 71 18 be 3d dc 4b 3d 88 2d c8 bd
       0.018886842 -0.14886974 0.049770582 -0.097743094
0003f0 c8 10 2a bd 86 6d 2a be 3e 4d 68 be 6b ab 98 bd
       -0.04151991 -0.16643342 -0.22685716 -0.074545704

bottleneck0.0.bias f4 [192]
000000 69 d5 95 3d 26 21 e6 3d 5a 16 b3 3c 53 95 72 3c
       0.073160954 0.11236791 0.021861244 0.0148061095
000010 8b ef f7 bc fc d2 e8 bd 11 3e 90 3d 97 13 80 3d
       -0.03026559 -0.11368367 0.07043088 0.062537365
000020 79 7b 26 bd 6c 3a a6 bd 9f 49 99 3d 6d d6 42 3e
       -0.040645096 -0.08116612 0.07484745 0.1902711
000030 cb 28 ee bd 36 37 8a bd 3a 21 05 be 4f 6e a3 3c
       -0.116288744 -0.06748812 -0.13000956 0.01995006
000040 6b f5 00 3e 3c 1f f9 bb 67 e2 c6 3d e4 c5 a9 bd
       0.1259362 -0.0076026004 0.097111516 -0.08289698
000050 d8 a4 c1 b9 a8 70 84 bd 56 fd 72 bc 0e 35 7c bd
       -0.00036934647 -0.064668 -0.014830908 -0.061574034
000060 2f f1 ee 3b f9 c9 34 3d 72 0f 16 bd d0 32 54 3d
       0.007291935 0.04413793 -0.036635824 0.05180627
000070 65 a8 8c 3d 92 e3 1f be 69 5b 2c be 83 b3 f1 3d
       0.06868056 -0.15614155 -0.16831745 0.11801817
000080 0a c5 22 bd bb b2 1a be f1 78 81 3d 16 42 26 3e
       -0.039738692 -0.15107243 0.06321896 0.16236147
000090 50 ab b6 3d c2 f7 93 bd b3 84 92 bd a0 2d a9 3d
       0.08919394 -0.072249904 -0.071542166 0.082606554
0000a0 62 5f e7 3a 3d 7e 4b be a6 14 e3 3d f0 00 8a bd
       0.0017652328 -0.19872375 0.11087923 -0.0673846
0000b0 21 d8 9e 3d 8a 53 9d 3d 0c 07 3b 3d ac b5 33 3d
       0.07756067 0.076819494 0.045661017 0.043874428
0000c0 a6 61 69 bd 47 8a ba 3d d1 d7 8a 3d 6d ea 1a be
       -0.05697789 0.091084056 0.06779445 -0.15128489
0000d0 1e 83 0d bd 11 43 b0 bd a4 df b1 b8 3f 45 13 3e
       -0.03454887 -0.08606542 -8.481674e-05 0.14381884
0000e0 56 0f 24 be 66 df a5 bd 0a dd 1a 3e a1 81 1c be
       -0.16021475 -0.080992505 0.15123382 -0.15283825
0000f0 96 40 ae 3d cd e8 04 3e 06 9e 0c bb d7 36 3e 3d
       0.085084125 0.12979431 -0.0021456494 0.046439018
000100 46 74 37 b9 54 42 b4 3d f6 9b e7 3d 02 c4 01 3e
       -0.00017495555 0.088017136 0.11309044 0.12672427
000110 87 c1 48 be bd e5 c9 3d ef b0 ab bd 78 d3 c1 3d
       -0.19605075 0.09858272 -0.08383357 0.094641626
000120 4d 4f ed bd 3b 5f ab bd 62 0f b8 bd 64 95 ce bd
       -0.11587391 -0.08367773 -0.08987309 -0.10087088
000130 c9 11 64 bc 3a f8 5c bc 66 08 ba 3b 0d 9e f0 3c
       -0.013920256 -0.013486916 0.0056772707 0.02937224
000140 de b5 08 be 63 f8 23 be 9f d9 65 be 8d a3 2a 3e
       -0.13350627 -0.16012721 -0.22446297 0.16663952
000150 73 84 91 3d fb db d7 bd fc 0a c7 bd c7 63 f2 bd
       0.07105341 -0.10540005 -0.09718892 -0.11835437
000160 cc 23 fd bd 74 1c 84 3c 10 23 61 3a f2 ae 96 3d
       -0.12360343 0.016126849 0.00085882936 0.07357587
000170 6c 79 6b 3d 14 ca c7 bd e3 34 a8 3d 4b 75 1b 3e
       0.057488844 -0.0975534 0.08213212 0.15181462
000180 83 4a 8b bd 33 34 01 be 95 c2 16 3e f5 53 09 3e
       -0.06801321 -0.12617569 0.14722665 0.13410933
000190 ce 31 1a bd 96 0f 64 3a fc 65 c5 ba 29 e0 1f be
       -0.037645154 0.0008699832 -0.0015060301 -0.15612854
0001a0 2d b0 4f 3e b6 68 1a 3e 82 a1 9b bc 00 37 b9 3c
       0.2028205 0.15079007 -0.018997911 0.022609234
0001b0 2d 3e c2 bd da f5 a8 3d a4 bd 71 3d de b0 2d 3d
       -0.09484515 0.082500175 0.059018746 0.042405
0001c0 7f 97 55 bc d9 ad 32 3e d4 d2 1a 3d 82 7e 07 be
       -0.013036608 0.1744913 0.037798718 -0.13231853
0001d0 e4 0e e1 bd 45 46 99 bd 6a 5e 2a be f7 4b f0 3c
       -0.10989168 -0.07484106 -0.16637579 0.029333098
0001e0 0e d4 23 3e 14 4a 83 3d e0 ea f9 bd ba 08 a8 3c
       0.15998861 0.06410614 -0.12203002 0.020511974
0001f0 bd b3 71 3d 62 02 be bd b2 d1 80 bd 5b 74 25 be
       0.059009302 -0.09277798 -0.06289996 -0.16157667
000200 0c 7b 02 3e c4 b7 d0 3d 5d 4e ba 3d e0 e9 04 be
       0.12742251 0.101913005 0.09096978 -0.12979841
000210 62 66 34 be 1f 0e 17 be cb e9 7a bd e3 18 7c bc
       -0.17617181 -0.1475148 -0.06125812 -0.015386793
000220 6d 07 c8 bc 96 d1 32 3e 03 c3 ca 3d 63 fe 6c bd
       -0.024417603 0.17462763 0.09900477 -0.05785979
000230 cf c8 11 bd 80 97 d3 3c 13 bb 28 be e1 58 1c bd
       -0.035591897 0.025829077 -0.16477613 -0.0381707
000240 6e 6e bf bc 00 a1 cc bc ee fa 1e 3e 03 80 23 3e
       -0.023368087 -0.024979115 0.1552541 0.15966801
000250 64 b6 f7 3d 5e f7 25 bc 83 82 d5 bc 14 15 49 3d
       0.12095335 -0.010129778 -0.02606321 0.049092367
000260 39 60 b0 bd 3e c5 b4 bd 5f 04 27 3e c5 cb 28 bb
       -0.08612103 -0.088266835 0.16310261 -0.0025756222
000270 e9 20 07 be d4 e4 93 3d b3 36 62 3d 03 a9 c7 3d
       -0.13196148 0.0722138 0.055227946 0.09749033
000280 5b 99 5f bc 58 d3 bb bd b8 18 ec 3d cb 26 1b be
       -0.013647403 -0.0917117 0.11528152 -0.15151517
000290 5f 9e b9 bd bc 36 03 be 56 04 5d 3d 64 33 10 be
       -0.0906341 -0.12813848 0.053959213 -0.14082104
0002a0 9d f7 f8 bd 01 5d 44 be 8b fc 11 bd cb 70 33 bd
       -0.121566035 -0.19176103 -0.035641234 -0.04380874
0002b0 43 1a 2c 3e fb bc cd bd 47 f1 2c be 3f 56 f0 3d
       0.16806893 -0.10045811 -0.16888915 0.117352
0002c0 fc 03 01 3e 27 b3 1c bc 83 db da 3d 3f d7 ff 3d
       0.12599176 -0.009564198 0.106864 0.12492227
0002d0 be 25 e1 bd c5 6f a6 3d 80 f1 3f be 7e 7e 28 3e
       -0.10993527 0.08126787 -0.18744469 0.16454503
0002e0 e7 08 b0 3d 2d d7 0e be 53 a2 0c 3e 55 51 2f 3e
       0.08595448 -0.1394927 0.13733797 0.1712087
0002f0 a4 b4 08 bd e7 f4 ae bd 8b 46 0f be 2b 96 b3 bd
       -0.033375397 -0.08542805 -0.13991754 -0.08768877

bottleneck0.1.weight f4 [192]
000000 29 e5 76 3e ca 8e eb 3c 89 28 69 3f 8f c6 51 3e
       0.24110855 0.02875461 0.91077477 0.204859
000010 e7 48 69 3f 5b 3c 73 3f 95 68 61 3d c7 ff 8f 3e
       0.91126865 0.9501397 0.055031378 0.2812483
000020 c1 a2 66 3e e5 84 cf 3e e2 57 aa 3e 9e 93 b1 3e
       0.22523023 0.40531078 0.33270174 0.34682935
000030 6c 85 65 3f 15 12 08 3f 86 ed 11 3f 2b fb 19 3f
       0.8965671 0.5315259 0.57003057 0.60148877
000040 6e 00 36 3e 1e e5 90 3d 1f 40 8a 3e c8 24 d2 3e
       0.17773601 0.07074951 0.27002046 0.41043687
000050 99 7e 03 3f 84 4d ee 3d 8a 62 e3 3e d7 2b fd 3e
       0.5136505 0.11635879 0.44411117 0.4944751
000060 21 b3 2a 3f 82 a0 42 3e b5 e1 08 3f 15 ee af 3e
       0.6667958 0.19006541 0.534694 0.3436133
000070 f6 3c 2f 3f 19 30 0f 3f ef 15 bf 3e 94 cb 27 3e
       0.68452394 0.55932766 0.37321422 0.16386253
000080 f1 19 22 3f 10 1a 4c bd e5 35 84 3f 5a dd 85 3e
       0.63320833 -0.049829543 1.0328947 0.2614544
000090 86 68 04 3e 2d f7 ef 3e 1f 64 46 3f 58 b6 96 3e
       0.12930498 0.46868268 0.7749652 0.29435992
0000a0 52 4a 43 3f 4e b0 92 3e 8b 6a 27 3f 57 f0 79 3f
       0.7628528 0.28650135 0.65396947 0.97632354
0000b0 8d 2e 0d 3f 6d e2 32 3f 8d f8 04 3b 82 2c 2a 3f
       0.55149156 0.6987675 0.002028975 0.66474164
0000c0 c8 71 e4 3e c1 24 24 3e 9c d3 3d 3f 20 1b 39 3d
       0.44618058 0.16029646 0.74151015 0.045191884
0000d0 d0 5d 6a 3f 5b 24 cb 3e 1b e7 a5 3e ad 91 37 3f
       0.91549397 0.39676175 0.32402882 0.7170666
0000e0 97 63 2a 3e c9 89 07 3e 73 92 77 3f 3a 4f 39 3e
       0.16639553 0.13236155 0.9670784 0.18096629
0000f0 ad eb 1c 3f 1d 29 39 3e f4 7a 76 3f 49 5b 6f 3f
       0.6129711 0.1808209 0.9628136 0.93498665
000100 ea eb ae 3e 3a 93 4a 3f 00 27 78 3f 0c 62 2c 3d
       0.34164363 0.791309 0.9693451 0.042085692
000110 ab 34 a7 3d ac 39 e2 3e 17 dd 76 3f 99 88 46 3f
       0.081643425 0.44184625 0.96431106 0.7755218
000120 62 d0 82 3e 85 e5 c6 3e 25 5b c2 3e d9 15 34 3f
       0.25549608 0.38846985 0.37960163 0.70345837
000130 d1 83 8b 3d 29 02 9a 3e de 45 cd 3e 02 9f 48 3e
       0.06812251 0.30079773 0.40092367 0.19591907
000140 10 7e 8e 3e cc 05 36 3f 57 e3 13 3f 3d a9 fd 3e
       0.27830553 0.71102595 0.5776877 0.4954318
000150 ee 3b 42 3f da 0d c2 3e 32 50 f0 3e 5b 20 3b 3f
       0.75872695 0.37901193 0.46936184 0.73096246
000160 0a ef 87 3d 22 c7 4f 3f f5 d3 2a 3f c8 23 3d 3f
       0.0663739 0.8116323 0.6672967 0.7388272
000170 6f 75 4a 3f 1c 54 0e 3f 34 a4 16 3f 13 b8 2f 3f
       0.7908544 0.5559709 0.58844304 0.6864025
000180 1e 5f 9c 3e 6c 40 26 3f f9 a2 e1 3e e0 27 2e 3f
       0.3054132 0.6494205 0.4406965 0.68029594
000190 94 02 26 3f 0e ed 43 3e 46 36 02 3f 76 51 36 3e
       0.64847684 0.19133398 0.50864065 0.17804512
0001a0 a5 78 41 bd a4 7b 62 3f e3 a5 37 3e 9d 3c 09 3f
       -0.047234196 0.8846991 0.17934375 0.53608114
0001b0 53 35 19 3f b0 a1 eb 3e 80 f0 32 3f e4 1f 00 3f
       0.5984699 0.46021795 0.69898224 0.5004866
0001c0 05 8b 3b 3f f0 0f 49 3e 5d 87 b9 3e 22 a2 69 3f
       0.73259 0.19634986 0.36236086 0.9126302
0001d0 a6 04 37 3b 78 e2 59 3f 9b 04 2f 3f 6e 77 7b 3f
       0.0027926355 0.8511119 0.683664 0.9822911
0001e0 01 d6 d9 3e af 32 9c 3d dd 24 ba 3d 92 59 00 3f
       0.42546085 0.07626855 0.09089062 0.50136673
0001f0 8a 28 83 3f fb 48 ed 3e 64 03 74 3e 44 ee f9 3d
       1.0246747 0.46344742 0.23829418 0.12203649
000200 f1 d7 06 3f ad eb 65 3f e8 f3 66 3f a5 fe 22 3f
       0.5267325 0.8981274 0.9021592 0.63669807
000210 48 72 3d 3f 2b 10 03 3e 84 df ae 3e 43 ba f0 3d
       0.74002504 0.12799136 0.34154904 0.117542766
000220 5b 05 b3 3e 7f a1 03 3f 53 87 00 3e 0f 84 c2 3e
       0.34965023 0.514183 0.12551622 0.37991378
000230 e2 e6 22 3f 37 a0 80 3e 7b e9 96 3e db 86 9d 3e
       0.6363355 0.25122234 0.29475006 0.3076695
000240 d4 e2 08 3f b2 9c fa 3e 2f 1b 86 3e c5 c7 96 3d
       0.5347111 0.48947674 0.26192614 0.07362322
000250 56 45 66 3f 7a 2f 7c 3f f8 76 68 3f 87 41 90 3e
       0.8994955 0.98509943 0.9080653 0.28174993
000260 17 70 93 3e 96 a9 39 3f b6 00 65 3f 62 43 01 3f
       0.28796455 0.7252439 0.8945421 0.50493443
000270 2e 80 5e 3f ea 4a 47 3f c5 2b df 3e b5 f7 2c 3f
       0.86914337 0.77848685 0.4358808 0.6756547
000280 27 fe 8e ba 7d 11 78 3f a9 6b 17 3f ca f8 2a 3e
       -0.0010909484 0.96901685 0.5914865 0.16696468
000290 34 d4 d6 3e 92 c5 cb 3d e9 7e bd 3d af 84 04 3f
       0.41958773 0.09949793 0.09252722 0.5176496
0002a0 72 0f 40 3f 5b 06 e3 3e f7 17 2f 3f ba b4 82 3e
       0.7502357 0.44340786 0.6839594 0.25528508
0002b0 44 8a 52 3f 25 5d 42 3f 9a f1 1a 3e ce 05 5e 3f
       0.82242227 0.7592338 0.15131226 0.8672761
0002c0 58 da 26 3f ec 05 10 3f 6c ef c8 3e 38 8d 34 3f
       0.65176916 0.56259036 0.39245164 0.7052798
0002d0 dc 3a 44 3f eb 4a 77 3f 6b 8c 90 3d d6 84 64 3f
       0.7665231 0.9659869 0.070580326 0.8926519
0002e0 8b 8e 38 3f 6e 61 94 3e 35 c1 46 3f 53 c5 61 3f
       0.72092503 0.28980583 0.7763856 0.8819172
0002f0 c3 9c bb 3e cf fe 0d 3f d2 cd fa 3d c3 f7 b2 3e
       0.36643037 0.5546693 0.12246288 0.34954652

bottleneck0.1.bias f4 [192]
000000 cd e8 89 3c 95 57 55 3d 75 1d 3c 3b 21 f7 8c 3d
       0.01683464 0.052085478 0.0028704081 0.068830736
000010 59 a5 53 3d df 4c ec bc d7 99 28 bc e5 66 59 3b
       0.05167136 -0.028845249 -0.0102905845 0.0033172902
000020 e5 61 71 bd 75 c5 fa 3d ad 18 98 3c 41 32 0d 3d
       -0.05893125 0.12244693 0.018566454 0.034471754
000030 cc 7d c2 3d 7b 64 a7 bc 03 27 87 bc a6 02 50 3d
       0.0949665 -0.020433655 -0.016498094 0.050783776
000040 38 97 4d bd 18 ca ae bc 6d b8 98 3c 54 13 e9 3c
       -0.05019304 -0.0213366 0.018642629 0.0284516
000050 8a 04 0b 3d 92 5b 91 bc 99 a8 ea bb e9 61 30 3d
       0.033939876 -0.01774386 -0.0071612117 0.043062124
000060 1b 8a d2 3c 60 af 16 bc 1a 28 d5 3c b8 c4 cf 3d
       0.02570062 -0.009197086 0.026020098 0.10144943
000070 ab fe fd 3b bf da a1 bc 26 4d 78 3d 94 4d cf bc
       0.007751306 -0.019757627 0.06062045 -0.025305547
000080 03 fa d7 3b 33 ad d9 3c c6 d8 5a 3c 97 ae 95 bc
       0.006591083 0.026571846 0.013357347 -0.018271727
000090 15 e1 b6 3c 35 ec 53 3d a6 17 89 bb 36 4e 7d bb
       0.022324124 0.051738936 -0.0041837273 -0.0038651354
0000a0 3e b2 04 bd ae 60 34 3c e9 a3 89 3b b0 1f 20 3d
       -0.032396547 0.011009378 0.004200448 0.03909272
0000b0 fc e7 15 bd b1 ef 25 bd f7 d6 a6 bc b7 de 45 bb
       -0.03659819 -0.04051179 -0.020366175 -0.0030192563
0000c0 08 91 b8 3c 6f 8f e3 3b 19 ff 56 3d 5e 34 41 3d
       0.022530094 0.006944589 0.052489374 0.047169082
0000d0 61 89 d0 3c c1 4d 0f bd 1f d0 04 3d 02 6f 95 bc
       0.025456132 -0.03498626 0.032425042 -0.01824141
0000e0 a2 85 a2 3b 06 4a 40 bc a1 1e 9c bc 48 f6 8b bb
       0.004959778 -0.011736399 -0.019057574 -0.0042713024
0000f0 0d c7 3c 3c b3 64 4b bc 9e 71 00 3b 5f 13 98 3c
       0.011522067 -0.012414145 0.001959897 0.018563924
000100 9a 04 4f 3d 44 f4 2d bd 48 29 9a bc 9b 68 45 bc
       0.050541498 -0.042469278 -0.018818513 -0.012048866
000110 40 4a ca 3c a5 9e 17 3c e4 24 d9 39 36 71 49 3d
       0.024693608 0.009254132 0.0004141695 0.049180232
000120 cd 03 9a bc cb 66 83 3c 69 ad 36 3d 6c 0c 84 bc
       -0.01880064 0.016040226 0.04459897 -0.016119204
000130 52 37 36 3d 82 dc 48 bc 88 77 a4 3b fc 8c 3e 3d
       0.04448635 -0.012259604 0.005019132 0.046521172
000140 7c f0 1a 3d 0d 5f 37 3d 95 b0 db 3c db 74 9d 3c
       0.037827 0.044768382 0.0268176 0.01922076
000150 67 9b 03 3d 4c 74 40 bd 4e 98 ea bd 62 4a 89 3d
       0.032130625 -0.04698591 -0.11454831 0.067036405
000160 9f 2a 8c bd ba 8b 11 bc 44 a1 f8 bc f7 c9 0d 3d
       -0.06844067 -0.008883411 -0.030350335 0.034616437
000170 49 b9 22 3c 15 a3 80 3c 8e f4 a7 3d 90 7d 11 3c
       0.009931871 0.015702764 0.08200942 0.008880034
000180 7b 08 be bc 00 b5 d3 bc ca 60 e8 3c 24 14 63 3d
       -0.023197403 -0.025843143 0.028366465 0.05543913
000190 13 bc de 3c 81 36 ba 3c 79 25 81 bc 6a 32 5e 3d
       0.02718929 0.022731068 -0.015764939 0.054247297
0001a0 80 a1 01 3c fe 9b 87 3c e0 70 07 bc 61 51 a2 3c
       0.00791204 0.016553875 -0.008266658 0.019814195
0001b0 1c 6a 3a bd bf 58 8a bc 09 14 57 3c 86 5a 12 3d
       -0.04551135 -0.01688802 0.013127335 0.03573086
0001c0 93 24 f3 3c bc 35 f9 bc a6 f4 93 bd bb af 21 3c
       0.029680526 -0.03042113 -0.07224397 0.009868558
0001d0 b1 41 09 bd 8b e5 46 3c 49 d3 66 bc a5 4b 10 bc
       -0.033509914 0.012139688 -0.01408846 -0.008807098
0001e0 b2 62 0a 3c f0 49 65 3c db 56 38 3c 28 19 c7 bc
       0.008446382 0.013994679 0.011251177 -0.024303988
0001f0 d0 13 96 3b ee 46 14 3b 57 ed 85 bc 76 33 e3 3a
       0.0045799986 0.0022625285 -0.016348524 0.0017334062
000200 65 34 26 bd 52 52 69 bd 2a ce ff bb ae 57 25 bd
       -0.04057731 -0.056963272 -0.007806559 -0.04036682
000210 e0 d4 06 bd 30 48 e9 bc b9 0a 4f 3c 62 d1 32 3d
       -0.032917857 -0.028476804 0.012636834 0.043656714
000220 cd b7 fa 3c 01 51 85 bd 9e 89 86 3d 3f d1 7e 3c
       0.030605221 -0.06509591 0.06569217 0.015552818
000230 df 3a e5 bc 98 4f 6d bd 9e b1 15 3b be e4 a0 3c
       -0.027982173 -0.057937235 0.0022841464 0.019640323
000240 cc 0e d6 3c 56 5d 0d 3d f8 e4 e0 3c 8f c3 cf 3c
       0.026130103 0.03451284 0.02745293 0.025361804
000250 b9 58 5a bd df bf c5 3c da 4b 79 3d 7a 37 a6 3c
       -0.05330727 0.024139343 0.060863353 0.020290125
000260 6a 44 42 3c e9 6b 34 ba 4e 91 78 bd e6 71 d3 bb
       0.0118571315 -0.0006882535 -0.06068545 -0.0064527867
000270 62 ab 71 3b ca 3d 7c bc d8 08 7e 3b 92 df ff 39
       0.0036875834 -0.015395591 0.0038762596 0.00048803963
000280 5d 2a a3 bc 61 ad fd 3c ee 56 4c bd cd 84 95 bd
       -0.019917661 0.030966463 -0.04988759 -0.0730072
000290 ce 75 c4 bc 1e 09 b6 3c a8 6e 4c 3d e4 ab 40 bd
       -0.023981955 0.022221144 0.049910218 -0.047038928
0002a0 f9 b0 93 bb 31 7b 6b 3d a2 24 be bb 7e 4f ea 3b
       -0.004507181 0.05749053 -0.005802707 0.0071505895
0002b0 59 17 1f 3d 84 e7 59 bd bd 9c 9a bc e2 d4 c5 3c
       0.038840625 -0.053199306 -0.018873567 0.024149362
0002c0 9f 04 9c 3b ff ac 71 bd 4d 60 7f 3d e4 c1 3e bc
       0.004761293 -0.059002873 0.0623477 -0.011642907
0002d0 29 7b fb bb 7b 3a 0b 3c b6 4e 87 bc f4 92 5c 3c
       -0.007674594 0.00849783 -0.016517024 0.013462771
0002e0 1c 3f a1 ba 38 b3 f3 3c 34 34 b3 bc 3d 74 93 bc
       -0.0012302133 0.029748544 -0.021875478 -0.017999763
0002f0 d3 3c 40 bd 9c ce cc 3b ea 0a ba 3c 71 a9 d8 3c
       -0.046933006 0.0062502157 0.022710282 0.026447983
