TradingGym/TradingGym_7800.pth (torch_old, 700040 bytes, 52 tensors)

conv0.0.weight f4 [256, 1]
0	0x3f5de2c6	0.86674154
1	0x3f409343	0.75224704
2	0x3f79f004	0.9763186
3	0x3f77146d	0.9651554
4	0x3fa6b582	1.3024142
5	0x3f9ab611	1.2086812
6	0x3f12845f	0.5723323
7	0x3f747c79	0.9550243
8	0x3f6dc0fc	0.92872596
9	0x3f709106	0.9397129
10	0x3f7c3513	0.98518485
11	0x3f7a33aa	0.97735083
12	0x3f7fe7bd	0.9996298
13	0x3f4c9766	0.79918516
14	0x3f2482f1	0.642623
15	0x3f9944e2	1.1974146
16	0x3f29f71d	0.6639269
17	0x3f8e495f	1.1116141
18	0x3f1f6c62	0.62274754
19	0x3f90d6b6	1.1315525
20	0x3fd236bb	1.6422952
21	0x3f88ecca	1.0697262
22	0x3f5c4956	0.860494
23	0x3f8f95fd	1.1217648
24	0x3f7e1fef	0.99267477
25	0x3f816723	1.01096
26	0x3f8d4054	1.1035256
27	0x3f86cb6a	1.0530827
28	0x3f829ab9	1.0203468
29	0x3f5df925	0.8670829
30	0x3f5c9466	0.8616394
31	0x3fc2967d	1.5202175
32	0x3f423458	0.7586112
33	0x3f841943	1.0320209
34	0x3f62b148	0.8855176
35	0x3f84d455	1.0377299
36	0x3fa0c3c7	1.2559747
37	0x3f88b2c3	1.0679554
38	0x3f54f691	0.8318873
39	0x3f6a5238	0.91531706
40	0x3f84b109	1.0366527
41	0x3f50869b	0.8145539
42	0x3f95e07b	1.1709131
43	0x3f906ec2	1.1283801
44	0x3f63c7f9	0.8897701
45	0x3f6a9ba2	0.91643727
46	0x3f6e9aa7	0.9320473
47	0x3fbd96e1	1.481167
48	0x3f30a1ab	0.68996686
49	0x3f8b4cbc	1.0882792
50	0x3f683541	0.9070626
51	0x3f574eb1	0.8410445
52	0x3fc8efc7	1.5698174
53	0x3f85f1d6	1.0464427
54	0x3f9b3af7	1.212737
55	0x3f7e457e	0.99324787
56	0x3f5b5186	0.8567127
57	0x3f943cb9	1.1581031
58	0x3f842f6a	1.032697
59	0x3f854a1c	1.0413241
60	0x3f24a3cc	0.64312434
61	0x3f7820e9	0.96925217
62	0x3f824e65	1.0180174
63	0x3f9a30cf	1.2046145
64	0x3f55bce1	0.8349133
65	0x3f9f1534	1.2428346
66	0x3f8da36a	1.1065495
67	0x3f69b6b6	0.9129442
68	0x3f9f0c0b	1.242555
69	0x3f8f72bd	1.120689
70	0x3f9cef7b	1.2260584
71	0x3f6efafd	0.9335173
72	0x3f8999fb	1.0750116
73	0x3f9baf94	1.2162957
74	0x3f985297	1.1900204
75	0x3f90c9a7	1.131154
76	0x3f5e4966	0.8683075
77	0x3f92c846	1.1467369
78	0x3f8be91a	1.0930512
79	0x3f91b66f	1.1383799
80	0x3f5501d7	0.8320593
81	0x3fbef789	1.4919292
82	0x3f7936e4	0.9734938
83	0x3f806b1e	1.003269
84	0x3fa1e3f8	1.2647696
85	0x3f84a513	1.0362877
86	0x3faf8751	1.371317
87	0x3f5403d1	0.82818323
88	0x3f7bfbd4	0.98431134
89	0x3f84a133	1.0361694
90	0x3f9991a0	1.1997566
91	0x3f8194ef	1.0123576
92	0x3f4a94b1	0.79133135
93	0x3fb0c963	1.3811458
94	0x3f840bd1	1.0316106
95	0x3f9b9120	1.2153664
96	0x3f6c4138	0.92287016
97	0x3f8adac4	1.0848012
98	0x3f6da5cb	0.92831105
99	0x3f78e366	0.9722198
100	0x3f96c89f	1.1779975
101	0x3f8fc20d	1.1231095
102	0x3f8ee88d	1.1164719
103	0x3fa3683a	1.2766182
104	0x3f4b8c13	0.7951061
105	0x3f1a380d	0.60241777
106	0x3f99df22	1.202122
107	0x3f908e28	1.1293383
108	0x3f3b4474	0.73151326
109	0x3fb0abb7	1.3802403
110	0x3f2d7e33	0.6777069
111	0x3f9a5fd4	1.2060494
112	0x3f733eb5	0.9501756
113	0x3f8de7ab	1.1086324
114	0x3f824193	1.0176262
115	0x3f91a0ff	1.1377257
116	0x3fa7877e	1.3088224
117	0x3f8118aa	1.0085652
118	0x3f38f411	0.72247416
119	0x3fa2fac2	1.2732775
120	0x3f9b8831	1.2150937
121	0x3f58d3d7	0.8469824
122	0x3f984d03	1.1898502
123	0x3f9b9726	1.2155502
124	0x3f34fded	0.7069996
125	0x3fa74141	1.3066789
126	0x3f8e3416	1.1109645
127	0x3f9d4acd	1.2288452
128	0x3f74ef79	0.95677906
129	0x3f6cfa9a	0.9256989
130	0x3f98be9e	1.1933172
131	0x3f5ada79	0.8548961
132	0x3f2d005e	0.67578685
133	0x3f85ff64	1.0468564
134	0x3f2a95c6	0.66634786
135	0x3fa354de	1.2760274
136	0x3f95d6e5	1.1706206
137	0x3f3f1ccb	0.7465331
138	0x3fae14b0	1.3600063
139	0x3f8fe253	1.1240944
140	0x3e92ce17	0.2867286
141	0x3f9cc14e	1.2246492
142	0x3f779ccd	0.96723634
143	0x3f5387d3	0.82629126
144	0x3f8c9e2c	1.098577
145	0x3f9b7d10	1.2147541
146	0x3f883b06	1.0643013
147	0x3f6fe882	0.93714154
148	0x3f898952	1.0745032
149	0x3f8fc885	1.1233069
150	0x3f59cf43	0.8508188
151	0x3f9d7e23	1.2304119
152	0x3f829e65	1.0204588
153	0x3f688f9d	0.90844136
154	0x3fb39d09	1.4032298
155	0x3fa426c1	1.2824327
156	0x3f45c998	0.7726073
157	0x3f9a11d9	1.2036697
158	0x3f8e7e20	1.113224
159	0x3f7f14b7	0.99640983
160	0x3f86a7fb	1.0520014
161	0x3f952e12	1.1654685
162	0x3f9adb87	1.2098244
163	0x3f8adff2	1.0849593
164	0x3f04e6c9	0.5191465
165	0x3f8bb8e9	1.0915805
166	0x3f28a9a0	0.6588383
167	0x3f88180b	1.0632337
168	0x3f2bbe96	0.67087686
169	0x3f4e42d5	0.8057073
170	0x3fa77e19	1.3085357
171	0x3fa79541	1.3092424
172	0x3f88f508	1.0699778
173	0x3fa65b42	1.29966
174	0x3f75d308	0.96025133
175	0x3f6ae64b	0.9175765
176	0x3f86248e	1.0479906
177	0x3f7dc7ae	0.9913281
178	0x3f587bc6	0.84563863
179	0x3f70e2c4	0.94096017
180	0x3f5c7560	0.861166
181	0x3f907184	1.1284642
182	0x3f6fa798	0.936151
183	0x3f77182f	0.96521276
184	0x3f4d7959	0.80263287
185	0x3f68191d	0.9066332
186	0x3f913d27	1.1346787
187	0x3f98c81e	1.1936071
188	0x3f8d770b	1.1051954
189	0x3fa2feec	1.2734046
190	0x3f6b1048	0.9182172
191	0x3f6a76ce	0.9158753
192	0x3f8df123	1.1089214
193	0x3f6d21bd	0.92629606
194	0x3f6d3211	0.9265452
195	0x3f9b792e	1.2146356
196	0x3f61657d	0.88045484
197	0x3fb073a1	1.3785287
198	0x3f595b8a	0.849053
199	0x3f5fa41c	0.87359786
200	0x3f5e620c	0.8686836
201	0x3f6b7c57	0.919866
202	0x3f85533a	1.0416024
203	0x3f7d9e4d	0.9906967
204	0x3f766bf9	0.96258503
205	0x3f984955	1.1897379
206	0x3f9b6ceb	1.2142614
207	0x3f7551da	0.9582802
208	0x3fa20a7e	1.2659452
209	0x3f47611d	0.7788256
210	0x3fa6d3da	1.3033402
211	0x3f9836a6	1.1891677
212	0x3f8f3b2f	1.1189936
213	0x3fa91495	1.3209406
214	0x3f6ec8d4	0.9327519
215	0x3f66a9b6	0.9010271
216	0x3fa99065	1.3247191
217	0x3f6ac55c	0.91707397
218	0x3f83f424	1.0308881
219	0x3f77bb60	0.96770287
220	0x3fa6470e	1.2990434
221	0x3f784ecf	0.9699525
222	0x3f9810fa	1.1880181
223	0x3f7a6f2a	0.9782587
224	0x3f9f3f3e	1.2441175
225	0x3effb8e0	0.49945736
226	0x3f939935	1.153113
227	0x3f990086	1.1953285
228	0x3f6efeb8	0.9335742
229	0x3f930ad5	1.1487681
230	0x3fc3b3a9	1.5289203
231	0x3f6b9e67	0.9203858
232	0x3f895e5f	1.0731925
233	0x3f5ac7a7	0.85460895
234	0x3f9ac002	1.2089846
235	0x3f373255	0.71561176
236	0x3fb97041	1.4487382
237	0x3f8c1a34	1.0945497
238	0x3f817f56	1.0116985
239	0x3f6d6030	0.92724895
240	0x3fc100b1	1.5078336
241	0x3f2f6368	0.68511057
242	0x3f6fcc51	0.9367114
243	0x3f9b168d	1.2116257
244	0x3f942ad0	1.1575565
245	0x3f2dc27c	0.67874885
246	0x3fb512a4	1.4146314
247	0x3f7482fc	0.95512366
248	0x3f8bedae	1.0931909
249	0x3f3d021b	0.7383134
250	0x3fa9c2b7	1.3262547
251	0x3f1af431	0.60528857
252	0x3edd0c62	0.4317351
253	0x3ed456f4	0.4147259
254	0x3fe4184a	1.7819912
255	0x4006d686	2.1068435

conv0.0.bias f4 [256, 1]
0	0x3d2b2f0e	0.04179292
1	0x3cebf6bc	0.028804176
2	0x3e340952	0.1758168
3	0x3e5ad798	0.21371305
4	0x3c7b4cd6	0.015338143
5	0x3e4a73af	0.19770692
6	0x3dd6d076	0.104889795
7	0x3dbbd1a1	0.09170843
8	0x3ef6bc08	0.4819033
9	0x3e9613fd	0.29312125
10	0x3e927c86	0.2861063
11	0x3e6178c3	0.22018723
12	0x3e284830	0.16433787
13	0x3ed769db	0.4207295
14	0x3d2b478e	0.041816287
15	0x3e0ba4af	0.1363704
16	0xbe5b9aac	-0.21445721
17	0xbcec5b34	-0.028852083
18	0xbd209d01	-0.03921223
19	0x3e2a7948	0.16647828
20	0x3e23e9c0	0.16007137
21	0x3d6e5bda	0.058193065
22	0xba7aec41	-0.0009571948
23	0x3e1652d0	0.14680028
24	0x3d806b6b	0.06270488
25	0x3e93c430	0.28860617
26	0x3e7a120d	0.24420948
27	0x3e9c8c3f	0.3057575
28	0x3df9aa89	0.1219073
29	0x3e4d039c	0.20020908
30	0x3e7600a7	0.24023686
31	0x3e8c21cb	0.27369532
32	0x3bcb0a86	0.006196323
33	0x3d705eaa	0.05868403
34	0x3d917cc2	0.07103874
35	0x3e61dfca	0.22058025
36	0xbc365559	-0.011128747
37	0x39204d30	0.00015287544
38	0x3dfa4148	0.12219483
39	0xbcebde69	-0.028792577
40	0xbe256cbf	-0.16154765
41	0x3df0af39	0.11752171
42	0x3dca3573	0.09873476
43	0x3e1b3869	0.15158238
44	0x3deb0ced	0.11477075
45	0x3e227ed0	0.15868688
46	0x3e8a1042	0.2696553
47	0x3e367911	0.1781962
48	0xbd8ee509	-0.06977279
49	0xbc4f1ec9	-0.012641617
50	0x3d9db661	0.07700802
51	0x3e3a57ef	0.18197607
52	0xbd96b384	-0.07358459
53	0x3e3d1c7e	0.184679
54	0x3e355903	0.17709737
55	0xbcb34f7c	-0.021888487
56	0x3bc8a556	0.006123225
57	0x3e7a04ac	0.24415845
58	0x3d8efd08	0.06981856
59	0x3d94bb98	0.07262343
60	0xbdabe4b8	-0.08393234
61	0xbe0dc360	-0.13844061
62	0x3dc0a272	0.09405984
63	0x3d5f36d3	0.054495644
64	0x3dc97b39	0.09837956
65	0xbd891545	-0.0669351
66	0xbd3aeedf	-0.04563796
67	0x3ddfb884	0.109238654
68	0x3c4a0561	0.012330384
69	0xbd8ccca9	-0.06874973
70	0x3e707f5a	0.23486081
71	0x3c8ad895	0.016948977
72	0xbd5dba94	-0.054133013
73	0x3d98041f	0.07422661
74	0x3c4b2a79	0.012400263
75	0x3ca56255	0.02018849
76	0x3cba47c5	0.0227393
77	0xbda6e3cc	-0.081489176
78	0xbdac90a5	-0.08426026
79	0x3e2b200c	0.16711444
80	0x3e1740f7	0.14770876
81	0x3e0efcd9	0.13963641
82	0x3dacf734	0.08445588
83	0x3e134d05	0.1438485
84	0xbdd7ba56	-0.10533588
85	0xbd7ca28d	-0.061678458
86	0x3d8ffe6a	0.070309475
87	0xba9d2da9	-0.0011991757
88	0xbe539780	-0.20663261
89	0xbcadc1b8	-0.021210536
90	0x3ee2340b	0.4418033
91	0xbce39d6d	-0.027785027
92	0xbd355304	-0.044268623
93	0xbe2f3102	-0.17108539
94	0xbc231754	-0.009954292
95	0x3e25e1e8	0.16199458
96	0x3d95281d	0.072830416
97	0xbdc1354d	-0.094339944
98	0x3ce58708	0.02801849
99	0xbc981038	-0.018562421
100	0x3d44a0ca	0.048004903
101	0x3cf5bfca	0.029998679
102	0xbe2aec1f	-0.16691636
103	0xbd83d8e0	-0.0643785
104	0xbf0db2fb	-0.5535123
105	0x3e2bf4ff	0.16792677
106	0x3dd52e7f	0.10409259
107	0x3d540c22	0.051769383
108	0x3e34c549	0.17653383
109	0xbe8b7480	-0.2723732
110	0xbdf003f8	-0.11719507
111	0x3e1ac36d	0.15113612
112	0x3e415a1f	0.18882035
113	0x3d075870	0.033043325
114	0x3e41b8e8	0.18918192
115	0xbd784225	-0.060609955
116	0xbd4846f5	-0.048895795
117	0xbe851be2	-0.25997835
118	0xbe98a5fc	-0.29814136
119	0xbd3d5813	-0.046226572
120	0xbe8ea084	-0.2785684
121	0x3d5bcf31	0.05366439
122	0x3e2d8732	0.16946104
123	0x3da7e66a	0.08198245
124	0xbdc11a80	-0.094288826
125	0xbe1cf9f2	-0.15329722
126	0xbceb1b09	-0.028699415
127	0x3d516720	0.05112374
128	0x3dd963f4	0.10614768
129	0x3db123d4	0.08649412
130	0xbd2900e6	-0.041260622
131	0x3c206215	0.00978901
132	0xbe49306a	-0.19647375
133	0x3e1e6ef2	0.1547201
134	0xbe246e82	-0.1605778
135	0xbe482de5	-0.19548757
136	0xbeced22a	-0.40394717
137	0x3e25c4f4	0.16188413
138	0x3ea7c307	0.32765982
139	0xbd510b30	-0.05103606
140	0xbe210597	-0.15724789
141	0xbe4c20c8	-0.1993438
142	0xbdd02541	-0.101633556
143	0xbe00eb48	-0.12589753
144	0x3ba5753a	0.005049375
145	0x3dd36fde	0.10324071
146	0xbd149c10	-0.036281645
147	0x3c3c9cf4	0.01151203
148	0x3ea15e3d	0.3151721
149	0xbdec8388	-0.11548525
150	0xbd908f26	-0.070585534
151	0xbe5f489b	-0.2180504
152	0xbe357d5a	-0.17723599
153	0xbd6d9394	-0.05800207
154	0x3ddc9f16	0.10772531
155	0x3e2054f1	0.15657403
156	0x3bccaa98	0.0062459223
157	0xbe511bc5	-0.2042075
158	0xbe1cddbb	-0.15318958
159	0xbd555583	-0.052083503
160	0x3ddaf0d9	0.10690469
161	0x3c62a85a	0.013834083
162	0x3dd0200b	0.10162362
163	0xbdb85cad	-0.090020515
164	0xbe333f56	-0.1750463
165	0xbeacba83	-0.33736047
166	0x3e08dd60	0.13365698
167	0xbe5f927a	-0.2183322
168	0x3ced9525	0.029001782
169	0xbde3b213	-0.11117949
170	0x3dcc1b94	0.099661976
171	0x3c779731	0.01511173
172	0x3e7d4662	0.2473388
173	0xbe12c67d	-0.1433353
174	0xbe1053af	-0.14094423
175	0xbe2f3493	-0.17109899
176	0xbe65f203	-0.22455601
177	0xbd45773e	-0.04820942
178	0xbd368ddb	-0.044568878
179	0xbe946ab6	-0.28987664
180	0x3e2c7ced	0.1684453
181	0x3d984218	0.074344814
182	0x3dc1e47a	0.094674066
183	0xbe5920a9	-0.21203865
184	0x3defe2a6	0.11713152
185	0xbe20044d	-0.1562664
186	0xbe53bce1	-0.2067752
187	0x3d7fb52c	0.06242864
188	0x3ed796a9	0.42107132
189	0xbd8f789c	-0.07005426
190	0xbeef593f	-0.46747777
191	0xbeb5bdac	-0.3549627
192	0xbeb6153b	-0.35563073
193	0xbd830649	-0.06397683
194	0x3c1ca12e	0.009559913
195	0xbe3493e7	-0.17634545
196	0xbdab6c34	-0.083702475
197	0xbc4c32ca	-0.012463281
198	0x3de99f13	0.11407294
199	0xbe55ca66	-0.2087799
200	0x3dae617d	0.08514688
201	0xbe62cc79	-0.22148313
202	0xbeedcb6e	-0.46444267
203	0xbd36e06d	-0.044647623
204	0x3ef92217	0.4865882
205	0xbd4f2777	-0.050574746
206	0xbeaef5b8	-0.34171844
207	0xbeb808e7	-0.35944292
208	0xbe910934	-0.28327334
209	0xbca60f23	-0.02027089
210	0xbe23ff92	-0.16015461
211	0xbe83bdb8	-0.2573068
212	0xbdfd5d5e	-0.12371324
213	0x3d86af9b	0.06576463
214	0xbe0748d0	-0.1321137
215	0xbd1a0023	-0.037597787
216	0x3e79ba01	0.24387361
217	0xbe4a2b7a	-0.19743147
218	0xbeedc92c	-0.46442544
219	0xbdac01bb	-0.083987676
220	0x3e1877a8	0.14889395
221	0xbde02a26	-0.10945539
222	0xbe169f3c	-0.1470918
223	0xbd6860b0	-0.056732833
224	0xbe26e1fa	-0.1629714
225	0x3db161f0	0.08661258
226	0x3ce261c4	0.027634509
227	0xbe3dfa34	-0.18552476
228	0xbdbdeedd	-0.09274075
229	0x3c661579	0.014043205
230	0xbe3e8b0d	-0.18607731
231	0xbe1336d4	-0.14376384
232	0xbd4ca91e	-0.04996597
233	0xbee6f618	-0.4510963
234	0xbc8a6455	-0.016893545
235	0xbe2f2e16	-0.17107424
236	0x3c53f5e2	0.012937041
237	0xbdbdc3da	-0.09265871
238	0xbd46f98b	-0.048577826
239	0x3e3afe61	0.182611
240	0xbe4a5428	-0.19758666
241	0x3e852046	0.26001185
242	0x3df2a6e4	0.11848238
243	0x3e39a624	0.18129784
244	0x3d56d68a	0.052450694
245	0x3d3a5be0	0.045497775
246	0xbe66265b	-0.22475569
247	0xbd131518	-0.03590879
248	0x3dc760db	0.097352706
249	0x3e91a0e5	0.28443065
250	0x3df53481	0.11972905
251	0xbe82e349	-0.2556403
252	0xbe8bc32f	-0.2729735
253	0xbdf539ad	-0.119738914
254	0x3eb44867	0.3521149
255	0x3f0c70d6	0.54859674

conv0.1.weight f4 [32, 16, 3, 1]
0	0x3ddde09c	0.108338565
1	0x3de02130	0.1094383
2	0xbc7ba9a9	-0.015360274
3	0xbe7b2fd2	-0.24529961
4	0xbda26b36	-0.07930605
5	0x3d4c944c	0.049946114
6	0x3c4b409c	0.012405541
7	0x3ca9b7b3	0.020717477
8	0xbd0b0c97	-0.033947553
9	0x3d23dedd	0.04000746
10	0x3e4c5406	0.19953927
11	0x3d90a6e3	0.07063081
12	0x3e387adb	0.18015616
13	0xbc33123f	-0.010929643
14	0xbe982664	-0.2971679
15	0xbd6ce234	-0.05783291
16	0x3d8e90d7	0.0696122
17	0x3eb3b292	0.35097176
18	0x3e3a1b89	0.18174566
19	0x3e6c8a69	0.23099674
20	0x3e9b7aa9	0.3036702
21	0xbd39f78e	-0.045402102
22	0x3c5d14ee	0.01349376
23	0x3c9c2d02	0.01906443
24	0x3eb119a0	0.34589863
25	0xba8d5217	-0.0010781911
26	0x3dc2f4fe	0.09519385
27	0xbefea2e6	-0.49733657
28	0xbf592d8e	-0.84835136
29	0xbf0f7398	-0.5603576
30	0xbec88e48	-0.39171052
31	0xbf80e27f	-1.0069121
32	0xbee2de99	-0.44310454
33	0x3d4bf245	0.049791593
34	0xbca86c8a	-0.020559568
35	0x3ddd3882	0.10801794
36	0x3dd3109f	0.103059046
37	0x3dafc988	0.08583361
38	0xbe2b8cde	-0.16752955
39	0xbd8444ac	-0.064584106
40	0x3cca1226	0.024666857
41	0x3dc1114f	0.094271295
42	0xbdbe567f	-0.092938416
43	0x3f299202	0.66238415
44	0xbcae2bd0	-0.021261126
45	0xbe363874	-0.17794973
46	0x3d1e8bdd	0.038707603
47	0xbec11fd5	-0.37719598
48	0x3cdc9e52	0.026930962
49	0xbe3e2554	-0.18568927
50	0x3bd37879	0.0064535704
51	0x3d212010	0.039337218
52	0x3c4ef6f2	0.012632119
53	0xbe5c97cc	-0.21542281
54	0xbe0002b2	-0.12501028
55	0xbd4d7ce0	-0.05016792
56	0xbe6be6cf	-0.23037265
57	0x3d4fc78d	0.050727416
58	0x3d731b33	0.05935211
59	0xbe575292	-0.21027592
60	0xbeaad462	-0.3336516
61	0x3ebf3eab	0.373525
62	0xbe6a91b9	-0.22907151
63	0x3f29798e	0.662011
64	0xbb2237e6	-0.0024752556
65	0xbe522d65	-0.20525129
66	0xbe5d75c8	-0.21626961
67	0xbd9bf774	-0.07615557
68	0xbd42b114	-0.047532156
69	0x3e3a0cdc	0.18168968
70	0x3c8998dd	0.016796524
71	0x3e3a6f8d	0.18206616
72	0x3e75e1c7	0.24011908
73	0x3ebac7e0	0.36480618
74	0x3e6ec672	0.23317888
75	0x3e840887	0.25787756
76	0xbe07109d	-0.13189931
77	0x3dabdd03	0.08391764
78	0x3eac7c19	0.3368843
79	0xbdefde79	-0.11712355
80	0x3e831cbc	0.2560786
81	0x3caa3e59	0.020781683
82	0xbd65d5aa	-0.05611197
83	0x3e1fa84f	0.15591548
84	0xbe8e9492	-0.27847725
85	0x3e828826	0.25494498
86	0x3e1877af	0.14889406
87	0xbef9a7b7	-0.4876077
88	0xbf088d7e	-0.533409
89	0xbf193f09	-0.5986181
90	0xbcd97a67	-0.026547624
91	0x3e5e0a9e	0.21683738
92	0x3da63907	0.08116346
93	0x3d643661	0.055715922
94	0x3e095f9d	0.1341538
95	0xbe1a8645	-0.15090282
96	0xbdc3b8d3	-0.09556737
97	0xbcf7e9b7	-0.030262811
98	0x3d503533	0.050831985
99	0x3dc69012	0.09695448
100	0xbd945b5a	-0.072439864
101	0x3be249bb	0.006905762
102	0x3df51fc5	0.1196895
103	0x3e4d08d1	0.20022894
104	0x3e5aebb0	0.2137897
105	0xbe458c3c	-0.19291776
106	0xbe9d1739	-0.3068178
107	0xbee57c3b	-0.44821343
108	0xbefd9664	-0.495288
109	0x3cd3b3c8	0.025842562
110	0x3ca816fb	0.02051877
111	0x3eb869a3	0.36018094
112	0xbe74e078	-0.23913753
113	0xbe15320d	-0.14569874
114	0xbd548057	-0.051880207
115	0xbe61bb6f	-0.22044156
116	0x3ceeec92	0.02916554
117	0x3ed3c04c	0.41357648
118	0xbdc4aa54	-0.096028
119	0x3ce35f04	0.027755268
120	0xbf24b62b	-0.64340466
121	0xbf1cb7ea	-0.6121813
122	0xbf096167	-0.5366425
123	0x3e395521	0.1809888
124	0x3e3c1e64	0.18370968
125	0x3cb462d1	0.022019776
126	0xbe35b71f	-0.17745636
127	0x3e1c8c20	0.15287828
128	0xbeda63f2	-0.42654377
129	0xbe14960d	-0.14510365
130	0x3dc0573b	0.09391638
131	0xbd8542a3	-0.065068506
132	0xbe653590	-0.22383714
133	0x3dcb45b6	0.09925406
134	0x3e064e1f	0.13115738
135	0x3da9ef98	0.08297652
136	0x3dc059ce	0.09392129
137	0xbd977d1c	-0.073969096
138	0xbe50ddff	-0.20397185
139	0xbd4dba6c	-0.050226614
140	0xbdb7ac98	-0.089684665
141	0x3eb659a1	0.35615256
142	0x3eadc124	0.33936417
143	0x3e60409c	0.21899647
144	0xbd04a1f5	-0.032381017
145	0xbe4b0fd1	-0.19830252
146	0xbde76690	-0.11298859
147	0xbe3523b3	-0.176894
148	0x3df03e08	0.117305815
149	0x3e2df7fc	0.1698913
150	0x3efd64bc	0.49490917
151	0x3ed0cb32	0.40780026
152	0x3eb275f4	0.34855616
153	0x3d76e268	0.06027451
154	0x3cdb6485	0.02678133
155	0x3e4e36b4	0.20138055
156	0xbe440948	-0.19144166
157	0x3deef61e	0.11668037
158	0xbcc2ac83	-0.0237639
159	0xbe128a2c	-0.14310521
160	0x3d5b274e	0.05350428
161	0x3c8781b0	0.016541332
162	0x3add2b38	0.0016873842
163	0xbc91530e	-0.017739799
164	0xbe028b24	-0.1274839
165	0xbd0b857c	-0.034062847
166	0x3dd0ed7a	0.10201545
167	0x3e9490f0	0.2901683
168	0x3e981a4d	0.29707566
169	0x3ea7a4b0	0.32742834
170	0x3f0004dc	0.50007415
171	0x3de7fe7e	0.113278374
172	0x3ecba349	0.39773014
173	0x3e6e3d9c	0.2326569
174	0x3f0cef0f	0.55052274
175	0x3f071056	0.527593
176	0x3f2607b3	0.648555
177	0xbe082f46	-0.13299283
178	0xbe632c12	-0.2218478
179	0xbd6f4f8b	-0.058425467
180	0xbe72fa10	-0.23728204
181	0xbeeb162c	-0.45915353
182	0xbe2ac6b6	-0.16677365
183	0xbdfaa4b3	-0.12238445
184	0x3e9b96f3	0.30388603
185	0x3d2749d5	0.040841896
186	0x3e800452	0.25003296
187	0x3e4760aa	0.19470468
188	0x3e9f4448	0.31106782
189	0xbea12dde	-0.31480306
190	0xbe21822d	-0.15772314
191	0xbe86a7c2	-0.26299864
192	0x3d77179a	0.060325243
193	0x3e21f5d4	0.15816432
194	0x3cad12f0	0.021127194
195	0xbdc00816	-0.09376542
196	0xbcdf94e0	-0.027292669
197	0x3e309a12	0.17246273
198	0xbe1a7daa	-0.15087
199	0x3e8fcdb7	0.28086635
200	0x3cf61b0f	0.0300422
201	0xbeb1d600	-0.34733582
202	0xbe3aad53	-0.1823018
203	0xbe9c78ef	-0.30561015
204	0xbe358be4	-0.17729145
205	0xbe946768	-0.28985143
206	0x3e6d16c7	0.2315322
207	0x3e9fd942	0.31220442
208	0x3e41b7dd	0.18917795
209	0x3c1669f2	0.009180533
210	0x3d35b872	0.044365354
211	0xbe5ddb47	-0.21665679
212	0xbe3eeafd	-0.18644328
213	0x3e95b2f9	0.29238108
214	0xbf537a64	-0.8260863
215	0x3e6ef4e9	0.23335613
216	0xbd2c0ce4	-0.04200448
217	0x3cde5401	0.027139666
218	0x3ddd5c2a	0.108085945
219	0x3e5ed540	0.21761036
220	0x3d8c7577	0.06858342
221	0xbed93cf8	-0.42429328
222	0x3dcc7a1f	0.0998423
223	0xbcf69bf6	-0.030103665
224	0xbeb59769	-0.3546708
225	0x3d57f98e	0.05272823
226	0x3e157a73	0.14597492
227	0xbbf59517	-0.0074945795
228	0xbed0131e	-0.40639585
229	0x3f0c4040	0.5478554
230	0x3eac8bf6	0.33700532
231	0x3e51ac2c	0.20475835
232	0xbe0f8c19	-0.14018287
233	0xbee1b5ad	-0.4408392
234	0x3ecedcba	0.40402776
235	0x3e97edc3	0.29673585
236	0xbe3e0eac	-0.18560284
237	0x3df0917d	0.117465
238	0xbd1459bc	-0.03621839
239	0xbe632f5b	-0.22186033
240	0x3da7f899	0.08201713
241	0xbce424cc	-0.027849577
242	0xbdda66cf	-0.106641404
243	0x3e82a36b	0.25515303
244	0x3e81db17	0.25362465
245	0x3d7e57fb	0.062095623
246	0x3ce90442	0.028444413
247	0xbe996b49	-0.29964665
248	0xbf0e50a8	-0.5559182
249	0x3ee2ec05	0.44320694
250	0xbde325f0	-0.110912204
251	0xbe53d0ad	-0.20685072
252	0x3edc2008	0.42993188
253	0x3ed27b14	0.41109526
254	0x3e9b10e0	0.30286312
255	0xbd905cfa	-0.07048984

conv0.1.bias f4 [32]
0	0xbccdd6f3	-0.02512691
1	0xbd820949	-0.06349427
2	0xbdb4c36b	-0.088263355
3	0x3db99655	0.09061877
4	0xbcfffc71	-0.031248303
5	0x3d7a2eab	0.061079662
6	0xbc87399a	-0.016506959
7	0xbd6ad1f8	-0.057329148
8	0x3d60f147	0.0549176
9	0xbd0ef958	-0.03490576
10	0x3d83b14e	0.064303026
11	0xbd9ca261	-0.07648159
12	0xbdca44c6	-0.09876399
13	0x3b278384	0.0025560567
14	0x3df4aab9	0.11946625
15	0xbdf5e67d	-0.12006853
16	0x3e17e431	0.14833142
17	0xbd6dcff4	-0.058059648
18	0x3db92b6d	0.09041486
19	0xbda81895	-0.08207814
20	0x3dad98f4	0.08476439
21	0xbcddf4d3	-0.02709428
22	0xbe0c7161	-0.13715126
23	0xbe042134	-0.12903291
24	0x3e0eee4e	0.13958094
25	0xbdf92b98	-0.12166518
26	0xbdb81744	-0.089888126
27	0xbdb6846c	-0.08911976
28	0x3b2a449b	0.0025980833
29	0xbe117955	-0.14206441
30	0xbd2a3ae3	-0.041560065
31	0xbe150b71	-0.14555146

conv0.2.weight f4 [32]
0	0x3ce34b27	0.027745796
1	0x3ef7d11a	0.4840172
2	0x3f98825a	1.191478
3	0x3f7a773c	0.9783819
4	0x3ec91ed9	0.39281347
5	0x3e3a4dcd	0.18193741
6	0xbc0bdffa	-0.008537287
7	0x3f8621c7	1.0479058
8	0x3f46b0b0	0.77613354
9	0x3f19a282	0.6001359
10	0x3e7b4518	0.24538076
11	0x3e104de8	0.14092219
12	0x3f3ece9b	0.74534005
13	0x3f4a1442	0.7893716
14	0x3e5ab495	0.21357949
15	0x3e9b0f47	0.30285093
16	0x3f22e651	0.63632685
17	0x3f0e302b	0.5554225
18	0x3f3403dc	0.7031839
19	0x3f4d202f	0.80127233
20	0x3eab7975	0.33491102
21	0x3eae17b1	0.3400245
22	0x3f34ac1f	0.70575136
23	0x3e183d1a	0.14867058
24	0x3ecffc0c	0.40621984
25	0x3e92f608	0.28703332
26	0x3efedc54	0.49777472
27	0x3d69ad70	0.05705017
28	0x3f8e30ff	1.1108702
29	0x3e5721cc	0.21008986
30	0x3f9cbcb1	1.2245084
31	0x3f62be2f	0.8857145

conv0.2.bias f4 [32]
0	0x3a9def27	0.0012049422
1	0x3c553a36	0.013014367
2	0x3bed382a	0.0072393613
3	0xbb969199	-0.0045949933
4	0xbb5eaeac	-0.0033978624
5	0xbc47e8d0	-0.012201503
6	0xbb91f13b	-0.0044538057
7	0xbbbe6802	-0.0058107385
8	0xbacfc23e	-0.0015850735
9	0xbb8fd055	-0.004388849
10	0xbc8ebc69	-0.017423825
11	0x3a368cb3	0.0006963715
12	0x3a12a1ca	0.00055935665
13	0x3c84c56e	0.016207423
14	0xba83234b	-0.0010005025
15	0xbb81d3d6	-0.0039620204
16	0x3c0a8d24	0.008456502
17	0xbb591d13	-0.0033128902
18	0xbb5ac93f	-0.0033384112
19	0xbbb2fe4e	-0.0054624444
20	0xbaa096ef	-0.0012252013
21	0xbbb85020	-0.005624786
22	0xbb964eaa	-0.004587014
23	0xbbe8d53b	-0.007105497
24	0xbbe0a260	-0.006855294
25	0x3b300206	0.0026856675
26	0xbb3195ac	-0.0027097268
27	0xba69318e	-0.0008895629
28	0x3a26286d	0.00063384214
29	0xbc22ab45	-0.009928529
30	0xbc15cc1b	-0.009142901
31	0xbbece75b	-0.007229728

conv0.2.running_mean f4 [32]
0	0x3d443a95	0.04790743
1	0xbda5a7e8	-0.08088666
2	0xbd1724d6	-0.036900364
3	0x3c4d7312	0.012539642
4	0xbd628dbd	-0.055310953
5	0xbd0df677	-0.034658875
6	0x3cb64cae	0.02225336
7	0xbd679720	-0.05654061
8	0xbb8bfb13	-0.0042718737
9	0xbdd4b37a	-0.10385795
10	0xbd1d1a50	-0.03835517
11	0xbe11fc6c	-0.14256448
12	0xbd261626	-0.040548466
13	0x3e1d1242	0.15338996
14	0x3e14658c	0.14491862
15	0xbdc1e72e	-0.09467922
16	0x3d6d367c	0.05791329
17	0xb98cd66c	-0.00026862638
18	0x3e0e9d7e	0.13927266
19	0xbd9346ff	-0.07191276
20	0x3d591581	0.052999023
21	0x3dd5656b	0.104197346
22	0xbe4ab179	-0.19794263
23	0xbdd6efb0	-0.104949355
24	0x3e140ead	0.14458723
25	0xbcefae99	-0.02925806
26	0xbe0a837b	-0.13526718
27	0xbc5055bb	-0.012715752
28	0xbdd50c7e	-0.10402773
29	0xbe43f37d	-0.19135852
30	0xbd99d474	-0.07511225
31	0xbe84ddcc	-0.25950468

conv0.2.running_var f4 [32]
0	0x414175e1	12.091279
1	0x409efbc6	4.968234
2	0x4091ee3a	4.5603304
3	0x40a21fea	5.0663958
4	0x40186a6c	2.3814955
5	0x40d241b3	6.57052
6	0x40d7b71e	6.741103
7	0x3f861cec	1.0477576
8	0x4085351a	4.162732
9	0x408585ad	4.172568
10	0x409547d7	4.6650195
11	0x40aabb0c	5.335333
12	0x410547b9	8.33001
13	0x409f372c	4.975485
14	0x406607e9	3.5942328
15	0x40c8a6a8	6.270344
16	0x4050ff5c	3.265586
17	0x40906c1f	4.5131984
18	0x405825ea	3.377314
19	0x40bae4fb	5.8404517
20	0x400bcf89	2.184542
21	0x40697608	3.647829
22	0x4014dd42	2.3260045
23	0x40a956cc	5.2918453
24	0x403fb1fc	2.9952383
25	0x406e707c	3.7256155
26	0x4009c447	2.1526048
27	0x4054b301	3.3234255
28	0x40cbc342	6.367585
29	0x40c820b6	6.253993
30	0x40ca4c32	6.321801
31	0x400a2ae4	2.1588678

bottleneck0.0.weight f4 [192, 32, 1, 1]
0	0x3e28ee5d	0.16497178
1	0x3c320e72	0.010867702
2	0xbd09c9d0	-0.03363973
3	0x3e051109	0.1299478
4	0xbe681ac0	-0.22666454
5	0x3dd3e595	0.10346524
6	0xbe9be5fe	-0.30448908
7	0x3e26d293	0.16291265
8	0xbe58a604	-0.2115708
9	0xbef653db	-0.48110852
10	0x3dfe7f36	0.12426607
11	0x3edaaf59	0.42711905
12	0xbc6e4104	-0.014541868
13	0xbe48104a	-0.19537464
14	0xbdc149e6	-0.09437923
15	0xbe8ba10d	-0.2727131
16	0xbe63b18d	-0.22235699
17	0xbca40c7e	-0.020025488
18	0x3e8efe62	0.27928454
19	0xbdf1e396	-0.11810987
20	0x3ee3a510	0.4446187
21	0x3e323dee	0.17406437
22	0xbed552de	-0.41664785
23	0x3e38a418	0.18031347
24	0xbe076f27	-0.13225995
25	0x3c551ef7	0.013007871
26	0xbe5904d2	-0.21193245
27	0xba21931f	-0.00061635853
28	0x3ec9238e	0.3928494
29	0x3e5bd624	0.21468407
30	0x3eb88ab5	0.36043325
31	0x3ef71a5e	0.48262304
32	0x3e722910	0.23648477
33	0xbe12a258	-0.14319742
34	0x3e313a8b	0.17307489
35	0xbe5e2b51	-0.21696211
36	0xbe88e573	-0.26737556
37	0x3eb4a458	0.35281634
38	0xbdd4dd08	-0.10393721
39	0xbea2c4e9	-0.31790856
40	0x3c9e962e	0.01935872
41	0x3df354b8	0.11881393
42	0xbe241941	-0.16025259
43	0xbe9b7708	-0.3036425
44	0x3dab82aa	0.083745316
45	0x3ddefc06	0.108879134
46	0x3f0d203a	0.551273
47	0xbe15b9a0	-0.14621592
48	0x3eb79342	0.35854536
49	0xbe92b674	-0.28654826
50	0x3e588049	0.21142687
51	0x3ea41478	0.32046866
52	0x3ea75234	0.32679904
53	0x3b2520a4	0.0025196457
54	0xbe769265	-0.24079283
55	0xbe285809	-0.16439833
56	0x3edf6639	0.43632677
57	0xbeaa9039	-0.33313158
58	0xbe8fe75f	-0.2810621
59	0xbdd3c6fe	-0.10340689
60	0xbe4c1b0b	-0.19932191
61	0xbeb031f9	-0.34413126
62	0x3e17838b	0.14796273
63	0xbe67483c	-0.22586149
64	0x3d877f8a	0.06616123
65	0xbd66eff7	-0.056381192
66	0x3e0d7f38	0.13818061
67	0xbd9198ce	-0.07109223
68	0xbe15f823	-0.14645438
69	0x3e182945	0.14859493
70	0x3df75afd	0.120779015
71	0x3ccee299	0.025254535
72	0x3ceaeec2	0.028678302
73	0xbe423739	-0.18966378
74	0xbd9f6215	-0.077823795
75	0x3e1e0d4b	0.15434758
76	0x3e1ec1b0	0.15503573
77	0x3cdd83be	0.027040359
78	0xbd97865c	-0.07398674
79	0x3d8c1dca	0.06841619
80	0xbe169d7d	-0.14708515
81	0xbe3b1961	-0.182714
82	0x3dafdf0c	0.08587465
83	0x3df243f1	0.11829365
84	0x3d8c4a1d	0.068500735
85	0xbda973d4	-0.082740456
86	0x3df2ff65	0.11865119
87	0x3de8fb0c	0.113760084
88	0xbe1cac17	-0.15300022
89	0xbdc95916	-0.09831445
90	0xbc84b551	-0.01619974
91	0xbd49e80d	-0.049293566
92	0x3c8b42d4	0.01699964
93	0x3d601699	0.05470905
94	0xbd4d1865	-0.050072093
95	0xbda3fbc4	-0.08007005
96	0x3c2058ff	0.009786843
97	0xbe11f46a	-0.14253393
98	0xbe11e159	-0.1424612
99	0x3c38a931	0.011270807
100	0x3ece3f39	0.4028261
101	0x3e3fabb2	0.1871784
102	0xbd976c90	-0.073937535
103	0xbddb9e93	-0.10723605
104	0x3f19e942	0.6012155
105	0x3e3c4254	0.18384677
106	0x3e672218	0.225716
107	0x3cb74a34	0.02237425
108	0xbde121a1	-0.10992742
109	0xbf00fdab	-0.50387067
110	0xbe018b1d	-0.12650724
111	0xbe92bd5a	-0.2866009
112	0x3e971cb6	0.29514092
113	0x3e63a915	0.22232468
114	0xbe5976c4	-0.21236712
115	0xbd960f92	-0.073271886
116	0xbeebe016	-0.46069402
117	0xbc9b4674	-0.018954493
118	0x3e2f4015	0.17114289
119	0x3e5a38c7	0.21310721
120	0xbe8f4262	-0.27980334
121	0x3e4cf27b	0.20014374
122	0xbb9d6431	-0.0048032035
123	0xbbffa5c0	-0.0078017414
124	0x3e6e1141	0.2324877
125	0xbe383640	-0.17989445
126	0x3e013c7f	0.12620734
127	0x3d972ca9	0.07381565
128	0xbe0f46bb	-0.13991825
129	0x3e1b640a	0.1517488
130	0xbd3193cb	-0.043353837
131	0x3de277be	0.11057995
132	0x3d38ddb1	0.045133296
133	0xbf4e053f	-0.80476755
134	0xbd8f9f26	-0.07012777
135	0xbeb1aef1	-0.34703782
136	0xbef88f3c	-0.4854678
137	0x3e9b2762	0.30303484
138	0xbe86c29a	-0.26320344
139	0x3dafe63b	0.08588835
140	0xbc08258b	-0.008309732
141	0xbe0c8a78	-0.13724697
142	0xbda79664	-0.081829816
143	0x3e1096bb	0.14119999
144	0xbe1b6f65	-0.15179212
145	0x3f04bc45	0.51849777
146	0xbf034307	-0.5127415
147	0xbe59422d	-0.2121665
148	0x3e35dc77	0.17759882
149	0x3dd2be28	0.10290176
150	0xbebcd060	-0.36877728
151	0xbf462124	-0.7739432
152	0x3e8dec64	0.27719414
153	0x3d2b8e4f	0.041883763
154	0x3e2c6cb9	0.1683835
155	0xbda86725	-0.08222798
156	0x3e1ca822	0.15298513
157	0x3e8cc523	0.27494153
158	0xbde32457	-0.11090916
159	0x3dae7387	0.08518129
160	0x3e357029	0.17718567
161	0xbe718257	-0.23584877
162	0xbe3412d4	-0.17585307
163	0x3de0db6e	0.10979353
164	0x3e975392	0.29555947
165	0x3ed4cfdc	0.41564834
166	0x3d86e78b	0.06587132
167	0x3e14359e	0.14473578
168	0x3e1d69d7	0.15372406
169	0x3f1318ed	0.5745991
170	0xbe85dd32	-0.2614532
171	0xbe54c9a4	-0.20780045
172	0xbe9766af	-0.2957053
173	0x3ca8a862	0.020588104
174	0xbd02811b	-0.031861406
175	0x3e6a4261	0.22876884
176	0x3e38b2b4	0.1803692
177	0x3e0cd5d2	0.13753441
178	0x3eb8b3a9	0.3607457
179	0x3e0300ae	0.12793228
180	0x3ef6daf8	0.48213935
181	0x3edd07ae	0.43169922
182	0xbdb67bde	-0.089103445
183	0xbe214fc5	-0.15753086
184	0x3e3a49e9	0.18192257
185	0xbede41bf	-0.43409535
186	0xbef4ef64	-0.4783889
187	0x3e3ca57c	0.18422502
188	0xbea07a17	-0.31343147
189	0xbd0c2bbd	-0.0342214
190	0xbe0fe46f	-0.14051984
191	0x3d8ad54a	0.06778963
192	0x3e314e17	0.17314945
193	0xbc90f591	-0.01769522
194	0xbddd4216	-0.108036205
195	0x3e024791	0.12722613
196	0xbe786946	-0.24258909
197	0xbf33f2ac	-0.7029216
198	0x3e3442a0	0.1760354
199	0xbed3caff	-0.4136581
200	0x3dfbaf98	0.12289351
201	0xbe0ce755	-0.13760121
202	0xbe7ee99f	-0.24893807
203	0xbe2b2005	-0.16711433
204	0xbe03cd4a	-0.1287128
205	0xbe86f4b2	-0.26358563
206	0xbec593b3	-0.38589248
207	0xbe278311	-0.16358592
208	0xbe7d99d5	-0.24765714
209	0x3f17e24e	0.5932969
210	0xbf17fbbb	-0.59368485
211	0xbe268a32	-0.16263655
212	0x3e3f5406	0.18684396
213	0x3e3d85e4	0.18508106
214	0x3d57beeb	0.052672308
215	0xbf0be1cf	-0.5464143
216	0xbe811af0	-0.25215864
217	0x3d2e62b8	0.042574614
218	0x3e17dbf0	0.14829993
219	0x3aa8fda5	0.0012892975
220	0xbe2e6b60	-0.17033148
221	0x3e02493e	0.12723252
222	0x3d3a0450	0.04541427
223	0x3dd4419e	0.10364078
224	0xbeb507a0	-0.3535738
225	0xbe473484	-0.19453627
226	0xbcb9cf34	-0.02268181
227	0xbdb76f5e	-0.089567885
228	0xbe119957	-0.14218651
229	0xbde42da6	-0.11141519
230	0x3e0860b6	0.13318142
231	0xbe9ce87f	-0.3064613
232	0x3d427316	0.047473036
233	0x3ea26875	0.3172032
234	0x3e39a3ab	0.1812884
235	0xbda9d314	-0.08292213
236	0x3d55fd45	0.05224349
237	0x3eafaa40	0.34309578
238	0x3d3a1e79	0.045439217
239	0xbe18fe12	-0.1494067
240	0xbd150017	-0.03637704
241	0x3ed9ee39	0.42564562
242	0xbe80a42a	-0.25125247
243	0xbbd574a8	-0.0065141506
244	0xbd2254fb	-0.039631825
245	0xbd3e97a5	-0.04653134
246	0x3dfd2d50	0.12362158
247	0xbe2c51cf	-0.16828083
248	0xbf219514	-0.631181
249	0x3e2a85dc	0.16652626
250	0xbe796b7f	-0.24357413
251	0x3e947440	0.28994942
252	0xbe3ec866	-0.18631133
253	0x3de46018	0.11151141
254	0xbf360c8c	-0.71112895
255	0x3e08f23d	0.13373657

bottleneck0.0.bias f4 [192]
0	0xbc8cc32b	-0.017182907
1	0xbdd69d31	-0.10479201
2	0xbd37a16c	-0.04483168
3	0x3da52161	0.08063007
4	0xbe00d7be	-0.12582299
5	0xbe2899ee	-0.1646497
6	0x3d1ab77a	0.037772633
7	0x3df1f397	0.11814039
8	0xbe22493a	-0.15848246
9	0xbddd3616	-0.10801332
10	0xbda97f94	-0.08276287
11	0x3ddd52c8	0.10806805
12	0xbd2a8f7c	-0.041640744
13	0xbdaf933f	-0.08573007
14	0x3e2d2ec8	0.16912377
15	0xbe1b63df	-0.15174817
16	0x3cce4ba4	0.025182553
17	0x3d2900f7	0.041260686
18	0xbdbfdd5b	-0.09368392
19	0xbe04800b	-0.1293947
20	0x3d97c65d	0.07410882
21	0xbe355706	-0.17708978
22	0xbe0b44c3	-0.1360045
23	0xbd1c833c	-0.038211092
24	0xbbcd89bc	-0.0062725227
25	0x3e09cfb9	0.13458146
26	0x3d755917	0.059899416
27	0xbe12aa9b	-0.14322893
28	0x3d293c44	0.04131724
29	0x3dc2f6f7	0.09519761
30	0xbdc1a2cd	-0.0945488
31	0xbd1518ab	-0.03640048
32	0x3d3012cb	0.042986672
33	0x3c7081f1	0.014679418
34	0xbde1b2c9	-0.11020429
35	0x3e25bcc3	0.16185288
36	0x3c872936	0.016499143
37	0xbdaa3f05	-0.08312801
38	0xbe270d8d	-0.16313763
39	0xba4548b4	-0.0007525787
40	0xbd94c7eb	-0.07264694
41	0xbc173346	-0.009228533
42	0xbe1cc4b0	-0.15309405
43	0x3cd8657d	0.02641558
44	0x3d1fdc6e	0.039028578
45	0x3d4bc570	0.049748838
46	0xbe3f0c32	-0.18656996
47	0xbdb13cf9	-0.08654208
48	0x3cf8eb3b	0.030385604
49	0xbd278601	-0.04089928
50	0x3d51ca9d	0.051218618
51	0x3e0a1a93	0.134867
52	0x3db085b4	0.08619252
53	0xbddd816c	-0.10815701
54	0xbca9428f	-0.02066162
55	0x3dd40c75	0.103539385
56	0xbd55a53d	-0.052159537
57	0xbe17a4ea	-0.14809003
58	0x3aaf7594	0.0013386481
59	0xbb1a55e0	-0.002354972
60	0xbdddb0f0	-0.10824764
61	0xbdce8bad	-0.10085235
62	0x3d92a2c8	0.07159954
63	0xbe2f7f3f	-0.17138384
64	0xbcd8b495	-0.026453296
65	0x3df9a718	0.12190074
66	0xbd621733	-0.055197906
67	0xbd0fdccc	-0.035122678
68	0x3bef33b7	0.007299866
69	0x3d52f97e	0.051507466
70	0xbdb0b6ec	-0.086286396
71	0x3e14b7a1	0.14523174
72	0xbd3796d3	-0.04482157
73	0xbd31f073	-0.0434422
74	0xbd34a5ee	-0.044103555
75	0xbd25d7bb	-0.04048894
76	0x3dc1516a	0.094393566
77	0xbde6e492	-0.11274065
78	0xbd6a71c7	-0.057237413
79	0xbe2cb52d	-0.16865988
80	0x3d959079	0.073029466
81	0xbdfba1b9	-0.122867055
82	0x3e24fed9	0.16112842
83	0x3df87ded	0.121333934
84	0xbbd55eb0	-0.006511532
85	0xbe2d072f	-0.16897272
86	0x3e15664b	0.14589803
87	0xbc2790f5	-0.010227432
88	0x3dd778b6	0.10521071
89	0xbc7774ea	-0.015103558
90	0xbdaa09fe	-0.08302687
91	0xbdfedbd0	-0.1244427
92	0x3e25c750	0.16189313
93	0x3e27bbb1	0.16380192
94	0x3e1ae42a	0.151261
95	0xbddbbf92	-0.107298985
96	0x3d15ead1	0.03660089
97	0xbe1b5789	-0.15170111
98	0xbd87584d	-0.06608639
99	0x3c4edd43	0.012625995
100	0x3cf4f90f	0.029903917
101	0xbcebb5d5	-0.028773228
102	0x3dc854ce	0.097818
103	0x3db453b5	0.08805028
104	0xbe18f997	-0.14938961
105	0xbc976881	-0.018482449
106	0xbdd6e448	-0.1049276
107	0xbc975e8b	-0.018477699
108	0x3e224b9d	0.15849157
109	0x3e2821ba	0.16419116
110	0xbe1cbd5d	-0.15306611
111	0x3dbdd283	0.092686675
112	0xbdcf8312	-0.101324216
113	0xbdc44dff	-0.09585189
114	0xbde59443	-0.11209919
115	0x3e09be77	0.13451563
116	0xbe0e8a52	-0.13919953
117	0x3e45ab38	0.19303596
118	0xbd90e432	-0.07074775
119	0x39736111	0.00023210446
120	0xbe183d9f	-0.14867257
121	0xbe2d012a	-0.16894975
122	0x3c7c8d60	0.015414566
123	0xbe375319	-0.17902793
124	0x3d5fb268	0.0546135
125	0xbdfed304	-0.12442592
126	0xbd40aba5	-0.047038693
127	0xbc9bf028	-0.019035414
128	0x3e309f2e	0.17248222
129	0x3df7e3af	0.12103974
130	0x3dbb9b4d	0.09160481
131	0xbe2365bb	-0.15956776
132	0xbdf73922	-0.12071444
133	0xbdd54915	-0.1041433
134	0xbe2cb9f5	-0.16867812
135	0xbb89d362	-0.004206107
136	0xbe11a435	-0.14222796
137	0x3e037248	0.12836564
138	0x3dbc69d5	0.09199873
139	0xbdd67ff6	-0.10473625
140	0xbde0a218	-0.10968417
141	0x3e1f026e	0.1552827
142	0xbd3bfa1c	-0.04589282
143	0x3c17e4d7	0.009270868
144	0x3dac4435	0.08411447
145	0x3d81b442	0.063332096
146	0xbcd6f1cc	-0.026238345
147	0x3d5b1496	0.05348643
148	0xbcf93b2f	-0.030423729
149	0xbdbc1a9e	-0.09184764
150	0xbdfc9209	-0.123325415
151	0xbdb7c43c	-0.089729756
152	0x3d467d10	0.048459113
153	0x3dcd0dff	0.10012435
154	0xbc303975	-0.010755886
155	0x3c6e5e9e	0.014548926
156	0x3d9ebd53	0.077509545
157	0xbceb644e	-0.028734352
158	0xbd3aefae	-0.045638733
159	0x3e1eded6	0.15514693
160	0xbd23f006	-0.040023826
161	0x3d18074b	0.03711633
162	0x3e009eb1	0.12560536
163	0xbd09974b	-0.03359155
164	0x3e21671a	0.15761986
165	0x3dd3840f	0.103279226
166	0xbe1c8144	-0.15283686
167	0xbc8218f7	-0.015881045
168	0xbd2902b4	-0.041262344
169	0xbe229de8	-0.15880549
170	0xbdd92b8a	-0.106040075
171	0x3cef9498	0.02924566
172	0xbe380dd7	-0.1797403
173	0x3db38d26	0.08767156
174	0x3e28a382	0.16468623
175	0xbdc2e35f	-0.09516024
176	0xbe32ee76	-0.17473778
177	0x3e2ee4ec	0.17079514
178	0x3d52bc87	0.051449325
179	0x3d86d569	0.065836735
180	0x3c3bd5da	0.01146456
181	0xbe0356db	-0.12826101
182	0xbe1d8a1a	-0.15384713
183	0xbdff83a3	-0.124762796
184	0x3d0104e5	0.03149881
185	0x3da41144	0.08011106
186	0x3e2838fb	0.16427986
187	0xbd0f9194	-0.035050943
188	0x3e2dfd06	0.16991052
189	0xbd95409c	-0.07287714
190	0x3d9b5b45	0.07585768
191	0x3c0998ca	0.008398244

bottleneck0.1.weight f4 [192]
0	0x3ef75c7c	0.48312747
1	0x3ed00c38	0.40634322
2	0x3e665377	0.22492777
3	0x3ecdd9f1	0.4020534
4	0x3f49046f	0.7852239
5	0x3fb84a23	1.4397625
6	0x3f04804d	0.5175827
7	0x3e9a801b	0.30175862
8	0x3f8c61a1	1.0967294
9	0x3f5e8d66	0.86934507
10	0x3f7acc85	0.9796832
11	0x3f719940	0.94374466
12	0x3f7166b8	0.9429736
13	0x3f0a2186	0.539574
14	0x3f930277	1.1485127
15	0x3d4f7703	0.050650608
16	0x3f8936ad	1.0719811
17	0x3fe09703	1.7546085
18	0x3e5d6651	0.21621062
19	0x3f82b86c	1.0212531
20	0x3b4dbb6d	0.0031392232
21	0x3ec4fbae	0.38473266
22	0x3f5ea235	0.8696626
23	0x3f05d910	0.52284336
24	0xbe026b89	-0.12736334
25	0x3ee9a4cd	0.45633546
26	0x3f404c09	0.7511602
27	0x3e819dfc	0.25315845
28	0x3928ef66	0.00016110911
29	0x3f60d73d	0.8782843
30	0x3e50e907	0.20401393
31	0x3f6888f5	0.9083398
32	0x3f96f50e	1.1793535
33	0x3fb08ba3	1.3792614
34	0x3ef325b1	0.47489694
35	0x3f4bc316	0.7959455
36	0x3f5e0346	0.86723745
37	0x3eeb5e4f	0.4597039
38	0x3c32ffc7	0.01092524
39	0x3ef73b82	0.48287588
40	0x3f38f183	0.7224352
41	0x3f288dab	0.6584117
42	0x3edb485f	0.42828652
43	0x3f0112bb	0.50419205
44	0x3ee4a60d	0.44657937
45	0x3f45f4e2	0.77326787
46	0x3e938a82	0.2881661
47	0xbc37edda	-0.011226142
48	0x3f4cf63e	0.80063236
49	0x3f246e38	0.6423068
50	0x3fb89d33	1.4422973
51	0x3f99b165	1.2007262
52	0x3ef4485b	0.47711453
53	0x3ee6fe9d	0.4511613
54	0xbc019282	-0.007908465
55	0x3e7cf9b6	0.24704632
56	0x3f3a06a8	0.72666407
57	0x3f823289	1.0171672
58	0x3f839e15	1.0282618
59	0x3f1012d0	0.56278706
60	0xbb867e6c	-0.004104426
61	0x3f47f402	0.781067
62	0x3f6dc970	0.92885494
63	0x3f45cdb6	0.77267015
64	0x3f1f71eb	0.622832
65	0x3fc0361c	1.5016513
66	0x3f14a7ca	0.58068526
67	0x3ea57d00	0.3232193
68	0x3f71c2d1	0.9443789
69	0x3f1ec011	0.6201182
70	0x3f43c102	0.7646638
71	0xba79ed1b	-0.00095339277
72	0x3f78ae93	0.9714138
73	0x3f085055	0.53247577
74	0x3f36456a	0.7119967
75	0x3f458dda	0.77169573
76	0x3ef558bb	0.47919258
77	0x3f03a8ea	0.5142962
78	0x3f5a7472	0.8533393
79	0x3ec6c44d	0.3882164
80	0x3f5ac665	0.85458976
81	0x3f3c39c8	0.7352567
82	0x3f355c23	0.70843714
83	0x3eeeb361	0.4662123
84	0xba22a167	-0.00062038604
85	0x3f52e538	0.8238101
86	0x3f32cb14	0.6984112
87	0x3f5ab318	0.85429525
88	0x3f9e11d4	1.2349191
89	0x3f355c62	0.7084409
90	0x3eae0bfb	0.33993515
91	0x3f58558c	0.84505534
92	0x3ee9755a	0.45597345
93	0x3f574c89	0.8410116
94	0x3fa4408a	1.2832196
95	0x3f610bbb	0.87908524
96	0x3ea76d24	0.32700455
97	0x3f2e43fa	0.68072474
98	0x3f42c809	0.7608648
99	0x3f1d8c4b	0.61542195
100	0x3f053fec	0.5205066
101	0x3f85ad02	1.0443423
102	0x3eb7dce6	0.3591072
103	0x3d077da1	0.033078793
104	0x3f65a696	0.89707315
105	0x3eae4828	0.34039426
106	0x3ce9731e	0.028497275
107	0x3f2e0115	0.679704
108	0x3fa94463	1.3223995
109	0x3f0dd61d	0.55404836
110	0x3f0f6b74	0.56023335
111	0x3f308dbe	0.6896628
112	0x3fa386e4	1.277554
113	0x3f15b9bd	0.5848654
114	0x3f2c7417	0.6736464
115	0x3ea79e36	0.32737893
116	0x3bbf7409	0.00584269
117	0x3fad4167	1.3535584
118	0x3f0b5394	0.54424405
119	0xbb4f7e27	-0.0031660886
120	0x3ee326f5	0.4436566
121	0x3e248916	0.16067919
122	0x3ff13532	1.8844359
123	0x3edc6a4e	0.43049854
124	0x3fa634d9	1.2984878
125	0x3f3bb540	0.7332344
126	0x3e36ec37	0.17863546
127	0x3f001d6a	0.5004488
128	0x3fa7bc22	1.3104289
129	0x3f15ecc5	0.58564407
130	0x3ec34a89	0.38142803
131	0x3f5949b3	0.8487808
132	0x3ed6f2fb	0.41982254
133	0x3f345b30	0.7045164
134	0x3fb525aa	1.4152119
135	0x3f46efd4	0.777097
136	0x3ee06611	0.4382787
137	0x3e9208f5	0.2852246
138	0x3ec19a8c	0.37813222
139	0x3f525d4e	0.8217362
140	0xbc492026	-0.012275731
141	0xbb0e2004	-0.0021686563
142	0x3ec2d556	0.38053387
143	0x3f09fe7b	0.5390393
144	0x3f954470	1.166151
145	0x3eb1f581	0.34757617
146	0x3fc528fc	1.5403132
147	0x3f14121f	0.5784015
148	0x3b543c40	0.0032384545
149	0x3eda3b80	0.4262352
150	0x3df383ce	0.11890374
151	0x3eb65f3b	0.3561953
152	0x3e95ad5b	0.29233822
153	0x3efb1684	0.49040616
154	0x3f58210e	0.8442544
155	0x3ead7931	0.33881524
156	0x3f28c5bd	0.65926725
157	0x3f3779d4	0.7167027
158	0x3ee54e5c	0.44786346
159	0x3f8cf3ef	1.1011943
160	0x3f8badf7	1.0912465
161	0x3f9b7648	1.2145472
162	0x3f1ecc55	0.62030536
163	0x3f97c1ec	1.1856055
164	0x3ee1951b	0.4405907
165	0x3f1edb4b	0.62053365
166	0x3ee2c56a	0.4429124
167	0x3da2c1db	0.07947131
168	0x3eeafaff	0.4589462
169	0x3f0481de	0.5176066
170	0x3f40729b	0.75174874
171	0x3f2921a2	0.66066945
172	0x3eabcd48	0.33555055
173	0x3fc24d8a	1.5179913
174	0x3f5303ef	0.8242788
175	0x3f07853f	0.5293769
176	0x3f437385	0.76348144
177	0xbec7b572	-0.3900562
178	0x3f337b6f	0.7011022
179	0x3e07359d	0.13204046
180	0x3f577822	0.84167683
181	0x3f4b6d5e	0.79463756
182	0x3d22b65b	0.03972469
183	0x3f2c8ff3	0.6740715
184	0xbb864a6c	-0.0040982272
185	0x3f124b14	0.5714581
186	0xbb32f9c0	-0.0027309507
187	0x3f224cd0	0.63398457
188	0x3f70846a	0.9395205
189	0x3f3935ba	0.72347605
190	0x3f31deda	0.6948067
191	0xb91ac9a6	-0.00014761704

bottleneck0.1.bias f4 [192]
0	0xbe609b0e	-0.21934149
1	0x3db5e67d	0.08881853
2	0x3bf5fc64	0.007506894
3	0x3d3385a3	0.043828618
4	0x3dd89099	0.10574455
5	0xbc7084ab	-0.014680068
6	0xbecfa423	-0.40554914
7	0x3da00534	0.078134924
8	0x3cb0b7fc	0.021572106
9	0xbdf301d4	-0.11865583
10	0x3d95b749	0.073103495
11	0x3d74dd64	0.059781447
12	0x3e61f83f	0.22067355
13	0x3e5e507f	0.21710394
14	0xbcab529f	-0.02091342
15	0xbebfc8fd	-0.3745803
16	0xbd159a80	-0.036524296
17	0xbd669cbe	-0.056301825
18	0xbe5e23e8	-0.21693385
19	0x3bbd11dc	0.0057699513
20	0xbccd5a48	-0.025067464
21	0x3e7ac22a	0.2448813
22	0xbe6f0fa7	-0.23345815
23	0x3df6ce9c	0.12051126
24	0x3ee3e60e	0.44511455
25	0xbcdfc0a4	-0.027313538
26	0xbdb9e141	-0.09076167
27	0xbead284e	-0.33819813
28	0xbc81dbb3	-0.015851831
29	0xbd9895a8	-0.0745042
30	0xbd6ba3a5	-0.05752911
31	0xbd3721a8	-0.04470983
32	0x3d6d442b	0.05792634
33	0x3e01b08c	0.12665004
34	0xbe94e663	-0.2908202
35	0xbe3e11c6	-0.18561468
36	0x39c50486	0.00037578138
37	0xbe47079b	-0.19436495
38	0x3f2128ec	0.62953067
39	0x3d9d6367	0.07684975
40	0xbe50dc9b	-0.20396654
41	0xbe30d5e6	-0.17269096
42	0x3e183c8b	0.14866845
43	0x3d936131	0.07196272
44	0xbd42a748	-0.047522813
45	0x3da901d2	0.082523
46	0x3df78c6c	0.1208733
47	0xbdf1be5f	-0.118038885
48	0xbb945936	-0.0045272363
49	0xbda08a05	-0.07838825
50	0x3d84aa8b	0.06477841
51	0xbda9120a	-0.08255394
52	0x3e3724de	0.17885157
53	0xbd897fa0	-0.06713796
54	0xbd9510b6	-0.07278578
55	0x3e03f0e1	0.12884857
56	0x3d229bab	0.039699238
57	0xbe1ed4fc	-0.15510935
58	0x3e185834	0.14877397
59	0xbe0766d7	-0.13222824
60	0xbd1c8cb0	-0.038220108
61	0x3de441de	0.11145376
62	0xbd51e7a3	-0.051246297
63	0x3d5c550a	0.053792037
64	0xbd081838	-0.03322622
65	0xbd26a1b7	-0.040681567
66	0xbde0c630	-0.10975301
67	0xbeb05109	-0.34436825
68	0x3d83319c	0.064059466
69	0x3e1d60c9	0.15368952
70	0x3c88cba8	0.016698673
71	0xbc4a1fdb	-0.0123366965
72	0xbe0458e7	-0.12924539
73	0xbd80bc53	-0.0628592
74	0xbe534f7f	-0.20635794
75	0x3dea93be	0.11453961
76	0x3e6e590c	0.23276156
77	0x3e6d539f	0.2317643
78	0xbc4f0eaf	-0.012637778
79	0x3da71351	0.08157981
80	0x3e196ba3	0.14982466
81	0x3e954b4f	0.29159018
82	0x3cd4a371	0.025956841
83	0xbe7e2733	-0.24819641
84	0xbc76b319	-0.015057349
85	0x3d2590ba	0.040421225
86	0xbcb1a06c	-0.02168294
87	0xbdb33782	-0.08750822
88	0xbc95b7e7	-0.018276168
89	0x3e3fb4fb	0.18721382
90	0x3e87211f	0.26392457
91	0x3cf836bd	0.030299539
92	0x3e64ed96	0.22356257
93	0xbe349ea3	-0.1763864
94	0xbdbc51b8	-0.09195274
95	0xbdab054d	-0.083506204
96	0x3eab875d	0.3350171
97	0x3e04aa72	0.12955645
98	0xbdc23453	-0.09482636
99	0x3d170365	0.03686847
100	0x3eadf599	0.3397644
101	0xbe2b0c42	-0.16703895
102	0xbe9f25cb	-0.3108352
103	0xbe80ae3d	-0.25132933
104	0xbd864b54	-0.065573364
105	0xbe857892	-0.2606855
106	0xbe892cf0	-0.26792097
107	0x3dda588b	0.106614195
108	0xbc58a99f	-0.013224035
109	0xbd0f5d26	-0.035000943
110	0xbe5e5eb2	-0.21715811
111	0xbead921a	-0.3390053
112	0xbdefb36a	-0.117041424
113	0xbe9b1b56	-0.30294293
114	0x3d6dc576	0.05804964
115	0x3e9c5856	0.30536145
116	0xbd7415a0	-0.059590936
117	0x3da4eacf	0.08052599
118	0x3d6bc5a6	0.05756154
119	0xbe8cc06a	-0.2749055
120	0x3e1bfe45	0.15233715
121	0xbe98d7b7	-0.29852077
122	0xbe04a57c	-0.12953752
123	0x3e4b3823	0.19845633
124	0xbd9884ff	-0.07447242
125	0xbeb51fda	-0.35375863
126	0x3b595f44	0.0033168355
127	0xbe07d191	-0.13263537
128	0xbe93bb0e	-0.2885365
129	0x3ce1f3be	0.027582046
130	0x3c2a47c7	0.01039309
131	0xbe199b57	-0.15000664
132	0x3e7b9507	0.24568568
133	0xbe3955a3	-0.18099074
134	0x3da6c89c	0.08143732
135	0xbe4d72fb	-0.20063393
136	0xbe861cdc	-0.26193893
137	0x3e6de7b1	0.23232915
138	0x3e386381	0.18006708
139	0xbe8fa37d	-0.2805442
140	0xbe6cb67e	-0.2311649
141	0xbd9f5432	-0.07779731
142	0x3e925728	0.2858212
143	0xbe4c6a1b	-0.19962351
144	0xbdf3b3e4	-0.11899546
145	0xbdc4d5cf	-0.09611093
146	0xbcb2b349	-0.021814005
147	0xbe2f6d16	-0.17131457
148	0xbe0b672c	-0.13613576
149	0xbeaddf57	-0.33959457
150	0x3eb6078c	0.35552633
151	0xbe9532c9	-0.29140308
152	0x3ea07ccc	0.31345212
153	0x3d8ab66b	0.06773075
154	0xbd749cbc	-0.059719786
155	0x3e092c05	0.13395698
156	0x3e54b86c	0.20773476
157	0xbdd4490e	-0.103654966
158	0x3ca5ab76	0.02022336
159	0x3d8a925a	0.067661956
160	0xbdf27da5	-0.11840371
161	0xbc6ce65e	-0.014459221
162	0x3d42a46f	0.047520097
163	0xbc8dc363	-0.017305082
164	0xbdd569b9	-0.104205556
165	0xbea40861	-0.32037643
166	0x3df45466	0.1193016
167	0x3edcd027	0.43127558
168	0x3e9a4431	0.3013015
169	0xbe351d2c	-0.1768691
170	0xbde1a4be	-0.1101775
171	0xbba68257	-0.0050814557
172	0x3e0daf87	0.1383649
173	0xbccfb389	-0.025354164
174	0xbd038f63	-0.032119166
175	0x3e533126	0.20624217
176	0x3dddfd8c	0.10839376
177	0x3dd9b255	0.10629717
178	0x3e9086af	0.28227755
179	0x3e9dbe53	0.30809268
180	0x3d96bbc2	0.07360031
181	0x3e0d89c6	0.13822088
182	0x3ee99953	0.4562479
183	0x3e4e58f3	0.20151119
184	0xbd55f1c4	-0.05223252
185	0xbd0b54f3	-0.03401656
186	0xbc69526c	-0.014240842
187	0xbd8821f3	-0.066471
188	0x3d8f6728	0.07002097
189	0xbe1c6509	-0.15272917
190	0xbe5831e8	-0.21112788
191	0x3e9b6dd9	0.30357245
