TradingGym/TradingGym_7600.pth (torch_old, 700040 bytes, 52 tensors)

conv0.0.weight f4 [256, 1]
0	0x3f535cfb	0.8256375
1	0x3f48e937	0.7848086
2	0x3f78819d	0.97072774
3	0x3f707ca7	0.93940204
4	0x3f9e6954	1.2375894
5	0x3f99c010	1.2011738
6	0x3f1b90e8	0.60767984
7	0x3f815d61	1.0106622
8	0x3f6f8f0e	0.9357766
9	0x3f6e1a03	0.9300844
10	0x3f846b3a	1.0345223
11	0x3f81dadc	1.0144916
12	0x3f7c0af6	0.98454225
13	0x3f5316e0	0.8245678
14	0x3f264434	0.6494782
15	0x3f96082a	1.1721241
16	0x3f23a3a4	0.6392157
17	0x3f8da33d	1.1065441
18	0x3f28d9a9	0.65957123
19	0x3f909989	1.1296855
20	0x3fccbebc	1.5995708
21	0x3f8c0823	1.0939983
22	0x3f6bb9fc	0.92080665
23	0x3f91e6d8	1.1398573
24	0x3f85f0ea	1.0464146
25	0x3f85cc03	1.0452884
26	0x3f8c807b	1.0976709
27	0x3f86ee3c	1.0541453
28	0x3f87db4e	1.0613801
29	0x3f6b251a	0.9185349
30	0x3f5cd1b9	0.8625751
31	0x3fc8f11c	1.5698581
32	0x3f4331b1	0.762477
33	0x3f82cfea	1.02197
34	0x3f699fdd	0.91259557
35	0x3f87148a	1.0553143
36	0x3fabd716	1.3425014
37	0x3f8ae0d3	1.0849861
38	0x3f638226	0.88870466
39	0x3f633604	0.88754296
40	0x3f8b7bab	1.0897115
41	0x3f4c99f0	0.7992239
42	0x3f953b09	1.1658641
43	0x3f8ce4c9	1.100732
44	0x3f6913b7	0.9104571
45	0x3f69cb79	0.913261
46	0x3f7614c3	0.9612543
47	0x3fc1687d	1.5110012
48	0x3f32d035	0.6984895
49	0x3f8e4e0d	1.1117569
50	0x3f6bfc4f	0.9218187
51	0x3f643bb9	0.8915363
52	0x3fcc85bf	1.5978316
53	0x3f845ac6	1.0340202
54	0x3f980831	1.18775
55	0x3f88051d	1.062656
56	0x3f4efcda	0.8085457
57	0x3f9186df	1.1369284
58	0x3f804ca4	1.0023389
59	0x3f893ab6	1.0721042
60	0x3f286f19	0.6579452
61	0x3f8616df	1.047573
62	0x3f854c43	1.0413898
63	0x3fa18582	1.2618868
64	0x3f581dd4	0.84420514
65	0x3f9f6637	1.2453068
66	0x3f898937	1.0745
67	0x3f6a7faf	0.9160108
68	0x3f9a3ed8	1.2050428
69	0x3f91c0aa	1.1386921
70	0x3fa2585e	1.2683218
71	0x3f74fda6	0.95699537
72	0x3f869601	1.0514528
73	0x3f9699a6	1.176564
74	0x3f86e00b	1.0537122
75	0x3f96cb55	1.1780802
76	0x3f452452	0.77008545
77	0x3f8a76fb	1.081756
78	0x3f89f6ab	1.0778402
79	0x3f8ce555	1.1007487
80	0x3f4eae77	0.8073496
81	0x3fb9e714	1.4523644
82	0x3f773872	0.96570504
83	0x3f7515f9	0.9573665
84	0x3f982297	1.1885556
85	0x3f826895	1.0188166
86	0x3fb3a6ad	1.403524
87	0x3f5c5c4e	0.86078346
88	0x3f822a2f	1.0169123
89	0x3f87fd4d	1.0624176
90	0x3f9416be	1.156944
91	0x3f7ac334	0.97954106
92	0x3f3cc939	0.7374454
93	0x3fb0c71b	1.3810762
94	0x3f8e346a	1.1109746
95	0x3f9e4d2f	1.2367305
96	0x3f7af566	0.980307
97	0x3f8c47f4	1.0959458
98	0x3f6a4e9e	0.9152621
99	0x3f67c153	0.90529364
100	0x3f99e177	1.2021931
101	0x3f915fab	1.135732
102	0x3f88c72a	1.068578
103	0x3fa65cc5	1.2997061
104	0x3f4e14a3	0.8050024
105	0x3f06253d	0.5240057
106	0x3f9c00f3	1.218779
107	0x3f9390bd	1.1528546
108	0x3f297da8	0.6620736
109	0x3fa8ba49	1.318185
110	0x3f3232c1	0.69608694
111	0x3f972bfe	1.18103
112	0x3f6607aa	0.89855444
113	0x3f901943	1.1257709
114	0x3f828788	1.0197611
115	0x3f93eba1	1.1556283
116	0x3fa5a1c5	1.2939993
117	0x3f82fb5b	1.0232958
118	0x3f3b78fa	0.7323147
119	0x3fa6b87c	1.302505
120	0x3f93e86a	1.1555302
121	0x3f62703d	0.8845251
122	0x3f97347d	1.1812893
123	0x3f9c2167	1.2197694
124	0x3f2df0dd	0.67945653
125	0x3faaae8e	1.333452
126	0x3f835cee	1.0262735
127	0x3f9619d1	1.1726629
128	0x3f6e950e	0.9319619
129	0x3f758a0e	0.9591378
130	0x3f90eb43	1.1321796
131	0x3f4ffbb3	0.8124344
132	0x3f178308	0.5918431
133	0x3f851bfa	1.0399163
134	0x3f24af2f	0.6432981
135	0x3fabaf0b	1.3412794
136	0x3f9a0008	1.203126
137	0x3f4bc99a	0.79604495
138	0x3fa81e23	1.3134197
139	0x3f8e646e	1.1124399
140	0x3e9589dc	0.2920674
141	0x3fa048c1	1.2522203
142	0x3f820672	1.0158217
143	0x3f4ae565	0.7925628
144	0x3f867f2d	1.0507561
145	0x3f9f44c9	1.2442867
146	0x3f82c19a	1.0215333
147	0x3f82f6ea	1.0231602
148	0x3f807c81	1.0037996
149	0x3f919203	1.1372684
150	0x3f654372	0.8955604
151	0x3f9c61d6	1.2217357
152	0x3f836c86	1.0267494
153	0x3f6b36f6	0.9188074
154	0x3fac574b	1.346414
155	0x3fab234f	1.337015
156	0x3f546900	0.8297272
157	0x3f96144d	1.1724945
158	0x3f87b006	1.0600593
159	0x3f7a760a	0.97836363
160	0x3f836aab	1.0266927
161	0x3f987b42	1.1912615
162	0x3f9f2044	1.2431722
163	0x3f8d59d1	1.1043035
164	0x3ef7a810	0.4837041
165	0x3f806503	1.0030826
166	0x3f2e796e	0.68154037
167	0x3f8d8548	1.1056299
168	0x3f38af55	0.72142535
169	0x3f5d6637	0.8648409
170	0x3faed0cd	1.3657471
171	0x3fa396dd	1.2780415
172	0x3f8de095	1.1084162
173	0x3fa1aa4b	1.2630094
174	0x3f826e01	1.018982
175	0x3f6b2ecf	0.918683
176	0x3f8de4a1	1.1085397
177	0x3f82540d	1.01819
178	0x3f61ef2a	0.8825556
179	0x3f5d37b6	0.86413133
180	0x3f701833	0.93786925
181	0x3f9740a0	1.1816597
182	0x3f728fbe	0.94750583
183	0x3f6b6cd7	0.9196295
184	0x3f4b29c7	0.7936062
185	0x3f6b5e20	0.919405
186	0x3f991c58	1.1961775
187	0x3f97d54e	1.186197
188	0x3f91d802	1.1394045
189	0x3f9ba90c	1.2160964
190	0x3f74facc	0.95695186
191	0x3f66956a	0.9007174
192	0x3f937773	1.1520828
193	0x3f6a4dd8	0.9152503
194	0x3f6dc336	0.92875993
195	0x3f9704d3	1.1798347
196	0x3f690ad0	0.91032124
197	0x3fb866a9	1.4406329
198	0x3f51386c	0.8172672
199	0x3f5d2da7	0.86397785
200	0x3f575460	0.8411312
201	0x3f731c7b	0.9496533
202	0x3f8497b9	1.0358802
203	0x3f79be88	0.9755635
204	0x3f729938	0.94765043
205	0x3f99a5a9	1.200368
206	0x3f9adbe4	1.2098355
207	0x3f711ecc	0.9418762
208	0x3fa0098b	1.2502912
209	0x3f4eef57	0.80833954
210	0x3fa635b5	1.298514
211	0x3f9965be	1.1984174
212	0x3f876b0c	1.0579543
213	0x3fa6ae96	1.3022029
214	0x3f5eb2d3	0.86991614
215	0x3f628bb1	0.884944
216	0x3fa7c3d1	1.3106633
217	0x3f5f6bc7	0.8727383
218	0x3f7d0e7d	0.9885023
219	0x3f621525	0.88313514
220	0x3fa00cbf	1.250389
221	0x3f746f98	0.9548278
222	0x3f92b186	1.1460426
223	0x3f6fda9b	0.9369294
224	0x3fa3468d	1.2755905
225	0x3ef5c6d1	0.48003247
226	0x3f8e2b73	1.110701
227	0x3f979a5f	1.1843985
228	0x3f6b9b43	0.92033786
229	0x3f904409	1.1270763
230	0x3fb40525	1.406407
231	0x3f6a44ef	0.91511434
232	0x3f8468fd	1.034454
233	0x3f59098f	0.8478021
234	0x3f98fcf2	1.1952193
235	0x3f2e41c4	0.680691
236	0x3fb4613c	1.4092174
237	0x3f855585	1.0416723
238	0x3f88644e	1.065561
239	0x3f72008f	0.945321
240	0x3fbddbb2	1.4832671
241	0x3f35632f	0.7085447
242	0x3f69949b	0.9124238
243	0x3f96ffa7	1.1796769
244	0x3f929a86	1.1453407
245	0x3f3627f7	0.7115473
246	0x3fb84b20	1.4397926
247	0x3f845578	1.0338583
248	0x3f942cda	1.1576188
249	0x3f3ef980	0.74599457
250	0x3fa66adc	1.3001361
251	0x3f135886	0.5755695
252	0x3ef74387	0.48293707
253	0x3ed5f048	0.41784883
254	0x3fe38b8d	1.7776963
255	0x40046cc9	2.0691397

conv0.0.bias f4 [256, 1]
0	0x3d1b27c7	0.03787973
1	0x3d6661d2	0.056245632
2	0x3e09bbd6	0.1345056
3	0x3e5aa753	0.21352892
4	0x3cb7ab37	0.022420509
5	0x3e519094	0.20465308
6	0x3dbc5c22	0.091972604
7	0x3d9a4fd0	0.07534754
8	0x3ef6e3d1	0.48220685
9	0x3e6b553e	0.22981736
10	0x3e74e984	0.23917204
11	0x3e105e60	0.14098501
12	0x3e055186	0.1301938
13	0x3ec2b3e2	0.38027865
14	0xbc91dfa8	-0.017806843
15	0x3e3536f5	0.17696746
16	0xbe696d9f	-0.22795723
17	0xbc3eaae0	-0.011637419
18	0xbd527a58	-0.051386207
19	0x3e2a0ad8	0.16605699
20	0x3e086c3e	0.13322541
21	0x3d9ce04e	0.0765997
22	0xbbffbadd	-0.0078042583
23	0x3e10036a	0.14063802
24	0x3de1594d	0.11003361
25	0x3e971005	0.2950441
26	0x3e50ce86	0.20391282
27	0x3e753ad5	0.23948224
28	0x3e10b296	0.14130625
29	0x3e6947d1	0.22781302
30	0x3e7cffbe	0.24706933
31	0x3e8b79d0	0.27241373
32	0x3b83b9fa	0.004019973
33	0x3d3c7404	0.04600908
34	0x3d8ddd08	0.06926924
35	0x3e690466	0.22755584
36	0xbc244c69	-0.010027983
37	0x3c8d91bf	0.017281411
38	0x3e4232d6	0.18964705
39	0xbcecae1e	-0.02889162
40	0xbe218c99	-0.1577629
41	0x3e32920d	0.17438526
42	0x3e349d70	0.17638183
43	0x3e2c24b7	0.1681088
44	0x3dd3437b	0.10315605
45	0x3e179ee5	0.14806707
46	0x3e89dab5	0.26924673
47	0x3e5d3f5a	0.21606198
48	0xbd9ffad7	-0.07811516
49	0xbb9cf5b9	-0.0047900346
50	0x3d163537	0.036671843
51	0x3e301952	0.17197159
52	0xbd98002f	-0.0742191
53	0x3e064d94	0.13115531
54	0x3e138f2c	0.14410084
55	0xbca29f16	-0.019851249
56	0xbc6c91e5	-0.014439081
57	0x3e51ddbe	0.20494744
58	0x3dbf7a37	0.093494825
59	0x3d2fe818	0.04294595
60	0xbe049d6f	-0.12950681
61	0xbe0a4622	-0.13503316
62	0x3e0040f9	0.12524785
63	0x3da8e42d	0.08246646
64	0x3e130f19	0.14361228
65	0xbc4452ac	-0.011982601
66	0xbd2098ac	-0.0392081
67	0x3d98e4d5	0.07465521
68	0xbcdb6dd6	-0.026785772
69	0xbdf97b9f	-0.12181782
70	0x3e6f37a3	0.23361067
71	0x3c937f09	0.018004911
72	0xbd1417d1	-0.036155526
73	0x3de50d02	0.11184122
74	0x3d83e286	0.0643969
75	0x3808dee9	3.2632528e-05
76	0x3d06fe4b	0.032957356
77	0xbd802965	-0.062578954
78	0xbdb59694	-0.08866611
79	0x3e2788cc	0.16360778
80	0x3dd998a9	0.10624821
81	0x3e0469a3	0.12930922
82	0x3d6ce473	0.057835054
83	0x3dc55032	0.09634437
84	0xbde762e2	-0.11298157
85	0xbd897e8f	-0.06713592
86	0x3dbd6e4b	0.09249552
87	0xbcecac77	-0.028890831
88	0xbe403660	-0.18770742
89	0xbd194948	-0.037423402
90	0x3ec62a69	0.3870423
91	0xbd0f44cb	-0.034977715
92	0xbc8b4715	-0.017001668
93	0xbe34faa8	-0.17673743
94	0xbc2dfb06	-0.010618931
95	0x3dcffbf1	0.10155476
96	0x3d27c970	0.04096359
97	0xbe06691f	-0.13126038
98	0x3cffe20c	0.031235717
99	0xbd91ed59	-0.071253486
100	0x3d26f354	0.0407594
101	0x3bf59f87	0.007495824
102	0xbe1b2447	-0.15150557
103	0xbd83b26c	-0.06430516
104	0xbef45225	-0.4771892
105	0x3e2a15a0	0.16609812
106	0x3ded83dd	0.115974165
107	0x3d2108db	0.039315086
108	0x3e2bff92	0.16796711
109	0xbe8d8efc	-0.2764815
110	0xbdac64af	-0.08417641
111	0x3e0196c4	0.12655169
112	0x3e3c9358	0.18415582
113	0x3d32b78c	0.043632075
114	0x3e4bb7e6	0.1989437
115	0xbcb3167e	-0.021861311
116	0xbcbe305c	-0.023216419
117	0xbe83f787	-0.25774786
118	0xbe89ad32	-0.2688995
119	0xbc3d31ef	-0.01154755
120	0xbe9a90a6	-0.30188483
121	0x3de1cb7c	0.1102514
122	0x3e611325	0.2197996
123	0x3d838cab	0.06423315
124	0xbdcca120	-0.0999167
125	0xbe2187e3	-0.15774493
126	0x3b974feb	0.0046176813
127	0x3d679287	0.056536224
128	0x3dffdde9	0.12493498
129	0x3ddf3ee6	0.10900669
130	0xbcb910e5	-0.022591064
131	0x3def42b4	0.116826445
132	0xbe31a69b	-0.17348711
133	0x3e39ca3b	0.18143551
134	0xbdf568b2	-0.1198286
135	0xbe2a3851	-0.16623046
136	0xbeb7b768	-0.35882115
137	0x3e50ae5e	0.20379016
138	0x3eabd203	0.33558664
139	0xbc754ea1	-0.01497236
140	0xbdf3628b	-0.1188403
141	0xbe3cf219	-0.18451728
142	0xbdeb7789	-0.11497409
143	0xbd920d19	-0.071314044
144	0x3ba97b32	0.0051721567
145	0x3db2629f	0.08710217
146	0xbd1464c8	-0.036228925
147	0x3cd35503	0.025797373
148	0x3ea73f43	0.32665452
149	0xbe149624	-0.14510399
150	0xbd79a877	-0.060951676
151	0xbe44e5f8	-0.19228351
152	0xbe35eeae	-0.1776683
153	0xbd98e3d3	-0.07465329
154	0x3d83c874	0.06434718
155	0x3e08d631	0.13362958
156	0xbcbc1858	-0.022960827
157	0xbe3425eb	-0.1759259
158	0xbdd3414b	-0.10315188
159	0xbdd05c11	-0.1017381
160	0x3d443989	0.047906432
161	0xbcc4f17a	-0.024040926
162	0x3da1389b	0.07872125
163	0xbd8e47c5	-0.06947283
164	0xbe6af0b3	-0.22943382
165	0xbe9ed2fe	-0.3102035
166	0x3e37aab8	0.17936218
167	0xbe7d3aff	-0.24729536
168	0x3cec2917	0.028828187
169	0xbdd82682	-0.1055422
170	0x3e000241	0.1250086
171	0x3d9570d7	0.07296913
172	0x3e8c2200	0.2736969
173	0xbdcae72b	-0.09907373
174	0xbd4093e7	-0.04701605
175	0xbe0fd4e7	-0.1404606
176	0xbe28d42a	-0.16487184
177	0xbbedf428	-0.0072617717
178	0xbd4ac99e	-0.049508683
179	0xbe996bfc	-0.29965198
180	0x3e1e8ec6	0.15484151
181	0x3d76afda	0.0602263
182	0x3d90a7b8	0.0706324
183	0xbe3e91f9	-0.18610372
184	0x3df98081	0.12182713
185	0xbe2ec5bb	-0.17067616
186	0xbe648c4a	-0.22319141
187	0x3d3736ab	0.04472987
188	0x3eca808d	0.395512
189	0xbbc3b2aa	-0.005972226
190	0xbed743c9	-0.42043903
191	0xbeb3fff2	-0.35156208
192	0xbebbd439	-0.3668535
193	0xbdcbc933	-0.09950485
194	0xbd12e5db	-0.03586374
195	0xbe7130ff	-0.23553847
196	0xbda5bf3c	-0.08093116
197	0x3bd47806	0.0064840345
198	0x3dcca3ff	0.09992217
199	0xbe465e0f	-0.19371818
200	0x3dda0d6c	0.10647091
201	0xbe80cc60	-0.25155926
202	0xbef7973a	-0.48357564
203	0xbd31d4eb	-0.043415945
204	0x3efbc703	0.4917527
205	0xbd1f84c5	-0.03894498
206	0xbead3e70	-0.338367
207	0xbe94126b	-0.28920302
208	0xbe902fb4	-0.28161395
209	0xbceaf797	-0.028682513
210	0xbe2e08fc	-0.16995615
211	0xbe7a808b	-0.24463098
212	0xbd9a1e7c	-0.07525346
213	0x3dafaed4	0.08578268
214	0xbe102ba1	-0.14079143
215	0xbd79675a	-0.06088958
216	0x3e5f696a	0.21817556
217	0xbe61999f	-0.22031258
218	0xbeed4ebf	-0.4634914
219	0xbdb95e22	-0.090511575
220	0x3d8f1d13	0.06987967
221	0xbe1b69c1	-0.1517706
222	0xbe0078f3	-0.12546138
223	0xbd0ba380	-0.034091473
224	0xbde877bb	-0.11350962
225	0x3e3bb1cb	0.18329541
226	0x3d9c4829	0.07630951
227	0xbe25d3cd	-0.16194077
228	0xbd8afd01	-0.06786538
229	0x3d540c1b	0.051769357
230	0xbe412394	-0.18861228
231	0xbe365539	-0.17805947
232	0xbdd2c679	-0.10291762
233	0xbeda4259	-0.42628744
234	0x3c205a94	0.0097872205
235	0xbe5543e8	-0.20826685
236	0x3c2bbe0e	0.010482324
237	0xbdaa9dde	-0.08330892
238	0xbdfdefde	-0.12399267
239	0x3e103dac	0.14086026
240	0xbe43f909	-0.19137968
241	0x3e3b6257	0.18299232
242	0x3d5d8001	0.054077152
243	0x3e437f94	0.19091636
244	0x3d519f0a	0.051177062
245	0x3ba374d4	0.004988292
246	0xbe877737	-0.2645814
247	0xbd134cc4	-0.03596188
248	0x3d971d07	0.073785834
249	0x3e95fe0b	0.29295382
250	0x3dfb702e	0.12277256
251	0xbe7a9291	-0.24469973
252	0xbe8bd15d	-0.2730817
253	0xbe1da696	-0.15395579
254	0x3e9c274a	0.30498725
255	0x3f03c4a6	0.51471937

conv0.1.weight f4 [32, 16, 3, 1]
0	0x3dc63178	0.09677404
1	0x3dee73b2	0.11643161
2	0x3b60cdeb	0.0034302424
3	0xbe517020	-0.20452929
4	0xbdb66d05	-0.089075126
5	0x3dd78d17	0.105249576
6	0x3c587f9d	0.013214019
7	0x3cd50bc6	0.02600659
8	0xbbfd933e	-0.0077385
9	0x3d21b3cc	0.03947811
10	0x3e4bec7a	0.19914427
11	0x3dca536d	0.098791935
12	0x3e710a92	0.23539189
13	0x3c8908d9	0.016727852
14	0xbe8a9628	-0.27067685
15	0xbd57ac3f	-0.0526545
16	0x3ca603c1	0.020265462
17	0x3ec57ba5	0.38570896
18	0x3e0a145c	0.13484329
19	0x3e24dc8f	0.16099761
20	0x3e6c0ca0	0.23051691
21	0xbd5aea20	-0.053445935
22	0xbbfc4257	-0.007698338
23	0x3d1b44a2	0.03790725
24	0x3eaa8b9f	0.33309647
25	0xbccc4332	-0.024934385
26	0x3da141ac	0.07873854
27	0xbf065226	-0.524691
28	0xbf59306a	-0.848395
29	0xbf1acc2d	-0.604678
30	0xbed82ede	-0.42223257
31	0xbf7fd328	-0.99931574
32	0xbef95f71	-0.4870563
33	0x3d1c9414	0.038227156
34	0xbc5e44cf	-0.01356621
35	0x3e01da05	0.12680824
36	0x3d6bcca3	0.057568204
37	0x3d870594	0.06592861
38	0xbe21ab31	-0.1578796
39	0xbd8cc8ad	-0.06874213
40	0x3c754300	0.014969587
41	0x3d75b825	0.059990067
42	0xbe072b45	-0.132001
43	0x3f25283e	0.6451453
44	0xbd829b1b	-0.0637724
45	0xbe5062ec	-0.20350236
46	0x3d5b420f	0.053529795
47	0xbed12ae1	-0.40853027
48	0x3cb441a0	0.022003949
49	0xbe473e4b	-0.19457357
50	0x3c941fb7	0.018081529
51	0x3cbeb6e2	0.023280565
52	0x3cb3428f	0.021882324
53	0xbe651bc7	-0.22373877
54	0xbe04c52d	-0.12965842
55	0xbdaa5da0	-0.08318639
56	0xbe7bf6a6	-0.24605808
57	0x3d4129a4	0.047158852
58	0x3cf75baf	0.030195085
59	0xbe61130e	-0.21979925
60	0xbec3aa15	-0.382157
61	0x3ebc904e	0.36828846
62	0xbe564a18	-0.20926702
63	0x3f2e4ad0	0.68082905
64	0x3bfe5bfa	0.0077624293
65	0xbe78fe52	-0.24315766
66	0xbe38847e	-0.18019292
67	0xbd032dc5	-0.03202607
68	0xbd055760	-0.03255403
69	0x3e75e4a2	0.24012998
70	0x3cf25e02	0.029585842
71	0x3e4a5a92	0.19761112
72	0x3e4c4084	0.19946486
73	0x3ea8e29a	0.32985383
74	0x3e5f7dc9	0.21825327
75	0x3e837d88	0.2568171
76	0xbe04ea8a	-0.12980095
77	0x3d459189	0.048234496
78	0x3eae9803	0.3410035
79	0xbdf030a0	-0.117280245
80	0x3e6a1377	0.22858988
81	0x3c81e1a9	0.015854673
82	0xbd851cab	-0.064996086
83	0x3e2b907e	0.16754338
84	0xbe8b9c71	-0.27267793
85	0x3e5db79d	0.21652074
86	0x3debbeb8	0.11510986
87	0xbefbd0cf	-0.49182746
88	0xbefe5525	-0.49674335
89	0xbf083179	-0.5320049
90	0xbce803ae	-0.028322067
91	0x3e4595ea	0.19295469
92	0x3d813066	0.063080594
93	0x3d3b757b	0.045766335
94	0x3de67a4a	0.112537935
95	0xbe3151fd	-0.17316432
96	0xbdb0b583	-0.086283706
97	0xbcad7334	-0.021173097
98	0x3d832f5f	0.0640552
99	0x3dbf3beb	0.093376
100	0xbdc3a188	-0.09552294
101	0x3d83b6c8	0.06431347
102	0x3e1d71cb	0.1537544
103	0x3e6330c5	0.22186573
104	0x3e73717c	0.2377376
105	0xbe39f861	-0.18161155
106	0xbe93cf54	-0.28869116
107	0xbed8a81f	-0.42315766
108	0xbf08183e	-0.5316199
109	0xbd24eabd	-0.040262926
110	0x3d4a8975	0.049447495
111	0x3ec1dc84	0.37863553
112	0xbe472252	-0.19446686
113	0xbde26cb7	-0.11055892
114	0xbd126a59	-0.035745952
115	0xbe427191	-0.18988635
116	0x3d3df079	0.04637191
117	0x3ed63027	0.41833612
118	0xbdac0221	-0.083988436
119	0x3d042467	0.03226128
120	0xbf1b7f7d	-0.60741407
121	0xbf16fc82	-0.58979046
122	0xbf07a323	-0.529833
123	0x3e41c2f7	0.1892203
124	0x3e20be6e	0.15697643
125	0x3d0b3a22	0.033990987
126	0xbe32989a	-0.17441025
127	0x3dd981ec	0.10620484
128	0xbed75af0	-0.42061567
129	0xbe0b1468	-0.13582003
130	0x3dd2f4db	0.10300609
131	0xbd545b88	-0.051845104
132	0xbe67d8f2	-0.22641352
133	0x3dc24c18	0.0948717
134	0x3df0bfe5	0.11755351
135	0x3dacd3d6	0.08438842
136	0x3dfeb203	0.12436297
137	0xbd833577	-0.06406682
138	0xbe4a3559	-0.19746913
139	0xbd889d73	-0.06670656
140	0xbdb0c08c	-0.086304754
141	0x3eaaff8c	0.33398092
142	0x3ea8bed1	0.3295808
143	0x3e48eaaf	0.19620775
144	0xbc94c69e	-0.018161114
145	0xbe3cff99	-0.18456878
146	0xbdc2a130	-0.095034
147	0xbe3c4b92	-0.18388203
148	0x3db82509	0.08991439
149	0x3e20b087	0.1569234
150	0x3ef949d2	0.48689133
151	0x3ec9f989	0.39448193
152	0x3eb00586	0.34379214
153	0x3d5afdc1	0.053464655
154	0x3ca87dd1	0.020567806
155	0x3e584395	0.2111953
156	0xbe06f523	-0.1317945
157	0x3df4da9f	0.11955761
158	0xbd4c3bae	-0.049861602
159	0xbe3bda24	-0.18344933
160	0x3c6006a3	0.013673457
161	0x3cd2d4c7	0.025736226
162	0xbd4edd53	-0.05050404
163	0xbd8f2c5f	-0.06990885
164	0xbe25064d	-0.16115685
165	0xbd11d23f	-0.035600897
166	0x3dbda799	0.09260482
167	0x3e934f4b	0.28771433
168	0x3e9d8ed6	0.30773038
169	0x3ea3c049	0.3198264
170	0x3efaf0e2	0.49011904
171	0x3d843716	0.06455819
172	0x3ed1e1aa	0.4099248
173	0x3e720693	0.2363532
174	0x3f022604	0.5083926
175	0x3f0a3400	0.53985596
176	0x3f2793fd	0.6546019
177	0xbdf33f41	-0.11877299
178	0xbe551bda	-0.20811406
179	0xbd25c4cc	-0.040470883
180	0xbe6d783a	-0.23190394
181	0xbedf2ad4	-0.43587363
182	0xbe0bd0cd	-0.1365387
183	0xbde135b6	-0.10996573
184	0x3ea41b9a	0.32052308
185	0x3d416774	0.0472178
186	0x3e774fad	0.24151488
187	0x3e539f2f	0.20666192
188	0x3ea51221	0.32240394
189	0xbe91b943	-0.28461656
190	0xbe1a7b33	-0.1508606
191	0xbe5a5c42	-0.21324256
192	0x3dd164ad	0.102242805
193	0x3e318cdf	0.17338894
194	0x3d742faf	0.059615787
195	0xbe17c98c	-0.14822978
196	0xbbb97d32	-0.0056606764
197	0x3e327b11	0.17429759
198	0xbd98047f	-0.074227326
199	0x3ea0772a	0.31340915
200	0x3d7ac5d4	0.06122382
201	0xbe9652c1	-0.2936001
202	0xbe2129b5	-0.15738566
203	0xbe9469c4	-0.28986943
204	0xbe966626	-0.29374808
205	0xbe98c4d4	-0.29837668
206	0x3e62270b	0.22085206
207	0x3eabf353	0.3358408
208	0x3e714009	0.23559584
209	0x3bc3e0ce	0.0059777265
210	0x3d8e6853	0.06953492
211	0xbe2e4496	-0.17018351
212	0xbe284398	-0.16432035
213	0x3eb89bb8	0.36056304
214	0xbf473cec	-0.77827334
215	0x3e576e2f	0.21038125
216	0xbd862943	-0.06550839
217	0xbb209a26	-0.0024505942
218	0x3dc05473	0.093911074
219	0x3e517bf8	0.20457447
220	0x3da1f74b	0.079084955
221	0xbee1d103	-0.44104776
222	0x3da7c947	0.081926875
223	0xbcb72bfe	-0.022359844
224	0xbebed0fb	-0.37268814
225	0x3dc1d5a7	0.09464579
226	0x3e251180	0.16119957
227	0x3cfde731	0.03099403
228	0xbec6e25f	-0.38844582
229	0x3f043e78	0.5165782
230	0x3ea4acd0	0.32163095
231	0x3e20a34c	0.15687293
232	0xbde11478	-0.10990232
233	0xbed36dff	-0.41294858
234	0x3ecacc31	0.3960891
235	0x3e939c4d	0.28830186
236	0xbe4616ee	-0.19344684
237	0x3ddc6fa7	0.107634835
238	0xba6cb05d	-0.0009028966
239	0xbe742ad4	-0.23844463
240	0x3dd05cf7	0.10173982
241	0xbb639d62	-0.0034731259
242	0xbdca6b23	-0.09883716
243	0x3e753b3e	0.2394838
244	0x3e6a75db	0.22896521
245	0x3d8bf949	0.06834657
246	0x3c7e9309	0.015537986
247	0xbe95a04a	-0.29223853
248	0xbf0a09f7	-0.53921455
249	0x3edcf955	0.43158975
250	0xbddeb385	-0.108740844
251	0xbe4cd92f	-0.20004724
252	0x3eca2e63	0.39488515
253	0x3ebf1508	0.37320733
254	0x3e8dd8cd	0.27704468
255	0xbd777925	-0.060418267

conv0.1.bias f4 [32]
0	0xbccdd02a	-0.025123674
1	0xbd829985	-0.06376938
2	0xbdb37d06	-0.08764081
3	0x3dbb200a	0.0913697
4	0xbcfd8190	-0.03094557
5	0x3d79d8c9	0.060997758
6	0xbc873849	-0.016506331
7	0xbd6a2cee	-0.057171755
8	0x3d5f35ce	0.05449467
9	0xbd0fc0dc	-0.035096034
10	0x3d83ed15	0.06441704
11	0xbd9cfa93	-0.07664981
12	0xbdca7c52	-0.098869935
13	0x3b39183e	0.002824321
14	0x3df4b118	0.119478405
15	0xbdf66496	-0.12030904
16	0x3e1736cf	0.14767002
17	0xbd6d3631	-0.05791301
18	0x3db927df	0.09040808
19	0xbda75c45	-0.08171896
20	0x3dae3ac2	0.08507301
21	0xbcda9a1d	-0.026684815
22	0xbe0c7c43	-0.13719277
23	0xbe042c12	-0.12907436
24	0x3e0ec390	0.13941789
25	0xbdf94dd5	-0.121730484
26	0xbdb84eb7	-0.08999389
27	0xbdb680b1	-0.08911265
28	0x3b673435	0.003527892
29	0xbe117eb2	-0.14208487
30	0xbd2850ea	-0.04109279
31	0xbe13fe3f	-0.14452456

conv0.2.weight f4 [32]
0	0x3c259c3e	0.010108052
1	0x3efaa29f	0.48952195
2	0x3f97b60b	1.185243
3	0x3f778e33	0.96701354
4	0x3eb6593d	0.35614958
5	0x3e32e94d	0.1747181
6	0xbb188b57	-0.0023276412
7	0x3f8771e5	1.0581633
8	0x3f4d2874	0.8013985
9	0x3f1ff2b2	0.624797
10	0x3e83c497	0.25735924
11	0x3e1aada0	0.15105295
12	0x3f3de01f	0.74170107
13	0x3f43063a	0.76181376
14	0x3e2837cf	0.1642754
15	0x3e8a32a1	0.26991752
16	0x3f1fe5bf	0.6245994
17	0x3f0baa61	0.5455685
18	0x3f3368f4	0.7008202
19	0x3f4b134e	0.7932633
20	0x3ead4e39	0.33848742
21	0x3eb35fff	0.35034177
22	0x3f2eb590	0.6824579
23	0x3e162264	0.14661556
24	0x3edd0145	0.4316503
25	0x3e9c51ca	0.3053115
26	0x3f0a0dfa	0.53927577
27	0x3c4c130c	0.012455713
28	0x3f892938	1.0715704
29	0x3e297e4f	0.16552089
30	0x3fa07f54	1.2538857
31	0x3f60656d	0.87654763

conv0.2.bias f4 [32]
0	0x3a81c90d	0.0009901837
1	0x3c3bf0d9	0.011470997
2	0x3c0d87a2	0.008638294
3	0xbb782b91	-0.0037867764
4	0xbb129432	-0.0022366163
5	0xbc666e60	-0.014064401
6	0xbb7dfcdf	-0.003875546
7	0xbb91fada	-0.0044549527
8	0xbb11d3e2	-0.0022251536
9	0xbbc21a4a	-0.005923544
10	0xbc8853ff	-0.016641615
11	0xbabbf71b	-0.0014340611
12	0x3a8009ab	0.0009768506
13	0x3c86a91d	0.016438061
14	0x3a9895e1	0.0011641347
15	0xbbcf4581	-0.006325424
16	0x3bfcee74	0.0077188555
17	0xbb4a66f7	-0.0030884126
18	0xbb7e85e8	-0.0038837139
19	0xbb4062be	-0.002935573
20	0x388a09c8	6.582175e-05
21	0xbbbaad17	-0.0056969034
22	0xbb8a220c	-0.0042154845
23	0xbbe6e45e	-0.0070462665
24	0xbc006252	-0.007835941
25	0x3a9507ea	0.0011370156
26	0xbb0b3e0c	-0.00212467
27	0x3a44b90b	0.000750438
28	0x3a60b3d2	0.0008571717
29	0xbc22618a	-0.00991095
30	0xbc174309	-0.009232291
31	0xbbba5033	-0.00568583

conv0.2.running_mean f4 [32]
0	0x3d863679	0.065533586
1	0xbd6a98b0	-0.05727452
2	0x3b838113	0.0040131896
3	0x3ae88a85	0.0017741477
4	0xbd84e1da	-0.0648839
5	0xbd6971fc	-0.05699347
6	0xbb6e8da5	-0.0036400345
7	0xbd77c8f1	-0.060494367
8	0xbd72d02b	-0.059280556
9	0xbe032ccd	-0.12810059
10	0xbd559424	-0.05214323
11	0xbe4d0dec	-0.20024842
12	0xbd9dc1bb	-0.07702967
13	0x3e52c8dd	0.20584436
14	0x3e3c8413	0.18409757
15	0xbdb83af9	-0.08995623
16	0x3be273d7	0.006910782
17	0x3c43fad0	0.011961654
18	0x3e44ae23	0.19207053
19	0xbdefcc79	-0.11708922
20	0x3d73cce1	0.05952156
21	0x3df57d99	0.119868465
22	0xbe131d6d	-0.14366694
23	0xbdfbf0ee	-0.12301813
24	0x3dcbfd91	0.09960473
25	0xbd0ae03b	-0.03390525
26	0xbe135aeb	-0.14390151
27	0x3d4f0702	0.050543793
28	0xbe229a3a	-0.15879145
29	0xbe3a82eb	-0.18214004
30	0xbdd205d2	-0.102550164
31	0xbe7f42a6	-0.24927768

conv0.2.running_var f4 [32]
0	0x4138a8a0	11.541168
1	0x40a5d02e	5.1816626
2	0x4086f98d	4.2179627
3	0x40a51ef6	5.1600294
4	0x401d8ef5	2.4618504
5	0x40bfd926	5.9952574
6	0x40ef6e4d	7.4822145
7	0x3f91ea04	1.1399541
8	0x4068f372	3.6398587
9	0x408540dc	4.1641674
10	0x408645b3	4.196008
11	0x40aa2e38	5.318142
12	0x40f52c27	7.6616397
13	0x40abe402	5.371583
14	0x4057db60	3.3727646
15	0x40fb8845	7.8603845
16	0x4034af43	2.8231971
17	0x409886ed	4.7664704
18	0x408eef10	4.4666824
19	0x4090109d	4.502028
20	0x4008bb04	2.1364145
21	0x4042f49d	3.04618
22	0x4001ed6d	2.0301163
23	0x40a58e32	5.173608
24	0x4045e4f3	3.092099
25	0x40733f6c	3.800746
26	0x3ffcb010	1.974123
27	0x40558f01	3.3368533
28	0x40bb8821	5.8603673
29	0x40b489bd	5.6418138
30	0x40b77461	5.7329564
31	0x400700a8	2.109415

bottleneck0.0.weight f4 [192, 32, 1, 1]
0	0x3e254b52	0.16142014
1	0x3d12e54a	0.0358632
2	0xbcea6cd3	-0.028616345
3	0x3df0af30	0.11752164
4	0xbe333b60	-0.17503119
5	0x3d98aae4	0.0745447
6	0xbe958ced	-0.2920908
7	0x3e0356de	0.12826106
8	0xbe4b6cf4	-0.19865781
9	0xbef888de	-0.4854192
10	0x3dd3135e	0.103064284
11	0x3edbead6	0.42952603
12	0xbc69cde9	-0.014270284
13	0xbe62e4af	-0.22157548
14	0xbdbb9fe7	-0.09161358
15	0xbe8e716d	-0.27820912
16	0xbe635c13	-0.22203092
17	0xbcb2e22f	-0.021836368
18	0x3e8ab98e	0.27094692
19	0xbe0f96b3	-0.14022331
20	0x3ed43df6	0.41453522
21	0x3e4c69ba	0.19962206
22	0xbed6745c	-0.4188565
23	0x3e386c63	0.18010096
24	0xbdc7ac10	-0.09749615
25	0x3c3528db	0.011057104
26	0xbe434325	-0.19068582
27	0xbcde2e8e	-0.027121808
28	0x3ecc99b6	0.39961022
29	0x3e5fa1ec	0.21839112
30	0x3ec9db50	0.39425135
31	0x3ee7d86e	0.4528231
32	0x3e5a8ba3	0.2134233
33	0xbe1c1239	-0.15241326
34	0x3e05fdb3	0.1308506
35	0xbe446ecb	-0.19182889
36	0xbe983d31	-0.29734185
37	0x3eb1bf99	0.3471649
38	0xbda17d35	-0.078852095
39	0xbe9b7ea4	-0.30370057
40	0x3d47ede9	0.048810873
41	0x3e0688f1	0.13138177
42	0xbe0de0b3	-0.13855247
43	0xbe96894f	-0.29401633
44	0x3d87babc	0.06627414
45	0x3e0c8e4c	0.13726157
46	0x3f080324	0.5312979
47	0xbdf30245	-0.11865667
48	0x3ebb1731	0.3654113
49	0xbe8ed152	-0.27894074
50	0x3e4a2503	0.19740681
51	0x3e9c3987	0.3051264
52	0x3e980152	0.29688507
53	0xbc3be93e	-0.0114691835
54	0xbe85c643	-0.26127824
55	0xbe2b5608	-0.16732037
56	0x3edaf6ce	0.42766422
57	0xbebdc7e2	-0.3706656
58	0xbe8fc4b5	-0.28079763
59	0xbdf6fd5c	-0.12060043
60	0xbe26a146	-0.16272458
61	0xbeb06c8f	-0.34457824
62	0x3e1fe5ec	0.15615052
63	0xbe7c8737	-0.24660955
64	0x3d877f8a	0.06616123
65	0xbd66eff7	-0.056381192
66	0x3e0d7f38	0.13818061
67	0xbd9198ce	-0.07109223
68	0xbe15f823	-0.14645438
69	0x3e182945	0.14859493
70	0x3df75afd	0.120779015
71	0x3ccee299	0.025254535
72	0x3ceaeec2	0.028678302
73	0xbe423739	-0.18966378
74	0xbd9f6215	-0.077823795
75	0x3e1e0d4b	0.15434758
76	0x3e1ec1b0	0.15503573
77	0x3cdd83be	0.027040359
78	0xbd97865c	-0.07398674
79	0x3d8c1dca	0.06841619
80	0xbe169d7d	-0.14708515
81	0xbe3b1961	-0.182714
82	0x3dafdf0c	0.08587465
83	0x3df243f1	0.11829365
84	0x3d8c4a1d	0.068500735
85	0xbda973d4	-0.082740456
86	0x3df2ff65	0.11865119
87	0x3de8fb0c	0.113760084
88	0xbe1cac17	-0.15300022
89	0xbdc95916	-0.09831445
90	0xbc84b551	-0.01619974
91	0xbd49e80d	-0.049293566
92	0x3c8b42d4	0.01699964
93	0x3d601699	0.05470905
94	0xbd4d1865	-0.050072093
95	0xbda3fbc4	-0.08007005
96	0x39c9a6e3	0.00038462048
97	0xbe5cac7c	-0.21550173
98	0xbda818af	-0.08207833
99	0x3b2ddfa0	0.0026530996
100	0x3ec7b121	0.39002326
101	0x3e1afff7	0.15136705
102	0xbd8bb86c	-0.06822285
103	0xbd9620e6	-0.07330494
104	0x3f1489fd	0.58023053
105	0x3e3327ff	0.17495726
106	0x3e670db1	0.22563817
107	0xbd23a4ba	-0.039952017
108	0xbda6de59	-0.08147878
109	0xbee3954e	-0.44449848
110	0xbd8bbf9d	-0.06823657
111	0xbec794a6	-0.38980597
112	0x3ea69dab	0.32542166
113	0x3e70cd11	0.23515727
114	0xbe94f9b3	-0.29096755
115	0xbd5c0a2f	-0.05372065
116	0xbedc0578	-0.42972922
117	0xbd83a653	-0.06428208
118	0x3e1ed293	0.15510015
119	0x3e14ace7	0.14519082
120	0xbebe2ee5	-0.37145153
121	0x3e6de007	0.23229991
122	0x3d5e748b	0.054310363
123	0x3de4615a	0.11151381
124	0x3e42fe52	0.19042328
125	0xbe3de6b6	-0.1854504
126	0x3dda7bca	0.10668142
127	0x3dfae53b	0.122507535
128	0xbe28d1c9	-0.16486277
129	0x3e123046	0.14276227
130	0xbc9c4610	-0.019076377
131	0x3dc3c604	0.09559253
132	0x3cfededa	0.031112123
133	0xbf48a627	-0.7837853
134	0xbd778629	-0.06043068
135	0xbeb05d29	-0.34446076
136	0xbefb73fa	-0.4911192
137	0x3e9206ca	0.28520805
138	0xbe9057ee	-0.28192085
139	0x3daa6c0d	0.0832139
140	0x3cb44e29	0.022009926
141	0xbe26ba66	-0.16282043
142	0xbd6f6036	-0.058441363
143	0x3e0d9b15	0.1382869
144	0xbe103dbd	-0.14086051
145	0x3f078234	0.5293305
146	0xbf00bc21	-0.5028706
147	0xbe45d55a	-0.19319668
148	0x3e48f15d	0.19623323
149	0x3dc690a0	0.09695554
150	0xbebda0cf	-0.3703675
151	0xbf420ddd	-0.75802404
152	0x3e9316a0	0.287282
153	0x3d62a2b8	0.055330962
154	0x3e0b8b88	0.13627446
155	0xbdb99772	-0.09062089
156	0x3dfa6faa	0.122283295
157	0x3e9216ee	0.2853312
158	0xbe0f2cca	-0.1398193
159	0x3cf5910d	0.029976392
160	0x3e326532	0.17421415
161	0xbe70cbef	-0.23515294
162	0xbe28fe94	-0.16503364
163	0x3dbd534b	0.092444025
164	0x3e835e55	0.25657907
165	0x3ed92092	0.42407662
166	0x3da839bf	0.08214139
167	0x3dc4526a	0.09586032
168	0x3e1e7ccb	0.15477292
169	0x3f180217	0.5937819
170	0xbe8205b5	-0.2539498
171	0xbe5f3fef	-0.21801732
172	0xbe9beda4	-0.30454743
173	0x3c150d9f	0.009097486
174	0x3cdf3342	0.027246121
175	0x3e38a790	0.1803267
176	0x3e27a10d	0.1637003
177	0x3df1ef56	0.11813228
178	0x3eac25a1	0.3362246
179	0x3e329c7d	0.17442508
180	0x3ef1c0c5	0.47217384
181	0x3ed00b94	0.40633833
182	0xbdc3c37c	-0.0955877
183	0xbe2a8b32	-0.16654661
184	0x3e4dd5a9	0.20101036
185	0xbef622f7	-0.4807355
186	0xbef2f60b	-0.4745334
187	0x3e66e6f5	0.2254904
188	0xbea07a52	-0.31343323
189	0xbd78dbda	-0.06075654
190	0xbe10d321	-0.1414304
191	0x3da941cb	0.08264502
192	0x3df62eb2	0.12020625
193	0xbc12fb34	-0.008971024
194	0xbda2340c	-0.079200834
195	0x3d83b29b	0.06430551
196	0xbe6e2b3a	-0.23258677
197	0xbf2e360a	-0.6805121
198	0x3e3e9f5a	0.18615475
199	0xbefe6056	-0.49682873
200	0x3dc83bee	0.09777056
201	0xbe312d6e	-0.17302486
202	0xbe643aa4	-0.22287995
203	0xbe31a173	-0.17346744
204	0xbdbbc9d7	-0.09169357
205	0xbe4decf7	-0.20109926
206	0xbe9c8eec	-0.3057779
207	0xbe3029e0	-0.17203474
208	0xbe8928a8	-0.2678883
209	0x3f07457e	0.5284041
210	0xbf11bc8a	-0.5692831
211	0xbe1635e6	-0.14668998
212	0x3e468f26	0.19390544
213	0x3e1f00e1	0.15527679
214	0x3d93a66b	0.07209476
215	0xbf04f631	-0.5193816
216	0xbe907e08	-0.28221154
217	0x3d4c2d46	0.049847864
218	0x3e0189a3	0.1265016
219	0x3d78336d	0.06059592
220	0xbe546fef	-0.20745824
221	0x3d87ac07	0.066246085
222	0x3cacc5ed	0.021090472
223	0x3dfd2fb6	0.12362616
224	0xbe9fae0f	-0.31187484
225	0xbe3e44e3	-0.18580966
226	0xbc5781c7	-0.0131535
227	0xbd81e9e5	-0.0634344
228	0xbdf7f2ae	-0.12106834
229	0xbde5dd28	-0.11223823
230	0x3dfb7c73	0.12279596
231	0xbe9dcbe5	-0.30819622
232	0x3d45868e	0.048224024
233	0x3ea6528a	0.32484847
234	0x3e231c83	0.15928845
235	0xbdb3bd20	-0.08776307
236	0x3d46d21f	0.04854023
237	0x3eb3bb49	0.35103825
238	0x3ce91f6f	0.028457372
239	0xbe07d3ba	-0.13264361
240	0xbd5ad957	-0.053429928
241	0x3ed2e0bb	0.4118708
242	0xbe6e3041	-0.23260595
243	0x3caee80d	0.021350885
244	0xbd2cdea8	-0.04220453
245	0xbb4b53d7	-0.0031025314
246	0x3e1b9f45	0.15197475
247	0xbe28ee59	-0.16497172
248	0xbf1c71ec	-0.6111133
249	0x3e0f1036	0.13971028
250	0xbe8a3bda	-0.26998788
251	0x3e876dde	0.2645101
252	0xbe4556b2	-0.19271353
253	0x3dbd314b	0.092379175
254	0xbf357c42	-0.7089273
255	0x3e0780ba	0.13232699

bottleneck0.0.bias f4 [192]
0	0xbc8a4899	-0.01688032
1	0xbdd67193	-0.10470881
2	0xbd37a16c	-0.04483168
3	0x3da13a48	0.078724444
4	0xbe005ffb	-0.12536614
5	0xbe286087	-0.16443072
6	0x3d1aea07	0.037820842
7	0x3df1ff96	0.11816327
8	0xbe1ee5f2	-0.15517405
9	0xbddcf641	-0.10789157
10	0xbda9f80f	-0.082992665
11	0x3ddec4dd	0.108773924
12	0xbd2b94e4	-0.04189004
13	0xbdb07578	-0.086161554
14	0x3e2b95de	0.16756389
15	0xbe1b63df	-0.15174817
16	0x3cfd63a4	0.030931301
17	0x3d263c81	0.040585045
18	0xbdbfb23b	-0.09360167
19	0xbdff73d1	-0.12473262
20	0x3d97c65d	0.07410882
21	0xbe352ba1	-0.17692424
22	0xbe0b19f6	-0.13584122
23	0xbd20891d	-0.03919326
24	0xbbccaf9b	-0.0062465197
25	0x3e09ee2e	0.13469765
26	0x3d76bd9d	0.060239423
27	0xbe129596	-0.14314875
28	0x3d293c44	0.04131724
29	0x3dc2f6f7	0.09519761
30	0xbdc197e4	-0.09452799
31	0xbd154e21	-0.036451463
32	0x3d2eed30	0.04270667
33	0x3c77f54c	0.015134167
34	0xbddf2d6f	-0.10897338
35	0x3e251bda	0.16123906
36	0x3c872936	0.016499143
37	0xbdaac577	-0.08338445
38	0xbe270ea4	-0.16314179
39	0x37f1d665	2.8829274e-05
40	0xbd942807	-0.07234197
41	0xbc19b361	-0.009381146
42	0xbe1cdd64	-0.15318829
43	0x3cd990d1	0.026558312
44	0x3d252d23	0.04032625
45	0x3d4b329b	0.049608808
46	0xbe3f147a	-0.18660155
47	0xbdb13cf9	-0.08654208
48	0x3cf8eb3b	0.030385604
49	0xbd28be2a	-0.04119698
50	0x3d5204b5	0.05127402
51	0x3e0b29e6	0.13590202
52	0x3daff15b	0.08590957
53	0xbde14979	-0.11000342
54	0xbca9428f	-0.02066162
55	0x3dd40c75	0.103539385
56	0xbd58532e	-0.0528137
57	0xbe170c94	-0.14750892
58	0x3ae29af9	0.0017288617
59	0xbaf15321	-0.0018411615
60	0xbdddb0f0	-0.10824764
61	0xbdcd84c5	-0.100350894
62	0x3d95472e	0.07288967
63	0xbe2cf5b4	-0.16890603
64	0xbcdc2d7b	-0.026877156
65	0x3df34c97	0.11879843
66	0xbd613ef9	-0.054991696
67	0xbd0e53d1	-0.034747902
68	0x3bd22972	0.006413632
69	0x3d53550c	0.05159478
70	0xbdaef27b	-0.08542343
71	0x3e14b7a1	0.14523174
72	0xbd33af46	-0.043868326
73	0xbd335753	-0.04378445
74	0xbd35c7e5	-0.044380087
75	0xbd25d7bb	-0.04048894
76	0x3dbfaa35	0.09358636
77	0xbde80577	-0.11329167
78	0xbd7e6d98	-0.062116235
79	0xbe2d7ee3	-0.16942935
80	0x3d94644f	0.07245695
81	0xbdfb6507	-0.12275129
82	0x3e255e6c	0.161493
83	0x3df8f6d9	0.121564575
84	0xbbd55eb0	-0.006511532
85	0xbe2c2be4	-0.16813618
86	0x3e0fc32f	0.140393
87	0xbc0f7627	-0.008756197
88	0x3dd63d56	0.10460918
89	0xbc7451ae	-0.014912052
90	0xbdaa2cdf	-0.0830934
91	0xbdfedbd0	-0.1244427
92	0x3e25aa90	0.16178346
93	0x3e27aaf8	0.16373813
94	0x3e1ae42a	0.151261
95	0xbddcc2b2	-0.10779323
96	0x3d15a7db	0.036537033
97	0xbe1b482c	-0.1516425
98	0xbd877861	-0.06614757
99	0x3c5079fe	0.012724398
100	0x3cfdb1c1	0.030968549
101	0xbced6d08	-0.028982654
102	0x3dc7e912	0.097612515
103	0x3db453b5	0.08805028
104	0xbe146223	-0.14490561
105	0xbc97c287	-0.018525375
106	0xbdd6eba0	-0.10494161
107	0xbc8f7de2	-0.01751608
108	0x3e224387	0.15846072
109	0x3e2450a2	0.16046384
110	0xbe1cb45e	-0.1530318
111	0x3dbf4843	0.09339955
112	0xbdd16fb6	-0.10226385
113	0xbdc3cd6d	-0.09560666
114	0xbde64302	-0.112432495
115	0x3e09e47f	0.1346607
116	0xbe0e8a52	-0.13919953
117	0x3e45b305	0.19306572
118	0xbd909c65	-0.0706108
119	0x39736111	0.00023210446
120	0xbe184697	-0.14870678
121	0xbe2cfa0a	-0.16892257
122	0x3c56d31e	0.013111858
123	0xbe37c75f	-0.17947148
124	0x3d5da3dc	0.054111347
125	0xbdfcc47e	-0.123421654
126	0xbd40aba5	-0.047038693
127	0xbc9bc2a4	-0.01901371
128	0x3e302ca3	0.17204528
129	0x3df7e3af	0.12103974
130	0x3dbb9b4d	0.09160481
131	0xbe23cad4	-0.15995342
132	0xbdf76169	-0.120791264
133	0xbdd641bc	-0.104617566
134	0xbe2c8aa1	-0.16849758
135	0xbb876e25	-0.0041330033
136	0xbe119a0b	-0.14218919
137	0x3e03bc68	0.1286484
138	0x3dba2369	0.09088785
139	0xbdd5b59b	-0.10435029
140	0xbde0a218	-0.10968417
141	0x3e1f026e	0.1552827
142	0xbd3bd99f	-0.045861837
143	0x3c2810f7	0.010257951
144	0x3dabb899	0.083848186
145	0x3d81b442	0.063332096
146	0xbccf46d4	-0.025302328
147	0x3d602c9b	0.05473004
148	0xbcf93b2f	-0.030423729
149	0xbdbc71ea	-0.09201415
150	0xbdfc81a5	-0.12329415
151	0xbdb8171c	-0.08988783
152	0x3d46811a	0.048462965
153	0x3dcd7aa4	0.100331575
154	0xbc31b480	-0.010846257
155	0x3c700565	0.014649724
156	0x3d9cb4ef	0.07651698
157	0xbce90318	-0.028443858
158	0xbd3f4126	-0.04669299
159	0x3e2107ef	0.15725683
160	0xbd228f35	-0.039687354
161	0x3d152356	0.036410652
162	0x3e00b365	0.12568434
163	0xbd0343aa	-0.03204695
164	0x3e2157e2	0.15756181
165	0x3dd382ab	0.10327657
166	0xbe1ca0a0	-0.15295649
167	0xbc81ce33	-0.015845394
168	0xbd292eb5	-0.04130431
169	0xbe2413fc	-0.16023248
170	0xbdd948fd	-0.106096245
171	0x3ce0de51	0.027449759
172	0xbe37e434	-0.17958146
173	0x3db5edd7	0.08883255
174	0x3e28dd26	0.16490611
175	0xbdc2fd83	-0.0952101
176	0xbe32ff78	-0.17480266
177	0x3e2ebcf3	0.17064266
178	0x3d52bc87	0.051449325
179	0x3d85f97e	0.065417275
180	0x3c3bc633	0.011460829
181	0xbe02f55d	-0.12788911
182	0xbe1d8a4a	-0.15384784
183	0xbdff12f1	-0.12454785
184	0x3d0104e5	0.03149881
185	0x3da40b82	0.080100074
186	0x3e2838fb	0.16427986
187	0xbd0f9194	-0.035050943
188	0x3e326b53	0.17423753
189	0xbd952618	-0.072826564
190	0x3d9c15d3	0.0762135
191	0x3c0998ca	0.008398244

bottleneck0.1.weight f4 [192]
0	0x3eff5232	0.49867398
1	0x3ec1d3af	0.37856814
2	0x3e665377	0.22492777
3	0x3ec71b5c	0.3888806
4	0x3f3a718e	0.7282952
5	0x3fafe37b	1.3741297
6	0x3f066d07	0.5251011
7	0x3ea5b61a	0.32365495
8	0x3f85a225	1.0440108
9	0x3f578da9	0.8420053
10	0x3f8394c3	1.0279773
11	0x3f6f0e57	0.93381256
12	0x3f671fb9	0.9028278
13	0x3ef8cfb5	0.48595968
14	0x3f903789	1.1266948
15	0x3d4f7703	0.050650608
16	0x3f88a7b6	1.0676181
17	0x3fdda734	1.7316651
18	0x3e586b23	0.2113462
19	0x3f817946	1.0115135
20	0x3b4dbb6d	0.0031392232
21	0x3eaac790	0.3335538
22	0x3f5bd756	0.8587545
23	0x3f0b6165	0.5444549
24	0xbdd53fa2	-0.104125276
25	0x3ed67011	0.41882375
26	0x3f3a3bc0	0.7274742
27	0x3eac29f8	0.3362577
28	0x3928ef66	0.00016110911
29	0x3f60d73d	0.8782843
30	0x3e269760	0.16268682
31	0x3f74c36c	0.9561069
32	0x3f956be8	1.1673555
33	0x3fb00a01	1.3753053
34	0x3ed6eaab	0.41975912
35	0x3f4c1982	0.7972642
36	0x3f5e0346	0.86723745
37	0x3f08cca7	0.53437275
38	0x3d9cfd96	0.07665555
39	0x3efb0017	0.49023506
40	0x3f38109d	0.7190035
41	0x3f298e1d	0.6623247
42	0x3ec1ef89	0.37878063
43	0x3f017139	0.5056339
44	0x3ee53499	0.4476669
45	0x3f3ac382	0.7295457
46	0x3eb2aba4	0.34896576
47	0xbc37edda	-0.011226142
48	0x3f4cf63e	0.80063236
49	0x3f22633c	0.6343267
50	0x3fba46b0	1.4552822
51	0x3f98b19a	1.19292
52	0x3efe15e6	0.49626082
53	0x3ef37a08	0.4755404
54	0xbc019282	-0.007908465
55	0x3e7cf9b6	0.24704632
56	0x3f39e4c5	0.726147
57	0x3f7cba01	0.9872132
58	0x3f8641f5	1.0488878
59	0x3f0a01d6	0.5390905
60	0xbb867e6c	-0.004104426
61	0x3f496d11	0.7868205
62	0x3f7004f6	0.9375757
63	0x3f4cc951	0.79994684
64	0x3f1fe7f8	0.6246333
65	0x3fbb4d02	1.4632876
66	0x3f2667a2	0.6500188
67	0x3ec89e20	0.3918314
68	0x3f77638d	0.9663628
69	0x3f20f115	0.6286786
70	0x3f3eb913	0.7450115
71	0xba79ed1b	-0.00095339277
72	0x3f7d064a	0.9883772
73	0x3f07b536	0.5301088
74	0x3f20d540	0.62825394
75	0x3f458dda	0.77169573
76	0x3f0518fb	0.5199124
77	0x3efa889d	0.48932353
78	0x3f502a25	0.8131431
79	0x3ecb0cf1	0.3965831
80	0x3f577e30	0.8417692
81	0x3f3cdcb8	0.7377429
82	0x3f3174de	0.6931895
83	0x3ee3f4b1	0.44522622
84	0xba22a167	-0.00062038604
85	0x3f5011d5	0.8127721
86	0x3f320c92	0.6955043
87	0x3f574e3f	0.8410377
88	0x3f9b42ff	1.212982
89	0x3f38c839	0.72180516
90	0x3eb7a928	0.35871243
91	0x3f58558c	0.84505534
92	0x3efc22e9	0.49245384
93	0x3f53946c	0.8264835
94	0x3fa4408a	1.2832196
95	0x3f6c38b0	0.92274
96	0x3eb47c9a	0.35251313
97	0x3f4968f2	0.7867576
98	0x3f3e8bdf	0.74432176
99	0x3f19c522	0.60066426
100	0x3f0738ca	0.5282103
101	0x3f8302ee	1.0235269
102	0x3eb264d7	0.3484256
103	0x3d077da1	0.033078793
104	0x3f6e756f	0.9314794
105	0x3eab91ae	0.33509582
106	0x3e1d7f02	0.15380481
107	0x3f35e08d	0.7104576
108	0x3fa2c4d9	1.2716323
109	0x3f0d0397	0.550836
110	0x3f0cebf4	0.55047536
111	0x3f460b10	0.7736063
112	0x3f9f724d	1.2456757
113	0x3f181f0f	0.5942239
114	0x3f22f07a	0.6364819
115	0x3ea9f622	0.33195597
116	0x3bbf7409	0.00584269
117	0x3faabc83	1.3338779
118	0x3f03bdba	0.51461375
119	0xbb4f7e27	-0.0031660886
120	0x3ef81c76	0.48459214
121	0x3df2a9fe	0.1184883
122	0x3fee4835	1.8615786
123	0x3ee0eaf8	0.43929267
124	0x3fa4aad4	1.2864633
125	0x3f355634	0.7083466
126	0x3e36ec37	0.17863546
127	0x3efe168d	0.4962658
128	0x3fa08bae	1.2542627
129	0x3f15ecc5	0.58564407
130	0x3ec34a89	0.38142803
131	0x3f53169f	0.8245639
132	0x3ed570d2	0.41687638
133	0x3f3293c8	0.69756746
134	0x3fb4461a	1.4083893
135	0x3f39bf51	0.7255755
136	0x3eefe3ec	0.46853578
137	0x3eabaf32	0.335321
138	0x3ed9e855	0.42560068
139	0x3f3f120d	0.7463692
140	0xbc492026	-0.012275731
141	0xbb0e2004	-0.0021686563
142	0x3eaa53b2	0.3326698
143	0x3f08bff9	0.5341793
144	0x3f90022c	1.1250663
145	0x3eb1f581	0.34757617
146	0x3fc198ff	1.5124816
147	0x3f17e7e0	0.5933819
148	0x3b543c40	0.0032384545
149	0x3ed46a1c	0.41487205
150	0x3dce3bfc	0.10070035
151	0x3e9bef37	0.30455944
152	0x3e888292	0.26662117
153	0x3ede2c97	0.43393394
154	0x3f530c44	0.8244059
155	0x3ebf9972	0.37421757
156	0x3f1aebfa	0.6051632
157	0x3f26f43d	0.6521643
158	0x3ee63645	0.4496328
159	0x3f8929e9	1.0715915
160	0x3f8cc7d0	1.0998478
161	0x3f91a6a0	1.1378975
162	0x3f1f2b9e	0.6217593
163	0x3f8f544a	1.1197598
164	0x3ed42a3f	0.4143848
165	0x3f1c7be3	0.61126536
166	0x3efd5d54	0.49485266
167	0x3d8fd7ce	0.07023583
168	0x3ee8da5d	0.45479098
169	0x3f0cf27d	0.5505751
170	0x3f41cd41	0.7570382
171	0x3f20bcdf	0.62788194
172	0x3ebbc0af	0.36670443
173	0x3fbef847	1.4919518
174	0x3f4cec28	0.80047846
175	0x3f0bdc08	0.54632616
176	0x3f48a09d	0.78370076
177	0xbeb773a9	-0.3583043
178	0x3f333d43	0.7001535
179	0x3e0331a2	0.12811902
180	0x3f5ab326	0.8542961
181	0x3f4d30e4	0.80152726
182	0xbdc16ced	-0.09444604
183	0x3f2db9f6	0.6786188
184	0xbb864a6c	-0.0040982272
185	0x3f183b30	0.5946531
186	0xbb32f9c0	-0.0027309507
187	0x3f224cd0	0.63398457
188	0x3f751220	0.9573078
189	0x3f36e2d0	0.7143984
190	0x3f3cd70a	0.73765624
191	0xb91ac9a6	-0.00014761704

bottleneck0.1.bias f4 [192]
0	0xbe4e940e	-0.20173666
1	0x3de46e3e	0.111538395
2	0x3bf5fc64	0.007506894
3	0x3d1398ac	0.03603427
4	0x3e20c87b	0.15701477
5	0xbd4731b1	-0.048631374
6	0xbecaae1f	-0.3958597
7	0x3d0827cc	0.03324108
8	0x3cd72059	0.026260542
9	0xbe19da2a	-0.15024629
10	0xbc250065	-0.010070895
11	0x3d25ff7c	0.040526852
12	0x3e79122f	0.24323343
13	0x3e8aad4f	0.2708535
14	0xbcb2a75e	-0.021808323
15	0xbebfc8fd	-0.3745803
16	0xbb95fc2d	-0.004577181
17	0xbd5074bf	-0.050892588
18	0xbe5ac39b	-0.2136368
19	0x3ccb0067	0.024780465
20	0xbccd5a48	-0.025067464
21	0x3e99f59d	0.300702
22	0xbe756d9d	-0.23967595
23	0x3dd3bbfd	0.1033859
24	0x3ee98d69	0.456157
25	0xbd31f0ce	-0.04344254
26	0xbdd4e54b	-0.10395297
27	0xbe84271b	-0.25811085
28	0xbc81dbb3	-0.015851831
29	0xbd9895a8	-0.0745042
30	0x3c33f49a	0.0109836105
31	0xbd1c4974	-0.038155988
32	0x3dab851a	0.083749965
33	0x3e00e510	0.1258738
34	0xbeb1c34b	-0.3471931
35	0xbe3776fa	-0.1791648
36	0x39c50486	0.00037578138
37	0xbe00204e	-0.12512323
38	0x3f144ef8	0.57932997
39	0x3d509a5b	0.050928455
40	0xbe527275	-0.20551474
41	0xbe281b23	-0.16416602
42	0x3e3799ab	0.17929713
43	0x3d86087a	0.065445855
44	0xbc857c43	-0.016294604
45	0x3daca505	0.084299125
46	0x3d47cb39	0.048777793
47	0xbdf1be5f	-0.118038885
48	0xbb945936	-0.0045272363
49	0xbdac63b5	-0.08417455
50	0x3d810c01	0.06301118
51	0xbd6c20de	-0.057648532
52	0x3e1ae3ae	0.15125915
53	0xbc9a85a0	-0.018862545
54	0xbd9510b6	-0.07278578
55	0x3e03f0e1	0.12884857
56	0x3d3789ad	0.044809032
57	0xbe40222e	-0.18763039
58	0x3e00fcac	0.12596387
59	0xbe172b44	-0.14762598
60	0xbd1c8cb0	-0.038220108
61	0x3dc0ac9f	0.09407925
62	0xbca57b23	-0.020200318
63	0xbb79c97f	-0.0038114486
64	0xbca80bf8	-0.02051352
65	0xbd5d5ac2	-0.05404163
66	0xbcd7f625	-0.026362488
67	0xbe8c6bb3	-0.27425918
68	0x3bfa9132	0.007646703
69	0x3e0fdac4	0.14048296
70	0x3bb7b3ba	0.005606142
71	0xbc4a1fdb	-0.0123366965
72	0xbd9405d7	-0.07227676
73	0xbd41d6b1	-0.047323886
74	0xbe952123	-0.29126844
75	0x3dea93be	0.11453961
76	0x3e441acd	0.19150849
77	0x3e826c55	0.25473276
78	0xbd0227b8	-0.03177616
79	0x3d707d94	0.05871351
80	0x3e260d46	0.16216001
81	0x3e92733c	0.28603542
82	0x3d209bf8	0.039211243
83	0xbe84600f	-0.25854537
84	0xbc76b319	-0.015057349
85	0x3d385404	0.045002
86	0x3c0b76be	0.008512197
87	0xbdd01181	-0.101595886
88	0xbd314dae	-0.04328697
89	0x3e3236e4	0.17403752
90	0x3e75e847	0.24014388
91	0x3cf836bd	0.030299539
92	0x3e3396db	0.17538016
93	0xbe4718a3	-0.19442992
94	0xbdbc51b8	-0.09195274
95	0xbd472915	-0.048623163
96	0x3e9d816a	0.30762798
97	0x3d8878ae	0.06663643
98	0xbdd6fde6	-0.10497646
99	0x3d2308a8	0.039803177
100	0x3ea81f53	0.32836398
101	0xbe3ea412	-0.18617275
102	0xbea2220b	-0.31666598
103	0xbe80ae3d	-0.25132933
104	0xbbb88518	-0.0056311004
105	0xbe852fdb	-0.26013073
106	0xbe3f6028	-0.18689024
107	0x3da42a5d	0.08015893
108	0x3b1815d9	0.0023206382
109	0xbbf24def	-0.0073945443
110	0xbe608a8f	-0.21927856
111	0xbe83cc8e	-0.25742
112	0xbe19a5d7	-0.15004669
113	0xbe942df6	-0.28941315
114	0x3dd36b8f	0.103232495
115	0x3e97344d	0.2953209
116	0xbd7415a0	-0.059590936
117	0x3cc4ebc6	0.024038207
118	0x3dab46e0	0.08363128
119	0xbe8cc06a	-0.2749055
120	0x3dedfc01	0.116203316
121	0xbea7036f	-0.32619807
122	0xbe033ebe	-0.12816903
123	0x3e3a7adc	0.1821093
124	0xbd8cf879	-0.0688333
125	0xbec06cfc	-0.37583148
126	0x3b595f44	0.0033168355
127	0xbe081441	-0.13288976
128	0xbe9b1e07	-0.30296347
129	0x3ce1f3be	0.027582046
130	0x3c2a47c7	0.01039309
131	0xbe385dd6	-0.18004546
132	0x3e7a44b4	0.2444027
133	0xbe3a26af	-0.18178819
134	0x3daafaa1	0.08348585
135	0xbe71c281	-0.23609354
136	0xbe60fc1b	-0.2197117
137	0x3e3f87a6	0.1870409
138	0x3e07cb86	0.13261232
139	0xbeaea35a	-0.34109002
140	0xbe6cb67e	-0.2311649
141	0xbd9f5432	-0.07779731
142	0x3ead12e7	0.33803484
143	0xbe4bcc7a	-0.1990222
144	0xbe25eb0a	-0.16202942
145	0xbdc4d5cf	-0.09611093
146	0xbc95c88d	-0.018284107
147	0xbe1afc44	-0.15135294
148	0xbe0b672c	-0.13613576
149	0xbeb2b0ec	-0.34900606
150	0x3ebc010e	0.36719555
151	0xbeab500f	-0.33459517
152	0x3eab6c33	0.33480987
153	0x3de262cd	0.11054001
154	0xbda2080e	-0.079116926
155	0x3dc821ba	0.09772058
156	0x3e8575ef	0.2606654
157	0xbe2eb93a	-0.17062846
158	0xbc8e8772	-0.01739857
159	0x3d8a65c9	0.06757695
160	0xbdf53e70	-0.119748
161	0x3b9c7035	0.0047741183
162	0x3d183737	0.037162032
163	0xbd203d6d	-0.03912108
164	0xbe058664	-0.13039547
165	0xbea8852f	-0.3291411
166	0x3d7441ec	0.05963318
167	0x3edec3aa	0.43508655
168	0x3e9a9f37	0.30199596
169	0xbe079c8f	-0.13243316
170	0xbdc44c7e	-0.09584902
171	0xbcae29e8	-0.021260217
172	0x3db817f0	0.08988941
173	0xbb19ffd1	-0.0023498426
174	0xbe0faf68	-0.14031756
175	0x3e3748d8	0.17898881
176	0x3da39d36	0.0798897
177	0x3e034f2a	0.12823167
178	0x3e9141ca	0.28370506
179	0x3e9dbcdc	0.3080815
180	0x3d8e0267	0.06934052
181	0x3df60935	0.12013475
182	0x3ea3115a	0.31849176
183	0x3e4697b8	0.19393814
184	0xbd55f1c4	-0.05223252
185	0xbc5b344f	-0.013379171
186	0xbc69526c	-0.014240842
187	0xbd8821f3	-0.066471
188	0x3cb85abe	0.022504207
189	0xbe574739	-0.21023263
190	0xbe275f57	-0.16344963
191	0x3e9b6dd9	0.30357245
