TradingGym/TradingGym_200.pth (torch_old, 699326 bytes, 52 tensors)

conv0.0.weight f4 [256, 1]
00000000: 5feb 813f bcad 7a3f 02fa 723f 8c96 833f
00000010: 77bc 7c3f f42f 813f 8ae4 743f e98d 723f
00000020: 9235 773f df7a 823f db4f 783f e5fd 6e3f
00000030: 4bae 803f fdef 773f 0323 843f ed9b 793f
00000040: 8f8f 783f 1cc3 793f 0a14 803f f341 833f
00000050: fc3e 833f 365b 793f c6b1 813f 0571 743f
00000060: 36fd 783f 55a7 763f d55a 853f 05cf 793f
00000070: 8f50 723f 465c 793f 2b0e 803f 2d10 7c3f
00000080: 16ca 7d3f 904a 783f ff86 7c3f 0c37 763f
00000090: 45fa 823f 952d 803f 60cb 783f 617a 763f
000000a0: b143 763f d483 843f 078f 803f 7280 783f
000000b0: 9b5c 753f 0266 7c3f d6e2 7f3f 6294 7d3f
000000c0: 6dde 803f 0e89 743f 1f80 7a3f 4aef 813f
000000d0: 4394 863f 4284 7b3f d2bb 743f ab3e 733f
000000e0: e7ee 823f fef6 763f f1ba 7b3f 6938 723f
000000f0: 7206 7a3f 46a6 823f 9ab9 7a3f 774f 7f3f
00000100: 6e9d 7a3f d796 803f 1362 773f d415 803f
00000110: d25c 7d3f 0181 753f 4f6e 783f b618 833f
00000120: 5007 803f 3ac6 833f e84e 813f e212 823f
00000130: e006 803f c956 853f 112f 823f f6f8 803f
00000140: 1c9d 773f cceb 843f 1e68 7c3f cce3 853f
00000150: 9dae 7f3f 3c99 773f 3b90 7a3f f44a 833f
00000160: e77b 823f c52c 743f 5bcf 773f f2c3 743f
00000170: 5c29 873f 99ef 783f c6ae 783f 8dd4 7d3f
00000180: 1c1f 823f 551f 853f 6c8d 813f 9365 823f
00000190: 6216 803f 1cbe 793f e800 813f d80a 813f
000001a0: a33d 823f c1c5 813f 6255 823f f723 813f
000001b0: 0f35 803f edcd 7f3f 6e57 823f 5262 7a3f
000001c0: 798b 823f 5afe 803f bfd8 793f 5a24 833f
000001d0: 37d6 7b3f 37da 843f 6e90 823f 8e69 803f
000001e0: 59b2 783f 7f02 803f 80b4 7e3f 4df4 833f
000001f0: 42ef 763f 142d 763f bc23 7b3f 7dcf 8a3f
00000200: 654c 823f ed8e 803f 71d4 733f f7b8 7e3f
00000210: 7375 823f 803f 813f f85f 773f d3ce 803f
00000220: 92c9 853f f919 813f bfe8 803f 6646 813f
00000230: e1dc 813f 02c3 833f 89e5 833f 2178 773f
00000240: ed96 7d3f 4434 803f 2f8f 7f3f 8d02 803f
00000250: 80e1 7c3f c98d 783f 4261 823f 9c2e 823f
00000260: 455f 823f 9a36 873f fd13 793f 7e7c 853f
00000270: 5f0c 753f d7ac 823f bd6b 7f3f e260 7d3f
00000280: 296e 853f 82d1 7c3f 0d03 7e3f cd3e 7e3f
00000290: a976 803f 0e02 843f 18c7 843f 7ea1 7a3f
000002a0: 1de8 7a3f 0128 803f ff64 873f f6eb 783f
000002b0: 2202 763f 6b26 803f 46e4 863f 817b 843f
000002c0: f1e7 813f 76c9 733f e3f4 743f 728e 783f
000002d0: f751 813f c9c1 743f fbdd 803f a4c0 823f
000002e0: a3cc 7d3f 31ad 813f 6ae0 7a3f 105a 7f3f
000002f0: c2fd 803f c161 863f 07e7 7c3f 6a9f 7b3f
00000300: 850b 7e3f b24a 833f fc36 7c3f 003c 773f
00000310: 3136 7f3f c733 7c3f fd63 7e3f f239 803f
00000320: 57a0 823f ea0c 803f 99e9 7b3f 6102 823f
00000330: 41f1 7d3f eab7 813f 1a09 813f 88f4 833f
00000340: 5ff8 7e3f 0e67 783f 4e09 803f 7629 843f
00000350: d916 823f 30b8 7c3f d491 803f 3731 7b3f
00000360: cecd 803f d776 783f 3ef9 7e3f 0184 823f
00000370: cf3a 803f 81f3 7e3f 6b42 7e3f 255a 7f3f
00000380: 59a7 8a3f 84c3 803f fb82 813f 2dc9 803f
00000390: 0e24 7e3f e4c5 7d3f 1403 853f 6012 813f
000003a0: 1b46 803f 2de9 823f 1901 823f cf28 833f
000003b0: e7cf 833f adb0 7e3f dc20 843f 3a14 823f
000003c0: 9454 893f 4f50 7f3f c0c6 843f 968a 753f
000003d0: 1b6e 803f bb31 833f cb74 863f 36a1 823f
000003e0: 3c1c 723f 1b73 873f 997a 853f 1a27 853f
000003f0: 6aa8 773f ca03 7d3f 6444 833f adb1 833f
1.0149955 0.9792135 0.9491273 1.0280318 0.98725075 1.0092759 0.9566122 0.9474779
0.96566117 1.0193747 0.9699685 0.9335616 1.005319 0.9685057 1.0323185 0.9750355
0.97094053 0.9756334 1.0006115 1.0254501 1.0253596 0.974048 1.0132377 0.95484954
0.9726137 0.9634908 1.0418345 0.9758151 0.9465417 0.97406423 1.0004324 0.9846218
0.99136484 0.96988773 0.9864349 0.96177745 1.0232626 1.001391 0.97185326 0.96280485
0.9619704 1.0352731 1.0043648 0.9707099 0.9584443 0.9859315 0.999555 0.9905454
1.0067879 0.9552163 0.9785175 1.015115 1.0513996 0.98248684 0.9559909 0.950175
1.0229157 0.9647063 0.98332125 0.94617325 0.97666085 1.0206993 0.97939456 0.9973063
0.9789647 1.0046033 0.96634024 1.0006661 0.9896976 0.9589997 0.9704332 1.0241916
1.0002232 1.0294869 1.0102205 1.0162013 1.0002098 1.041711 1.0170614 1.0075977
0.96724105 1.038446 0.9859637 1.0460143 0.99875814 0.9671819 0.9787633 1.0257249
1.0194062 0.9538081 0.96800774 0.9561149 1.0559497 0.97240597 0.97141683 0.9915245
1.0165744 1.0400187 1.0121284 1.0187248 1.0006831 0.9755571 1.0078402 1.0081434
1.017506 1.0138475 1.0182307 1.0089101 1.0016192 0.9992359 1.0182931 0.97806275
1.0198814 1.0077622 0.97596353 1.0245469 0.9837374 1.0379094 1.0200326 1.0032213
0.97147137 1.0000762 0.9949417 1.030893 0.9645883 0.96162534 0.981014 1.084457
1.0179564 1.0043617 0.95246035 0.99500984 1.0192093 1.0097504 0.9663081 1.0063118
1.0452139 1.0086051 1.0071028 1.0099609 1.0145532 1.0293887 1.0304424 0.9666768
0.9905842 1.001595 0.99827856 1.0000778 0.98781586 0.97091347 1.0185931 1.0170474
1.0185324 1.0563538 0.97296125 1.0428617 0.95722 1.0208997 0.9977377 0.98975956
1.0424243 0.98757184 0.99223405 0.99314576 1.0036212 1.0313127 1.0373259 0.9790267
0.98010427 1.0012208 1.0577697 0.9723505 0.96097004 1.0011724 1.0538414 1.035019
1.0148908 0.9522928 0.9568617 0.97092354 1.0103139 0.9560819 1.0067743 1.0215039
0.99140376 1.0130979 0.9799868 0.997468 1.0077441 1.0498582 0.9879002 0.9829012
0.9923633 1.025717 0.985214 0.9657593 0.99692065 0.98516506 0.9937132 1.0017684
1.0205182 1.0003941 0.98403317 1.0156976 0.9919625 1.0134251 1.0080903 1.0309
0.99597734 0.9703225 1.000284 1.0325153 1.0163223 0.9871855 1.0044503 0.9812197
1.0062807 0.97056335 0.99599063 1.0196534 1.0017947 0.9959031 0.99320096 0.99746925
1.083232 1.0059667 1.0118097 1.0061394 0.99273765 0.9913008 1.0391564 1.0083733
1.0021394 1.022741 1.0156585 1.0246829 1.0297822 0.99488336 1.0322528 1.0162423
1.0728936 0.99731916 1.0373154 0.9591459 1.0033602 1.0249552 1.0504392 1.0205448
0.9457433 1.0582002 1.0428039 1.0402558 0.96741354 0.98833907 1.0255246 1.0288597

conv0.0.bias f4 [256, 1]
00000000: 9663 273d 67f9 133d 0f6d 9a3b 0024 aebc
00000010: 0483 833c cea0 08bc d272 2ebd 1291 1dbc
00000020: 0356 143c a873 063d 4241 b6bc feba 94bc
00000030: f934 5d3a 46c9 973c 9e26 4dba 7aca 7d3c
00000040: 12c7 843c ec98 213d 9d7e b5bb f6f4 ff3a
00000050: e3ea a1bc 1fcb abbc 9e0a 83bc 6f02 03bd
00000060: 370d d23c bacf 0fbd c539 44bd efc9 7abd
00000070: 9016 84bc 9ba9 01bd 5612 223a bb0e 1abc
00000080: 02b1 0bbd be7b 86bc 3406 d73b 919e 0bbd
00000090: 63a3 d1bc 5625 01bc 138b 86bc 5413 eaba
000000a0: 8271 45bd 6069 35bd 5230 96bc f34d e23c
000000b0: 5232 13bc bf16 61bb e984 d8bc 05ce 453c
000000c0: 5264 463c 6438 143d 2201 8d3c 69a7 fd3c
000000d0: 0cda e5bc ae09 8fbb bd17 823c a0dc 79bc
000000e0: 3259 94bc fdba 96bc f409 67ba fbe0 71bd
000000f0: db60 1e3c e924 3fbc 754a 583d 1073 be3c
00000100: 6f61 18bd 711d 0bbd 2996 fbbc 3316 25bd
00000110: db5d 5abc 55c5 ffbb 1c7d 6eba 9bc7 27bb
00000120: b3b1 1abd 786d 2ebd 7438 98bb 8661 1f3d
00000130: 783c 58bd 9034 c8bc d1cc 6a3c 93ea 583d
00000140: e966 bdbc d4e5 bb3c 11de 1cbd e8f6 4cbd
00000150: 8412 3a3d 54bc e23a 4764 62bb 3707 09bd
00000160: a261 05bd b476 a7bd b38d 53bd e04a 47bd
00000170: a6e4 0bbc bc5d 28bd 24d5 0f3c 191d c5bb
00000180: 85e0 28bc 849d 36bc 08ee 933c 2b35 903b
00000190: b431 7dbc b7e2 3ebc 1e14 463d dceb 0b3d
000001a0: 3e5b 9c3c 75f0 2fbd d15d e63c 3de4 473c
000001b0: 74ec 0a3d 2a7a d0bc a305 56bd ec57 9ebd
000001c0: e735 49bb 19f5 1cbd 4289 88bc 732e 50bd
000001d0: 50db 09bc 3627 b63c aaba 85bc 74da 4d3a
000001e0: 4f35 73bb d87f 123d 3438 173d 6752 7a3d
000001f0: 1dcf a3bc 7fca a63c 02c7 663d 083b 4d3d
00000200: ecca 90bc 160d 34bd 0cdf 1d3d 9c67 cd3c
00000210: ac73 583c 5bff 4abb c268 923d 6ada 9c3d
00000220: 4848 013c 64f2 1eba 7049 313d 2417 1d3c
00000230: a47b a0bb afb9 453b 6bae 0a3d c83d 2e3d
00000240: 6967 0fbc 3a1c 6bbd 43c4 683d f74f 133d
00000250: e737 c7bd 73bb 65bd 0893 403c 1d15 913b
00000260: 2a9a 15bd ed0a f9bc e7dc c7ba 4cfe f2bc
00000270: 2b30 21bd 563f 843c cf9a 063d 9e8b 51bc
00000280: 3de2 38bb d465 a23c 82f5 773c c44e c23b
00000290: 4bd6 edbc f4d1 cabc 9557 84bc 35b3 20bc
000002a0: 21bb 663b 9fb0 923c 59b5 6bbc 7f5b b73b
000002b0: 7b0d 24bc 4f49 edbc 00ff 03bc 7aca 3cbc
000002c0: 3920 a23c 8a7f ce3c 34cc 9b3c 2954 343c
000002d0: 85a1 7bbb 1146 27ba 1be7 133d e439 e33c
000002e0: e67e f6bc 862e 1d3b db94 983c a3ea 963a
000002f0: ec54 e1bc d410 473c 9ec1 1cbc 777e 873b
00000300: e7d4 053d 41d5 853d 4f8e d33b f3ba e23c
00000310: 0e7b 81bb b88b 19bb c4ed 093d 61cf 143d
00000320: f24c 0fbc e0e3 71bb 2e7d 163d 7623 e33c
00000330: 7648 1fbd f914 bb3b ca72 09bd d0d0 8bbc
00000340: 7681 913c c057 4d3d 99a8 303a 75e3 a1bc
00000350: ddf7 2f3d 0a75 083d 32c0 593c f6c7 193d
00000360: 279a fd3c 58e6 383c c2b2 32bd 23a4 c13b
00000370: bf26 993c 5072 123d e56d 7abc 819c dfbb
00000380: eed9 e5bb ed8c 54bc 0844 38bd f553 0dbc
00000390: 0f83 b1bc 4c20 903a 9119 aa3c 5d64 e83c
000003a0: 0a56 97bb d810 4a3b b4d7 2a3d 980b b73c
000003b0: 5fd5 133c ea46 643c 15de 743c 4181 af3c
000003c0: 9fbb 6a3b f120 a6bb 5fc3 c53b accf cc3b
000003d0: cdc3 3a3d bdeb 4ebb 735f e8bc e69a fb3a
000003e0: a3b2 373d b63b 9c3c 16cb bdba dad8 293c
000003f0: 9875 0e3d 171e 573d 721d 1bbc f5da 3b3c
0.040866457 0.03612652 0.004712708 -0.0212574 0.016053684 -0.00833912 -0.04258997 -0.009617107
0.00905371 0.032825142 -0.022247914 -0.018155571 0.00084383745 0.018528592 -0.0007825884 0.015490169
0.016208205 0.03945248 -0.005538775 0.001952796 -0.019765323 -0.02097088 -0.015996274 -0.031984743
0.025641067 -0.035110213 -0.047906656 -0.061227735 -0.01612404 -0.03165589 0.0006182542 -0.009402926
-0.034104355 -0.016416427 0.0065620188 -0.034086768 -0.025590604 -0.007882437 -0.016423738 -0.0017858543
-0.048203953 -0.044289947 -0.018333588 0.02762506 -0.008984165 -0.0034345833 -0.026430564 0.012073045
0.012108879 0.03618659 0.017212454 0.030963616 -0.028058074 -0.0043651676 0.01588046 -0.015250355
-0.018108938 -0.01839971 -0.0008813434 -0.05905245 0.009666647 -0.011666515 0.052805383 0.023248225
-0.037202295 -0.033963624 -0.03071125 -0.040304374 -0.013328041 -0.0078055062 -0.0009097622 -0.0025601152
-0.037767123 -0.042584866 -0.0046454016 0.038911365 -0.052792042 -0.024439126 0.014331059 0.052958082
-0.02312036 0.022936739 -0.038297717 -0.050040156 0.045427814 0.0017298558 -0.0034544633 -0.033454146
-0.032563813 -0.08176938 -0.051648807 -0.04865539 -0.008538401 -0.041105017 0.008778844 -0.0060154316
-0.010307436 -0.011145953 0.018057838 0.0044008694 -0.015453745 -0.011650733 0.04835903 0.03416048
0.019086476 -0.042953927 0.028120907 0.012200412 0.033916906 -0.025448877 -0.05225147 -0.077316135
-0.0030702294 -0.03831968 -0.016667012 -0.050825547 -0.008414105 0.022235494 -0.01632436 0.00078526814
-0.0037110632 0.035766453 0.036918834 0.06111374 -0.01999622 0.02036023 0.056342132 0.050105125
-0.017674886 -0.043957792 0.038542792 0.025073819 0.013211172 -0.0030974958 0.07148887 0.07658847
0.007890768 -0.00060633407 0.043282926 0.009588037 -0.0048975516 0.003017049 0.033857744 0.042539388
-0.008752682 -0.057399966 0.056827795 0.035964932 -0.097274594 -0.05608697 0.011753805 0.0044275657
-0.036523975 -0.030400718 -0.0015248329 -0.029662274 -0.039352577 0.016143482 0.03286248 -0.012789635
-0.002821102 0.019823946 0.015134217 0.0059297998 -0.029032847 -0.024758317 -0.016155044 -0.009808351
0.0035206752 0.017906485 -0.014386498 0.005595624 -0.01001298 -0.02896562 -0.008056402 -0.011522884
0.019790756 0.0252073 0.01901827 0.0110063935 -0.0038395834 -0.0006380985 0.03610907 0.027737565
-0.030089807 0.002398403 0.018625667 0.0011514019 -0.027506314 0.012150008 -0.009567646 0.004134949
0.032673743 0.065348156 0.0064561735 0.027677035 -0.003951437 -0.0023429226 0.033674017 0.036330584
-0.008746373 -0.0036909506 0.036740474 0.02772687 -0.038887464 0.0057092872 -0.033556737 -0.017067343
0.017761927 0.050132513 0.000673899 -0.01976178 0.04296099 0.033314742 0.013290452 0.037544213
0.030957295 0.011285387 -0.043627508 0.005909459 0.018695233 0.03575355 -0.01528499 -0.0068240766
-0.0070145046 -0.012973052 -0.044986755 -0.008625974 -0.021668939 0.0010995953 0.020764144 0.02836817
-0.004618411 0.0030832794 0.041709617 0.022344396 0.00902304 0.013932923 0.014945527 0.021423938
0.0035817397 -0.005069845 0.006035253 0.0062503424 0.045596886 -0.0031573616 -0.028365826 0.0019195944
0.044848096 0.019071441 -0.001448008 0.010366643 0.034780115 0.05251893 -0.0094674695 0.011465778

conv0.1.weight f4 [32, 16, 3, 1]
00000000: 31a8 55bd 23e5 843c df9c 8abd f5f1 4f3c
00000010: f87d 6fbd e44a 943c 5392 09be f589 913d
00000020: d119 203d 7e6c f2bd 2f82 e53a a9d2 7f3d
00000030: 88c8 48b9 8e66 ba3d 5a34 c8bd 68ef 00be
00000040: 754b babd 8cd5 03bd 3d0b 19be b360 aa3c
00000050: cb98 53bd be6f f13c 9489 8dbd c964 e6bd
00000060: b9df 663c 2ab8 97bd 5c4a 3abe d18c c7bc
00000070: 4df8 803c 7a00 d53c 5269 823b 837d 8a3d
00000080: 013c 983d d8f3 86bd f528 d6bc 5712 acbc
00000090: f3b2 1b3e 6900 b0bd f899 c6bd 4a01 f7bd
000000a0: 6c01 9e3d c2a2 d43d 0c38 043e 1d84 ec3d
000000b0: 734f e23d efba c73d 68fa 1bbd 211e f7bd
000000c0: 34ba e1bd 540a 1cbe e379 ea3b 3a37 95bd
000000d0: 89c2 a5bd 4343 0c3e f908 d33d 9df9 883d
000000e0: 9004 90bd 418b 623d c658 963d cab7 bc3d
000000f0: 459e f6bd 573d d13d 9862 90bc f41b a33d
00000100: 845a 0f3e f827 bcbd 1964 9bb8 d16e 44bc
00000110: d2e0 ef3d deb3 68bd 09f6 be3d de87 e6bd
00000120: ab1d 3cbd 81e8 b53c c59c abbd 3517 b43d
00000130: 759a 0b3d 995d 34be 5151 04bd 8481 aabd
00000140: 29a6 073d 43c8 8abd d45e 1abe decb 043d
00000150: 4459 c63d 8816 16be 7a86 2abe dc74 613d
00000160: ec06 dc3d 69aa 8e3d 00a2 b93d cdc5 b73d
00000170: 8133 81bd db4d 9fbd 6f73 923b 5119 ef3d
00000180: 22ce e1bd 7918 d93d 00f7 f43c 13c5 4fbd
00000190: 16a7 e6bd 5690 f8bd b77b dd3d 5c19 87bd
000001a0: cc21 84bd 46f3 35bc d670 26be 5083 d3bb
000001b0: 2b99 8cbd f227 983c ed9b 26bc ca45 eb3d
000001c0: da18 7dbd a123 2cbc 28fe ecbd 2c81 bb3d
000001d0: d0e3 a43c 9141 7f3c 09a9 133b 61e2 be3d
000001e0: 6946 21bd f5bd a6bd 28bc 053e 9f68 41be
000001f0: 2dc0 95bd 3499 52be ed0b 373e fe6e 313e
00000200: 14b9 7dbd b4ed 853d 7247 8e3d e439 bc3d
00000210: aee3 e03c deaa 1d3e 4c6a da3c 7bfc 02be
00000220: 89bf 9c3c 18a7 033d 44bf 01be 9e08 cdbc
00000230: 3660 563c f29d 733d 3f65 25bd 5eed e9bd
00000240: 0820 02be 7c1d e23d 65f0 063d 19d3 b33d
00000250: 4a2a f9bd 2d0d 333d bf5b 93bd c1d0 023e
00000260: 20e4 e73d 3329 083e 76ef 05be d1cd 2bbc
00000270: d947 093e 8af2 91bc b782 52bd 4b7f 433d
00000280: 32b7 66bd a89a 5a3d 589b 1abe 7fd2 23be
00000290: d7d8 7bbd 814f b8bd a824 7e3d a254 ba3d
000002a0: 0c45 c6bd 1f1b 053e ccd5 9e3d fcf2 b0bd
000002b0: 6d4f ca3d 0e1b 39bd 831b 3e3c 07e8 debd
000002c0: 2d5e f63d 646e f3bd 0fb8 f4bd 82b2 27be
000002d0: 20b6 783d b3e4 89bd 1b1d a8bd 1d29 503c
000002e0: 4c91 fe3d 8818 353d a4aa 8bbd d8c8 e7bb
000002f0: db2d ceba 288c fabd 37f2 f83d ba26 f6bd
00000300: 2bed 1b3c 7c7e 093e aa8f c1bd cd32 633d
00000310: 6d2f f1bd 70a5 7cbd e516 08bd a244 c5bc
00000320: 576d aabd 8b54 5ebd 18c7 bebd d0fe a13b
00000330: 60fe 0fbc d55b d4bd e19b b33c f60c 90bd
00000340: 1dbf 853a 4f0f 75bd ca8d 583d 642e e13d
00000350: 13f4 abbc 0797 fbbc 5bcd 1c3e 18f0 023e
00000360: bbf0 e63d c929 e7bb 527f 52bd d4d6 2e3d
00000370: 79b3 a3bd 975c 063d e56f 82bd b542 083e
00000380: 5899 7a3d 5fd1 6d3d 0eac c23c aeb4 a53d
00000390: 90ed e6bd 0747 09be 4a46 babd f62c 043e
000003a0: a801 b03d b4e5 ffbc 0b58 9c3d 4790 703d
000003b0: bc4c 153e 6aab 23bd 6bd9 debd 7fec 8e3a
000003c0: b4e5 c63d cb23 1b3b 4644 91bd a7a7 e63d
000003d0: d2ea 993c 0678 9cbb 9591 e2bd 3bbd b5bc
000003e0: 0618 1e3e 19cd dabd a59d 21bd 5b9d 1a3e
000003f0: 66e7 463d 253a c5bd 0df2 0d3e 7c72 1f3d
-0.052162353 0.016222542 -0.06768202 0.012691964 -0.058469743 0.018102117 -0.13434725 0.07106391
0.03908712 -0.118370995 0.0017510111 0.06245676 -0.0001914819 0.09101592 -0.0977561 -0.12591326
-0.090964235 -0.032186076 -0.14945693 0.020798063 -0.051659387 0.029472228 -0.069110066 -0.11249692
0.014091426 -0.074081734 -0.18192428 -0.024359139 0.015743399 0.026001204 0.0039798403 0.06762221
0.0743332 -0.06589478 -0.026142577 -0.021004839 0.15204982 -0.08593828 -0.09697336 -0.12060793
0.07715115 0.10382606 0.12912005 0.11548636 0.1105031 0.09752452 -0.038080603 -0.120662935
-0.110218436 -0.15238315 0.0071556433 -0.07285924 -0.08093745 0.13697533 0.10304446 0.06688235
-0.0703212 0.055308584 0.07341151 0.092147425 -0.12041906 0.10216778 -0.017625138 0.07964316
0.13999373 -0.09187311 -7.4096206e-05 -0.011989311 0.11712803 -0.05681216 0.09324271 -0.11256383
-0.04592673 0.022205593 -0.08379511 0.08793489 0.03408285 -0.1761383 -0.032304112 -0.083254844
0.033117447 -0.06776478 -0.15075237 0.032420985 0.09684995 -0.14657032 -0.16652861 0.055043086
0.10743508 0.06966097 0.09064102 0.089732744 -0.06308652 -0.077785216 0.004469327 0.116747506
-0.11025645 0.10600371 0.029902935 -0.050725054 -0.11262338 -0.12136905 0.10814612 -0.06596634
-0.06451759 -0.011105364 -0.16253981 -0.0064548627 -0.06865152 0.018573735 -0.010169012 0.114879206
-0.06179128 -0.0105065415 -0.11571914 0.09155497 0.02012816 0.015579597 0.0022531173 0.09320522
-0.03937379 -0.081417 0.13060057 -0.18887566 -0.07312045 -0.20566255 0.17875643 0.17327496
-0.061944082 0.06539479 0.06947221 0.09190729 0.027452316 0.15397212 0.026662014 -0.12791626
0.0191343 0.032141775 -0.12670618 -0.025028523 0.013084462 0.0594768 -0.04037976 -0.11422227
-0.12707531 0.1104078 0.0329441 0.08780498 -0.12166269 0.043713737 -0.071952336 0.12774946
0.11322808 0.13296966 -0.13079628 -0.010486082 0.13406314 -0.017815847 -0.05139419 0.047728818
-0.056327052 0.053370148 -0.15098321 -0.15998267 -0.06148609 -0.08999539 0.062046677 0.09098174
-0.096811384 0.12998627 0.07755622 -0.086400956 0.098784305 -0.045191817 0.011603239 -0.108840995
0.12029681 -0.1188629 -0.11949169 -0.16376689 0.060720563 -0.06733074 -0.082086764 0.012705115
0.12430057 0.044212848 -0.068196565 -0.007073503 -0.0015730219 -0.12233764 0.12155574 -0.12019105
0.0095169945 0.13427156 -0.0945123 0.05546837 -0.11776624 -0.06168121 -0.03322496 -0.024080578
-0.08321636 -0.054279845 -0.09315318 0.004943706 -0.008788675 -0.10369078 0.021924915 -0.07033722
0.0010204051 -0.059829053 0.052869596 0.109951764 -0.020990407 -0.030711664 0.15312712 0.12786901
0.112763844 -0.0070545417 -0.051390953 0.042685345 -0.07993216 0.032803144 -0.063689984 0.13306697
0.061181396 0.058061 0.023763683 0.080911025 -0.1127578 -0.13406001 -0.09095438 0.12907776
0.08594066 -0.03123746 0.0763398 0.058731344 0.14580053 -0.039958395 -0.10881313 0.0010904222
0.09711781 0.0023672457 -0.070931 0.11262446 0.018788729 -0.00477505 -0.11062924 -0.022184959
0.15438852 -0.106836505 -0.039456982 0.15099089 0.048560522 -0.09630231 0.13861866 0.03892754

conv0.1.bias f4 [32]
00000000: 61f1 c5bc 8317 a8bb 1163 c9bd f24b d13d
00000010: c85c febd 3581 7e3d 38ed 0f3d 785e 37bc
00000020: b1c5 44bd 11d1 d6bd d9ae 22bc b018 27bb
00000030: 512c 08be a6b0 b43d 7298 e4bd cbac c5bd
00000040: ac7e 0d3e 62cd 333d 02b0 5c3d 7612 963c
00000050: 6c0c 6a3d 0339 aa3b f421 f23d d415 973d
00000060: 9927 1fbc b2bd 713d 7862 b8bd 8cc6 f2bd
00000070: da76 f63d 12f6 b43d 372a 6e3d 6d20 27bd
-0.02416295 -0.005129756 -0.098333485 0.102195635 -0.1242004 0.06213494 0.03513834 -0.011191957
-0.048040096 -0.10489095 -0.009929382 -0.0025496893 -0.13298155 0.088227555 -0.11161889 -0.09652098
0.13817853 0.04389704 0.05387879 0.01831935 0.057140753 0.0051947846 0.11822882 0.0737721
-0.009714031 0.0590188 -0.090031564 -0.11854276 0.12034388 0.08835997 0.058145728 -0.040802408

conv0.2.weight f4 [32]
00000000: f865 f13e 9f96 e03e 0520 cd3c 9196 e73d
00000010: f0e7 583f ad02 7b3e 4fbd 243f 0f59 243f
00000020: a040 ed3b ec2a c83e dfb5 583f 1f0a 6c3f
00000030: a751 993e 03c2 a83d 549a 5a3f 266f 1f3f
00000040: 3200 263f 551f e13d 1035 183e 06d5 d43e
00000050: f7b9 683f d9f7 673f 53ae 553f 672f 733f
00000060: 2bce e83e 6e72 393f 9225 3f3f 3448 3b3f
00000070: 6d1a 0d3f e742 4e3f 4c14 0e3d 44a2 2e3f
0.47148108 0.43864915 0.025039682 0.11308015 0.8472891 0.2451274 0.6435136 0.6419839
0.00724037 0.39095247 0.84652513 0.92202944 0.29945108 0.0824013 0.85391736 0.62278974
0.6484405 0.10992304 0.14863992 0.41568774 0.9090876 0.9061256 0.8346912 0.94994205
0.45469794 0.7244023 0.746667 0.7315705 0.5511845 0.80570835 0.034687325 0.6821635

conv0.2.bias f4 [32]
00000000: 23d7 293b 9be5 7c3b a838 dc3a 8d91 3c3b
00000010: d03f 16bb 05f2 ac3b 2b31 e639 3016 2c3b
00000020: 2f0c afbb 7f73 9fba 042b 07bc 0cc2 a63b
00000030: 8e2b 4abb 034d fa3a c46f 1dbc f730 173b
00000040: 586a 093c e5f1 1b3a bf5f 083c 16af 8cbb
00000050: 55c7 0fba 39a7 803b d53d bfbb 26fd 433c
00000060: ea16 ab3a bdcb b2ba a8c6 bbbb dfa2 f1bb
00000070: c087 81bb 8bb7 05bb 27ad 363b a628 17bb
0.0025915585 0.0038589004 0.0016801553 0.0028773278 -0.0022926219 0.0052778744 0.00043905652 0.0026258342
-0.0053420286 -0.0012165158 -0.008250002 0.00508905 -0.0030848715 0.0019096438 -0.0096091665 0.0023069957
0.008387171 0.0005948826 0.008323609 -0.004293333 -0.000548472 0.0039261845 -0.0058362284 0.011962211
0.0013053094 -0.0013641041 -0.005730469 -0.007374152 -0.0039529502 -0.002040359 0.0027874203 -0.0023065

conv0.2.running_mean f4 [32]
00000000: 5f76 1fbd 11ce 66bc 9eda bdbd 3e25 bf3d
00000010: 987e 07be b629 833d 185e d33c 617f 4fbd
00000020: ba9b 8fbd 836b f7bd 763e 23bb 01e8 373c
00000030: 6687 17be 199a f53d dd92 d9bd a38e cfbd
00000040: 17f2 153e d26b 143d 8d81 c43d a0ee 8cbc
00000050: 512a c13d 7dd3 083b 5c30 cc3d d09b 813d
00000060: f774 f1bc 27b2 a73d edc2 c1bd 5855 0abe
00000070: 8dec 003e a604 843d 991c 803d 88d1 55bd
-0.038931247 -0.014087216 -0.092702135 0.09333275 -0.13231885 0.0640444 0.025801703 -0.050658587
-0.07012124 -0.12081053 -0.0024909056 0.011224748 -0.14797744 0.119922824 -0.10623715 -0.10134628
0.14643131 0.036235638 0.09595022 -0.017203629 0.09431899 0.002087801 0.09970161 0.06328547
-0.029474718 0.08188277 -0.09461007 -0.13509119 0.12590237 0.06446199 0.062554546 -0.052201778

conv0.2.running_var f4 [32]
00000000: 9c5e 923e 39dd ed3e 3e35 853e b19a 0f3f
00000010: 254c e83e 3543 963e f980 d33e 67fe 853e
00000020: 1c75 f53e 18df fe3e f6a0 d03e 2949 b13e
00000030: b807 313f b220 a03e 85cd bc3e c983 b03e
00000040: c0bc 893f 2930 a53e 3598 a93e 48de 093f
00000050: 8231 c03e 574c fd3e 030d be3e 60d2 c13e
00000060: b420 a53e 022c 9c3e 6e68 953e f37c d43e
00000070: 3e8a 813e 6f25 c03e 28cf 223f f542 ce3e
0.28587806 0.46457842 0.26017183 0.56095415 0.45370594 0.2934815 0.41309336 0.26170656
0.4794091 0.49779582 0.40747803 0.3462613 0.691524 0.31274945 0.3687555 0.34475544
1.0760727 0.32263306 0.33123937 0.538548 0.3753777 0.49472305 0.37119302 0.37855816
0.32251513 0.30502325 0.29181236 0.4150158 0.25300783 0.3752856 0.63597345 0.4028546

bottleneck0.0.weight f4 [192, 32, 1, 1]
00000000: 7de3 1e3d 8e60 00be 8496 fdbd 8c86 d7bd
00000010: 5c5f 923d 86e5 2f3e fdf0 1b3e 0a16 2a3e
00000020: fc7d f43c e795 4a3e 9afa e7bd 87cd 953d
00000030: 49a2 d8bd 6748 b43d a644 ff3d 9879 e13d
00000040: 1d54 0fbe d68d dcbc 5570 52bd eb7d f03c
00000050: 0046 423d 7213 c7bd 7643 aebd 57f0 803d
00000060: dded 533d 55a2 2c3d 337e 46be d247 dc3c
00000070: 0dd5 08bd ada2 203d 8a46 8a3d b91d 16be
00000080: fa52 48be a355 2dbe 9b52 5f3e 8a82 88bd
00000090: 352b 153e 3766 1c3e 86a8 213e 29a9 a9bc
000000a0: 076b a2bc 5e1d 16bd 2c73 353e 30e2 cb3d
000000b0: b032 0e3e 18f8 1c3e 5bda a33d 4a29 013e
000000c0: 8ba1 bbbd 38d6 b03c 6027 403e 8201 d93c
000000d0: 788b 23be 3f5b d63d fe2f 223e 8526 3e3b
000000e0: 56f5 053e a4ea 1b3d f16a 86bd 1d5e 84bd
000000f0: 4bdd cb3d 4691 da3d 6a7d 1d3e 1e70 1f3e
00000100: d74a 583d 750e d03d fdc3 45be edc2 d93d
00000110: 289a 5e3d 198a 05be 2846 7d3d 6045 f43d
00000120: 9e35 d33b d47f d33d 0d6d 043e c28f bd3d
00000130: 9fed 75bb 01e8 d9bb ef55 3fbd 3c44 a3bc
00000140: 376a ec3d 993b 543d 3fec 823c d377 73bc
00000150: c80e 223e 8dc2 123e 7889 8c3d 006e 1b3e
00000160: 9d62 e7bd 328a c83d ba0a e63d fee7 c5bd
00000170: 7cb9 b4bd 2cbe 313e 0924 d0bc e910 17be
00000180: 6ba7 1bbd 51f7 56bd c248 833d 066a 73bd
00000190: 3463 fa3d e76c 493e 102d 9ebd 3a55 53bb
000001a0: e936 e93d ec71 133e 99b1 673d f479 65bd
000001b0: c3c6 f83d 9289 c73c fc1a 1a3e ab67 fa3d
000001c0: dbe0 0dbd 107d b73d 2413 883d 2e18 503d
000001d0: 51a3 12bd 3ef1 08be 2aa2 2e3d fd21 71bd
000001e0: 38c6 d63d 6749 55bd 0e4d b1bd ad57 923d
000001f0: fbf8 d8bc 00f6 033e a948 d83d a46e 903d
00000200: 1401 b53c 08f3 5b3d 9d8d f1bd 16db 073e
00000210: 71b3 37bd e11b 8ebb d45f 1e3d 00a6 65bd
00000220: 4a56 72bd fb62 133d d0f3 073e bf99 3dbe
00000230: c1cd cc3d 4366 1bbd eb5a 92bc 1068 2bbe
00000240: 95ac 21be 7d7c a0bd e6be 1b3e 38ef f8bd
00000250: 2290 9f3c a189 21be 962b 323e 66c0 1bbc
00000260: b52d e7bc 3ff4 84bd 842a 10be db94 25be
00000270: bc70 d1bd 4381 333a 43a2 05bd e9c9 3c3e
00000280: 6e27 6e3d 47b4 ddbd 8eb4 e6bd ff31 d5bb
00000290: 6136 2e3e cf4f b5bc f778 313e acad 993d
000002a0: ca35 9d3c fe74 f13d 5fb3 1ebe dae9 aabd
000002b0: 17df 063e a464 51bc 9eb8 d03d 0670 b13d
000002c0: 776d 5dbd 78ea debd 87c7 023e cc4a 4dbd
000002d0: 92d7 f9bd 6921 a5bc a912 f8bd 1a5c cebd
000002e0: 1f22 1cbe 2914 05bd 9942 a0bd ce12 b0bd
000002f0: 12c7 38bc ee8a 23be 02c4 85bd 562e 833c
00000300: 4c28 793d fcf8 e4bd e0db e8bd d9ee b43c
00000310: cc90 d7bd 4b13 b03d 4732 03be a4c6 ebbd
00000320: 6944 bfbc d7f3 20be 2d8a fdbd 02ad 7e3d
00000330: 0f46 1a3d b74a 0fbd da38 193e 4d68 25be
00000340: 15d3 693c 84d4 cfbb f28f fbbd 4e10 9e3c
00000350: 3464 da3d e9a9 e5bc 9315 9d3b ae78 39be
00000360: 503b 2c3e c283 273d e4ac 903c bdba 003e
00000370: 8775 12bd 26e0 0dbe a44d f23d b336 53bd
00000380: 69e4 f9bd de9e 66bc 4a63 19be 1e5d 5abe
00000390: dd9b 8c3d 39c8 6c3c d5f8 6b3b 9c8e d23d
000003a0: 7482 62bd ecf5 09bc 744c dfbd a68b 8a3b
000003b0: 1604 273e c5a9 443d 4cb6 76bd 2b43 4bbe
000003c0: a0fc c6bd 4aa6 15be 5b74 f63c dd84 093e
000003d0: eb65 9c3b f1ea 21be 4bb1 9c3b fd19 333e
000003e0: 0922 ca3b 726b 2abe d9c5 643d 6669 b2bd
000003f0: 0ad0 c0bc e2a8 0abe b5c1 63be 413f aabd
0.03879117 -0.12536833 -0.12382224 -0.1052371 0.071470946 0.171774 0.15228648 0.1660997
0.02984523 0.19783746 -0.11327095 0.07314592 -0.105778284 0.08802872 0.124642655 0.1100952
-0.1399693 -0.026923101 -0.05137666 0.029356917 0.04743004 -0.09720506 -0.08508961 0.06295841
0.051740516 0.042147 -0.19384079 0.026889715 -0.033406306 0.03921764 0.067517355 -0.14659776
-0.19562903 -0.16927199 0.21808855 -0.06665523 0.14567263 0.15273367 0.15786943 -0.020710545
-0.019826425 -0.0366491 0.17719716 0.09955251 0.13886523 0.15329015 0.080006324 0.12613407
-0.09161671 0.021586522 0.1876502 0.026489977 -0.15971172 0.104666226 0.1583862 0.0029014659
0.1308187 0.038065568 -0.06563366 -0.06463263 0.09954318 0.1067224 0.15379873 0.15570113
0.052805748 0.101590075 -0.19313045 0.10632882 0.054346234 -0.13040961 0.061834484 0.11927295
0.0064456007 0.10327116 0.12932225 0.09255935 -0.0037525666 -0.0066499715 -0.046712812 -0.019929998
0.115436964 0.05181465 0.015981792 -0.014860111 0.15825951 0.14332028 0.068621576 0.1517868
-0.11298106 0.09791984 0.11232515 -0.096633896 -0.08824441 0.17357701 -0.025407808 -0.14752544
-0.03800146 -0.052481953 0.06410362 -0.059427284 0.12225953 0.19670449 -0.07723439 -0.0032246844
0.113874264 0.14398926 0.056565855 -0.056024507 0.12147286 0.02435759 0.15049356 0.12226804
-0.034638267 0.08959401 0.06644276 0.05080431 -0.035800282 -0.13373277 0.04263512 -0.058870304
0.10487026 -0.052071955 -0.08657275 0.07145629 -0.02648591 0.1288681 0.10560734 0.07052353
0.02209524 0.05369857 -0.11794589 0.13267168 -0.044848863 -0.0043368195 0.038665608 -0.056066513
-0.059164323 0.035983067 0.13276601 -0.1851568 0.10000182 -0.03793932 -0.017865619 -0.16738915
-0.15788491 -0.07836244 0.1520954 -0.12155002 0.019477908 -0.15775158 0.17399439 -0.009506321
-0.028220037 -0.06491899 -0.14078718 -0.16170065 -0.102265805 0.00068475696 -0.032625448 0.18436398
0.05814307 -0.10825401 -0.11264907 -0.006506204 0.17012931 -0.022132782 0.173313 0.075038284
0.019190688 0.117898926 -0.15498112 -0.08345385 0.1317104 -0.012780342 0.10191463 0.08663945
-0.054059472 -0.10884565 0.12771426 -0.05012016 -0.1219932 -0.020157533 -0.12112934 -0.10076161
-0.15247391 -0.03248993 -0.078252025 -0.08597337 -0.011277931 -0.15970966 -0.06531526 0.016013306
0.060829446 -0.111803025 -0.11370063 0.022086548 -0.10525665 0.0859743 -0.12812148 -0.11512497
-0.02334805 -0.15718018 -0.123798706 0.06217671 0.03766447 -0.034983363 0.14963093 -0.16153069
0.014271517 -0.0063424725 -0.12283315 0.019294884 0.106636435 -0.028035121 0.0047938316 -0.18112442
0.16819501 0.04089714 0.017660566 0.12571235 -0.035756614 -0.13855037 0.11831215 -0.051565837
-0.12201769 -0.014075963 -0.14979282 -0.21324584 0.06865666 0.014452034 0.003600647 0.10281107
-0.05530019 -0.008420449 -0.10903254 0.004228073 0.16310152 0.048013467 -0.060232446 -0.19849841
-0.09716153 -0.14614215 0.03008478 0.1342959 0.0047728918 -0.1581228 0.004781877 0.17490382
0.006168608 -0.1664255 0.055852745 -0.087115094 -0.0235367 -0.13540986 -0.22241862 -0.08312846

bottleneck0.0.bias f4 [192]
00000000: 00d3 973d 11db c23d 3e6f 243d afa3 8e3d
00000010: ba35 e3bc 5edf ebbd 113e 903d d788 403d
00000020: d917 31bd e6e7 98bd 4e5a b43d 9bbb 433e
00000030: bafb fdbd dd3b 78bd 3a21 05be 0181 fb3c
00000040: 5460 ef3d 008c 05bc 7f26 d33d 6d55 49bd
00000050: 071f dd3a 23a1 55bd bebe a7ba 991f 7cbd
00000060: a2ba 823c 6ce5 753d 3b2a 14bd a29c 5f3d
00000070: 1e85 983d 7ba3 2ebe 385b 23be 3721 ea3d
00000080: 65bb 29bd 3aca 15be feae 273d f37c 273e
00000090: e54d c33d 2726 92bd c418 6cbd 606b a93d
000000a0: da01 793a fdb9 29be 715a dc3d a29d 96bd
000000b0: 93e9 a63d bf42 ac3d 0c07 3b3d cacd 193d
000000c0: 756d 41bd b614 be3d 9dff a53d a10f 1cbe
000000d0: 67e6 e2bc 2d5c b7bd d6c4 56bc 6005 023e
000000e0: 15d4 30be 9bc4 64bd adbe 0d3e c83f 29be
000000f0: 784d 363d 03d9 063e 4229 63bc b3a3 613d
00000100: 1401 d939 1760 db3d ea9d cb3d ac68 003e
00000110: efb0 42be 0c51 a73d dc47 c1bd 9497 d03d
00000120: 3d1a d4bd 3670 73bd a548 c4bd e818 a9bd
00000130: 53f9 ebbb 1fbc 53bc cc15 4c3b e8d8 053d
00000140: c18a 16be 0fa2 2abe f435 52be 32dc 1e3e
00000150: 0d79 2d3d c322 b8bd 26d3 d2bd 2067 02be
00000160: 8cdc fcbd fb6c 483c fa09 48bb 78ae 963d
00000170: ddc3 7d3d d338 f2bd 3ac8 db3d d0b5 173e
00000180: 61c7 68bd f89e f4bd 1e47 0a3e 0cf3 0c3e
00000190: ecf1 3dbd 892c cbb9 8fab eabb ca43 1abe
000001a0: 8a76 423e db3e 253e 5402 f0bc 07e4 513c
000001b0: d008 a5bd 1509 b53d d3aa fb3d 6c2c 453d
000001c0: ba19 61bc 8991 3c3e 56a2 5b3d b3ff f8bd
000001d0: e40e e1bd 68e6 abbd 77ac 1fbe 63cd 843c
000001e0: e5ba 3a3e e9aa be3d b2f5 b0bd 4e38 223c
000001f0: 3246 983d 9f1f d1bd eff5 6fbd b8b4 3bbe
00000200: 8b37 da3d 286b b83d 5e15 d53d 1434 f6bd
00000210: e35e 31be 72ec 19be 306c 31bd d6b4 89bc
00000220: f9ca cdbc c156 393e 986f dd3d 0a6f fabc
00000230: 7d5c 1bbd d53e f03c 2bdf 2abe bb17 10bd
00000240: 0a6f bebc a68d 5abd 464a 183e a3ce 1f3e
00000250: 33d5 d03d 4dae f33c 7e4d acbc 91bf 443d
00000260: f292 d8bd 6fbc b3bd 268c 1e3e 0096 80bb
00000270: 55ef 19be 102b 873d 6326 8d3d 436e d03d
00000280: 5b99 5fbc da17 b0bd 1ab2 da3d 31b9 1dbe
00000290: b8ad cebd 106e 06be 72c9 7d3d 7a9a 0dbe
000002a0: 1986 e1bd 77a7 3ebe 1e02 ecbc 2c73 33bd
000002b0: c8a9 0d3e 06d5 c2bd 7e71 2bbe 5987 e23d
000002c0: d0de b03d f216 f2bb 37eb da3d 20eb 113e
000002d0: f41a dcbd 6468 973d 8534 2dbe 70e6 253e
000002e0: d0b4 973d 9857 2dbe 0975 033e 8f1e 2f3e
000002f0: 0755 f2bc 6a9f 5fbd b2ff 19be 38ea b2bd
0.07413292 0.0951444 0.04014515 0.06964814 -0.02773558 -0.11517213 0.07043088 0.0470055
-0.043235634 -0.07466106 0.08806287 0.19114535 -0.12401529 -0.060603965 -0.13000956 0.030701162
0.11688295 -0.008151054 0.10310077 -0.049153734 0.0016870209 -0.052155625 -0.0012797934 -0.06155357
0.015958134 0.060033247 -0.036173087 0.054592736 0.07447265 -0.1705455 -0.15952766 0.114321165
-0.04143848 -0.14627925 0.04093837 0.16356258 0.095363416 -0.07136183 -0.057640806 0.08272433
0.0009498872 -0.16574855 0.10759438 -0.07354285 0.081500195 0.08411168 0.045661017 0.03754977
-0.047223527 0.09281294 0.08105395 -0.15240337 -0.027697755 -0.08953128 -0.013108453 0.12697363
-0.17268403 -0.05585156 0.13842268 -0.16528237 0.044507474 0.13168721 -0.013864817 0.055087756
0.0004139027 0.10711687 0.09942229 0.12539929 -0.19012807 0.08169755 -0.09437534 0.10185161
-0.10356567 -0.059433185 -0.09584168 -0.082567036 -0.0072013526 -0.0129232695 0.0031140922 0.03267756
-0.14701368 -0.16663383 -0.20528394 0.15513685 0.04235177 -0.08991005 -0.102941796 -0.12734652
-0.123467535 0.012233014 -0.0030523525 0.07357496 0.061954368 -0.118272446 0.107315496 0.1481545
-0.056830768 -0.119443834 0.13503692 0.1376459 -0.046373293 -0.00038752359 -0.0071615647 -0.15064922
0.18990532 0.16137259 -0.029297985 0.012810714 -0.080583215 0.08839623 0.122884415 0.048138067
-0.013739044 0.18414892 0.053621612 -0.12158146 -0.10989168 -0.08393556 -0.15593134 0.016211217
0.18235357 0.09309942 -0.08640613 0.009901119 0.07435264 -0.10211109 -0.05858415 -0.18330657
0.10655125 0.090048134 0.10404466 -0.12021652 -0.17321353 -0.15031603 -0.043316066 -0.016809862
-0.025121199 0.180995 0.108123004 -0.030570526 -0.03793 0.029326836 -0.16686694 -0.03517888
-0.023246307 -0.053357743 0.14872083 0.1560617 0.101969145 0.029746199 -0.021033045 0.048034254
-0.105749026 -0.08776175 0.1548315 -0.0039241314 -0.15032704 0.066000104 0.06892087 0.10177281
-0.013647403 -0.08598299 0.106785014 -0.15402676 -0.10091728 -0.13127923 0.06195969 -0.1382846
-0.11011905 -0.1861857 -0.028809603 -0.04381101 0.13834298 -0.09513287 -0.16742513 0.11060972
0.08636248 -0.007387989 0.10689395 0.1424985 -0.107473284 0.07392958 -0.16914566 0.16201186
0.07407534 -0.16927946 0.12837614 0.17101501 -0.02958156 -0.05459539 -0.15038946 -0.0873608

bottleneck0.1.weight f4 [192]
00000000: e9fd 7a3e 674e 723d 8a48 663f 9b8b 4f3e
00000010: 0419 663f 00b6 6f3f 9568 613d 904d 813e
00000020: 47d5 753e b409 ed3e f789 a13e 68e4 b53e
00000030: 5db4 683f 7841 023f 86ed 113f c030 183f
00000040: 7ca0 4e3e eb47 6f3d 8734 843e c1c4 d23e
00000050: 456d fb3e 767c ef3d e05e d93e 1719 f53e
00000060: 6b31 2b3f ff39 2d3e c751 0d3f 0724 cc3e
00000070: 3d0a 243f dbda 083f ae96 e03e fa4a 113e
00000080: 3fb0 1e3f b0a0 28bd f6b3 7f3f 305f 8e3e
00000090: 7afb 0b3e 0a9e f23e f3dc 3e3f 8f94 953e
000000a0: adf8 413f 7a6c 853e e86b 213f b859 7d3f
000000b0: d7f9 103f 10ed 3d3f 8df8 043b 5d8c 1f3f
000000c0: 6893 da3e 69b5 0e3e 1649 4b3f e485 493d
000000d0: 5ff4 623f 5a5b d53e e210 b33e f6ee 323f
000000e0: fd58 213e 7a90 eb3d e315 7b3f 7a75 2f3e
000000f0: a660 153f 019e 2f3e 7adb 683f 5eaf 6b3f
00000100: 8d76 b93e 442b 5f3f 5730 743f cb1a 063d
00000110: 96fa 873d 1c43 de3e 1374 6d3f 1c4a 513f
00000120: 2cd8 843e e0dc b43e 972a be3e c523 303f
00000130: 608f f43d 58f2 863e a85e b23e c484 343e
00000140: 0ab3 933e 4082 3c3f 65a8 0e3f 57e4 033f
00000150: ce85 3e3f a3b3 bb3e 1b7d 103f b83f 443f
00000160: f495 9f3d 2d14 513f d05a 4c3f 6902 3d3f
00000170: 0165 4d3f 6a03 0a3f d628 273f e97e 2e3f
00000180: e81d 8e3e 98d6 1c3f 15dd dd3e e99b 443f
00000190: 38d8 223f b0ac 143e ce90 033f 17b1 083e
000001a0: d33f 09bd 2177 613f edcd 113e 8def fa3e
000001b0: bcd6 2c3f c2c9 db3e 2b04 2c3f 7b67 f83e
000001c0: b080 383f 4f72 423e 833d fe3e f8f1 633f
000001d0: a604 373b 782b 503f 098c 2a3f 7356 713f
000001e0: 0668 c63e d496 333d 8b51 9e3d e2cf 003f
000001f0: 2418 7f3f f32f eb3e b54f 413e 8f45 b83d
00000200: 6cb7 073f 745e 693f 69bd 583f 617d 343f
00000210: 1e16 413f 6d9b c53d 7e9a a83e 750d 113e
00000220: d55f a93e 9005 163f f2b1 e23d fbe2 ac3e
00000230: c82f 203f ca06 9e3e 90e1 893e 0e8e 9e3e
00000240: 1584 033f b309 f43e ca1b 8a3e 1cdf 8a3d
00000250: 4514 6d3f fb47 793f 628a 723f 9a73 783e
00000260: 16a1 813e 5ea3 363f 7597 673f 39de f83e
00000270: 47fb 583f bd78 4c3f 9f04 ce3e 7195 243f
00000280: 27fe 8eba e01a 773f e750 273f 1e1e 303e
00000290: d8fb cf3e 11ac a33d 6482 d63d 1319 0f3f
000002a0: 5469 383f c5ee e63e 57d6 233f 31ab 823e
000002b0: d5bc 743f fa25 3e3f b4f9 0f3e cd15 5e3f
000002c0: 0ca6 203f 58aa 273f 0170 d13e 7b25 323f
000002d0: 9df2 3c3f 043d 743f 06f0 6e3d c26a 6d3f
000002e0: 40ed 3d3f f5af 843e f74f 493f bb66 5f3f
000002f0: a8d7 c23e 6180 053f c784 cf3d 6b21 aa3e
0.24510922 0.0591568 0.89954436 0.20268099 0.8988192 0.93637085 0.055031378 0.25254488
0.2400714 0.46296465 0.3155057 0.35525823 0.9090021 0.5088115 0.57003057 0.59449387
0.20178407 0.058418196 0.25821325 0.41165736 0.49106804 0.11693661 0.42455196 0.47870705
0.6687228 0.16916655 0.5520291 0.39871237 0.6407812 0.53458947 0.4386496 0.14188758
0.6198768 -0.04116887 0.99883974 0.27806997 0.1367015 0.473862 0.7455589 0.29214904
0.75770074 0.26059324 0.63055277 0.98965025 0.56631225 0.74189854 0.002028975 0.6232355
0.42690587 0.1393639 0.79408395 0.049199954 0.8865413 0.41671258 0.34973818 0.69895875
0.15756603 0.11502166 0.9808027 0.17134658 0.583506 0.17150117 0.90959895 0.92064464
0.3622326 0.87175393 0.9538626 0.032740396 0.06639592 0.43410575 0.9275524 0.81753707
0.25946176 0.35324764 0.37141868 0.6880458 0.11941409 0.2635677 0.34837842 0.17628771
0.28847533 0.73636246 0.557257 0.51520294 0.7442292 0.3666049 0.56440896 0.7665973
0.07792273 0.8167141 0.7982607 0.738318 0.80232245 0.5391146 0.65296686 0.681624
0.27757192 0.61264944 0.43332735 0.768004 0.63611174 0.14519 0.5139283 0.13348804
-0.033508133 0.880724 0.1423871 0.49010888 0.6751516 0.42927366 0.6719386 0.4851645
0.7207136 0.18988918 0.49656305 0.8904109 0.0027926355 0.8131633 0.66619927 0.94272536
0.3875124 0.043845013 0.07730397 0.50317204 0.9964621 0.4593502 0.18878062 0.08997642
0.53014255 0.9115975 0.84664017 0.70503813 0.75424373 0.09648786 0.32930368 0.1416529
0.33080927 0.5860224 0.110690966 0.33766922 0.6257291 0.30864555 0.26929903 0.30967754
0.51373416 0.4766365 0.26974326 0.06780836 0.92609054 0.9737546 0.94742405 0.24262848
0.2531821 0.7134303 0.9046548 0.48607042 0.8475842 0.7987173 0.402379 0.6429053
-0.0010909484 0.96525383 0.6535782 0.17198989 0.4062183 0.079918034 0.10474089 0.55897635
0.7203572 0.45104042 0.6399893 0.25521234 0.95600635 0.742767 0.14060098 0.86752015
0.6275337 0.654943 0.40905765 0.6958844 0.738077 0.954056 0.058334373 0.92741024
0.7419014 0.25915495 0.7863764 0.8726613 0.38055158 0.52149016 0.10132747 0.3322862

bottleneck0.1.bias f4 [192]
00000000: 1b8a 0e3c d4c9 c73c c703 f23a 91ed 5b3d
00000010: 81c7 1b3d 1d82 36bd d799 28bc 8e5f 203c
00000020: 1909 28bd e408 973d 293f d73c 3ee0 c33c
00000030: 5482 f53c 5d3d 833c 0327 87bc 8930 193d
00000040: df43 06bd 8d59 e9bc 0ecc d03c fe19 87bb
00000050: c2f7 2c3d f57d e3bb a639 b8ba 5a2f 4d3d
00000060: a411 913c 0941 8dbc 522a d63b 5fdc 6b3d
00000070: 4323 d53c 22a8 e1bc 9dc8 a93c f830 0cbd
00000080: 3bde d3bb 5520 f73c 7bb5 f03c 28c3 31bb
00000090: 246c 3f3c a6a2 293d 9d2d 833b 2c50 6bbb
000000a0: 0306 d1bc c999 673c dbee 1fbc 1f1b a53b
000000b0: bbc2 b8bc d663 9fb9 f7d6 a6bc 5710 d3ba
000000c0: 4946 393c 2bd8 913c db0b 573c dabe d83c
000000d0: 53d2 143d 939f 5fbc 027c 193c d17a 223c
000000e0: ba34 f0bb 90b5 0bbc 7a00 17bb 2224 c3bb
000000f0: 3c96 84bb 6b3c 66bc 2a24 d9bb 67f2 963c
00000100: 3349 033d acef ecbb 9e56 5d3b d864 f5bb
00000110: 9419 f53c 1623 143a fc47 6d3b 8bee 903c
00000120: 1466 9e3b c71b 60bc 01f6 043d 3107 c3bc
00000130: a75f 6f3b eedb ffbc 42ca dfbc c91b 4e3d
00000140: c786 613c caf9 983c 1e30 e33b 1267 98bb
00000150: b395 9b3c e76c 4cbd 8f2f 8dbd df4b 023d
00000160: 4dfc 38bd e77d 53ba c525 533c 1248 0f3d
00000170: 8671 89bc 5207 873c f4c4 0f3d 65ae aabc
00000180: 9f0f f23c f63d 1abd 886a e73c fe2b 613c
00000190: ff74 f83c fbed f63c 3b50 9abc 3591 af3d
000001a0: e8bf 4dbc 63eb 113c e045 3d3c a619 253d
000001b0: 1859 dabc 9578 babc e265 c33c be41 0b3d
000001c0: 3b98 023d 29cd f2bc c430 d6bc 14ed 6b3c
000001d0: b141 09bd ed22 38ba 53e9 193c 5adc ad3c
000001e0: ba3d ebbc 65bc 023d bfc3 71bb 1ace 39bb
000001f0: 200e 92bc a490 673c 3600 3abd b7f7 453d
00000200: 9ada e9bc c06b cdbc 74a7 7dba 56c2 bf3b
00000210: 4e31 c4bc b440 34bd c346 5aba f17a 803c
00000220: e5b1 ff3b 0dc1 d9bc 8075 7a3d ed51 093d
00000230: ebae c43c 5420 0abd 919d 643a ad7f 113c
00000240: 3753 103d b188 443d 83b2 573c a8e8 373c
00000250: e2d7 bcbc 851f e03c 3242 f53c e806 483d
00000260: eda4 0fbd 033b 48bc e061 3cbd 2d5a c53b
00000270: 6497 8538 ff6d 25bd 3458 a03c 34ad 8bbc
00000280: 5d2a a3bc 5af0 b93c 3757 2dbc c6d6 88bd
00000290: 8702 ffbc 9329 893c 1875 143d 3373 99bc
000002a0: 3f0c 6f3c a509 473d 466b 3bbd 165a eb3b
000002b0: 1d52 e73b 70b3 74bd 31b7 7bbc af29 313c
000002c0: 3176 843c 479e 9cba 4e0c 5e3d 15cc 3bbc
000002d0: 2069 253c d202 ac3c bb88 9cbc 8c40 48bb
000002e0: 7fc4 27bb 9878 de3c e11c 493b fe5c c5bb
000002f0: 4535 febc c3a1 023c ca43 703c 291b 8a3c
0.008699919 0.024388231 0.001846426 0.053693358 0.03803206 -0.04455768 -0.0102905845 0.009788407
-0.0410243 0.073747426 0.026275234 0.023910638 0.029969372 0.016020471 -0.016498094 0.037399802
-0.03277957 -0.028485084 0.025487926 -0.0041229716 0.042228468 -0.0069425055 -0.0014055267 0.050093986
0.017708607 -0.017242925 0.0065358067 0.05758321 0.02601779 -0.027545992 0.020725543 -0.034226388
-0.006465701 0.030166784 0.029383412 -0.0027124379 0.011683498 0.04141488 0.0040032403 -0.003590594
-0.025515562 0.014135786 -0.009761537 0.0050386335 -0.022553792 -0.00030401227 -0.020366175 -0.0016102892
0.011308261 0.017803272 0.013125385 0.026458193 0.036333393 -0.013648885 0.009367945 0.009916977
-0.0073305042 -0.008527175 -0.0023041056 -0.005955235 -0.0040462296 -0.014052491 -0.0066266255 0.018426133
0.03205223 -0.0072307196 0.0033773552 -0.007488828 0.029919423 0.000565098 0.0036206236 0.017691871
0.004833946 -0.013678498 0.03246117 -0.02380714 0.003652552 -0.0312328 -0.027318124 0.050319467
0.013765044 0.018673796 0.0069332263 -0.004650959 0.01899228 -0.049908545 -0.06893837 0.031810638
-0.045162488 -0.0008067772 0.012887423 0.03498084 -0.016777765 0.016482983 0.03509994 -0.02083511
0.029548464 -0.037656747 0.02824904 0.013743399 0.030329226 0.030142775 -0.018837085 0.08572618
-0.012557961 0.008906218 0.011552304 0.040307663 -0.026653811 -0.022762576 0.023852292 0.033998244
0.03188346 -0.029638844 -0.0261463 0.014399786 -0.033509914 -0.00070242473 0.009394008 0.021223236
-0.028715957 0.03191795 -0.0036890355 -0.0028351606 -0.017829001 0.014133606 -0.045410357 0.048331942
-0.02854662 -0.025075793 -0.00096761365 0.005852024 -0.023949292 -0.04400702 -0.00083265844 0.015683623
0.007803189 -0.026581312 0.061147213 0.033525396 0.024009189 -0.033722237 0.0008720989 0.008880538
0.03523561 0.04798192 0.013165119 0.011224903 -0.02305216 0.02735878 0.029938791 0.04883471
-0.035069395 -0.012221101 -0.04599178 0.0060227127 6.370133e-05 -0.040388104 0.019573309 -0.017050363
-0.019917661 0.022697616 -0.010579876 -0.0668159 -0.031129135 0.016743457 0.03624448 -0.01873169
0.014590322 0.048593182 -0.0457566 0.00718237 0.007059349 -0.059741437 -0.0153635 0.010813161
0.01616964 -0.0011949026 0.054210953 -0.011462231 0.010095865 0.020997439 -0.019108167 -0.003055605
-0.0025599299 0.027157113 0.003068738 -0.0060230484 -0.03103126 0.007973137 0.0146646 0.016858654

bottleneck0.1.running_mean f4 [192]
00000000: f9db 993d df44 c03d 0934 303d 784a 873d
00000010: 5b4e eebc 4dd4 ebbd f2a4 883d dce1 423d
00000020: d031 48bd 350e a2bd b8c8 b13d 92b4 3d3e
00000030: 022e f5bd fcba 7cbd 7601 02be 82c8 ea3c
00000040: 5b65 eb3d 7bcb 16bc ac0c cc3d d4d8 48bd
00000050: f80e 7abb 161d 6abd a870 6bba 4e61 69bd
00000060: ba84 913c 7e6b 7e3d 7d77 33bd ca31 683d
00000070: 75c0 993d ee31 2fbe f13a 25be edbd e23d
00000080: 8520 11bd 960a 14be 467d 2b3d fbf7 263e
00000090: e9ed c63d 904b 96bd c9b8 76bd c794 ac3d
000000a0: dd20 25b9 332c 27be 6ca3 de3d 0740 a1bd
000000b0: 040a ae3d 1caa a83d f368 3e3d 2617 183d
000000c0: 441b 47bd 6b32 bd3d 39ad a23d d582 15be
000000d0: 94c9 cebc d06d c0bd 9a26 8dbc f45a 033e
000000e0: 1d8b 2bbe 718e 60bd 6751 0e3e 866a 2cbe
000000f0: 0072 2a3d 7f85 043e 0c67 5bbc 5964 5c3d
00000100: 7308 913b f22a df3d f2e4 d03d 0b42 fc3d
00000110: fe31 3fbe 4b63 9b3d fbd3 bfbd 9229 c93d
00000120: a595 d1bd eb55 85bd 965c c9bd 36e4 aebd
00000130: 936d dcbb 3f62 04bc 914a ad3b 2a86 023d
00000140: c46e 13be 7c90 29be e943 50be 0892 243e
00000150: 1734 303d cf54 bcbd 5a68 e2bd 76a3 05be
00000160: 2a1b fcbd 6767 833c 573d 283b 79b7 8b3d
00000170: 4098 863d 44f7 f1bd c2d0 d03d 7def 153e
00000180: 2354 58bd c69e f3bd 6d85 073e 5042 0a3e
00000190: c650 4abd b9b0 c1bb df69 dbbb 0ba7 1ebe
000001a0: ee9e 413e a767 213e 4c90 ebbc 4691 363c
000001b0: df51 97bd 3522 b63d aa57 f23d 0c29 4a3d
000001c0: d7e0 89bc 6b3f 3a3e 37ed 733d 753e 00be
000001d0: 5e79 e2bd b065 9cbd 512d 1bbe 4d72 853c
000001e0: fdae 353e b726 bd3d d6ad b9bd 6687 6c3c
000001f0: c944 9b3d ebe2 d5bd 8913 77bd 6a91 3bbe
00000200: b10f d03d d538 b23d 193d d93d 4b92 f6bd
00000210: 42a5 2fbe 13b3 1abe 96e5 2dbd d4e0 81bc
00000220: 4b7d b9bc 1d3c 363e cf05 da3d 1cc6 04bd
00000230: a612 21bd 405a f23c 0478 26be 1282 f8bc
00000240: cad9 b5bc 88e8 6fbd 85c4 1b3e 7875 1d3e
00000250: 3a10 d13d 8424 eb3c 384e c2bc 9b36 443d
00000260: fbe8 e2bd 2bd9 bfbd 9a7b 1e3e 2eae cf3a
00000270: 9aa8 1abe 2023 833d 9ed9 8f3d c62a d43d
00000280: a906 5dbc debf adbd 4dac dd3d 23d2 1dbe
00000290: 2ce2 c9bd bbd0 02be 3be5 763d aa04 0bbe
000002a0: 7554 e8bd 449b 40be 2bce 0bbd a8b6 47bd
000002b0: e002 103e 0cb4 ccbd 1ba2 2bbe b321 e63d
000002c0: 4543 aa3d 7386 4cbc 51b7 d13d f62b 0e3e
000002d0: 8cce e2bd 29e5 993d 32f7 2fbe 2774 293e
000002e0: 0c05 943d 75a3 2cbe 7d65 063e ede6 323e
000002f0: fd1c e7bc 221c 4dbd 7e5c 1ebe c67f b9bd
0.075126596 0.09388136 0.043018375 0.06606001 -0.029090097 -0.115151025 0.06672086 0.047578678
-0.04887563 -0.07912866 0.08680862 0.18525913 -0.11971666 -0.06170176 -0.1269587 0.028660063
0.114939414 -0.009203787 0.099633545 -0.04903491 -0.0038155895 -0.057156645 -0.00089813257 -0.056977563
0.017763484 0.06211423 -0.043815125 0.056688108 0.075074114 -0.1710889 -0.16135766 0.11071382
-0.035431404 -0.14457163 0.041867517 0.16305535 0.097133465 -0.07338631 -0.06023482 0.084268145
-0.00015747869 -0.16325454 0.10871014 -0.0787354 0.08498004 0.08235571 0.046486806 0.03713145
-0.048609987 0.09238132 0.07943196 -0.1460069 -0.025242604 -0.09395945 -0.01723032 0.12827665
-0.16752286 -0.054823343 0.1389824 -0.1683751 0.041612625 0.1294155 -0.0133912675 0.053806636
0.004426056 0.10896863 0.10199918 0.12317284 -0.18671414 0.07587298 -0.09366604 0.09822382
-0.102336206 -0.06510528 -0.098321125 -0.085396215 -0.0067269295 -0.008080064 0.00528843 0.03186623
-0.14397722 -0.16559023 -0.20338406 0.16071332 0.043018427 -0.091958635 -0.1105506 -0.13050637
-0.12309869 0.016040517 0.0025671327 0.06822104 0.06572008 -0.1181474 0.101960674 0.14642139
-0.052814614 -0.11895518 0.13234492 0.13501859 -0.049393438 -0.0059109596 -0.0066959704 -0.1549341
0.18908283 0.15762196 -0.02875533 0.011143034 -0.073886625 0.08893243 0.11833127 0.04935555
-0.016830845 0.18188255 0.059552398 -0.12523825 -0.11058305 -0.07636583 -0.15154006 0.016289854
0.17742534 0.092359 -0.0906636 0.014436578 0.07581479 -0.10443672 -0.060321365 -0.1831719
0.10159243 0.08702246 0.106073566 -0.12039622 -0.17152885 -0.15107374 -0.04245528 -0.015854277
-0.022642752 0.17796369 0.10645639 -0.032415494 -0.039324425 0.02958405 -0.1625672 -0.03033546
-0.022198576 -0.05857137 0.15211685 0.15376842 0.10208173 0.028703935 -0.023718938 0.04790364
-0.11079594 -0.093675934 0.15476838 0.0015844756 -0.15103379 0.06403184 0.07023929 0.10359721
-0.013490357 -0.084838614 0.108238794 -0.15412192 -0.09857592 -0.12774937 0.060277205 -0.13575998
-0.11344234 -0.18809229 -0.034132164 -0.04875818 0.14063597 -0.09995279 -0.16761057 0.11236896
0.08313612 -0.012483227 0.10240043 0.13883957 -0.11074552 0.07514412 -0.17184141 0.16548215
0.07227525 -0.16859229 0.13124652 0.17470904 -0.028212065 -0.050075658 -0.1546497 -0.09057574
