TradingGym/TradingGym_2700.pth (torch_old, 700035 bytes, 52 tensors)

conv0.0.weight f4 [256, 1]
000000 92 27 8f 3f 6b ef 79 3f 96 53 84 3f 41 a5 7c 3f
       1.1183951 0.9763095 1.0338008 0.9868966
000010 37 9f 76 3f 60 91 5c 3f 08 ba 56 3f 86 63 83 3f
       0.9633669 0.86159325 0.8387761 1.0264747
000020 aa 4a 5c 3f 3d 33 7e 3f 82 61 66 3f 76 3b 6f 3f
       0.8605143 0.99296933 0.89992535 0.93450105
000030 b0 36 63 3f 70 15 43 3f ab 3a 7f 3f da 0d 2b 3f
       0.8875532 0.76204586 0.99698895 0.6681801
000040 24 08 83 3f 5d a7 62 3f 71 df 7c 3f 16 18 92 3f
       1.0236859 0.88536626 0.98778445 1.14136
000050 8b 79 8d 3f 0d c3 63 3f ed f6 57 3f 7e f3 5d 3f
       1.1052717 0.889695 0.84361154 0.86699665
000060 78 9a 92 3f df f6 87 3f e1 b1 73 3f 83 c1 9c 3f
       1.145339 1.0622214 0.95193297 1.2246555
000070 e9 43 83 3f 7a a4 84 3f 9a 27 a0 3f 7f c1 9d 3f
       1.02551 1.0362694 1.2512085 1.2324675
000080 7c a5 61 3f f7 bd 86 3f bc 14 96 3f 4c 00 60 3f
       0.88143134 1.0526723 1.1725078 0.87500453
000090 cc 6b 89 3f 0b 17 49 3f ac 22 86 3f 9c 2d 28 3f
       1.0736022 0.78550786 1.0479331 0.65694594
0000a0 ae 66 84 3f bf be 8c 3f cd 63 57 3f b8 cd 89 3f
       1.0343835 1.0995711 0.8413666 1.0765905
0000b0 dc 4f 95 3f 7d ef 78 3f 2d 39 81 3f 2f d5 5c 3f
       1.1664996 0.9724043 1.0095574 0.8626279
0000c0 ec 18 82 3f ad 15 89 3f b2 f0 7f 3f 40 ff 75 3f
       1.0163856 1.070974 0.99976647 0.96092606
0000d0 70 ba 7f 3f 3a 3a 3f 3f 16 2a 6b 3f 48 ae 7c 3f
       0.99893856 0.7469822 0.91861093 0.9870343
0000e0 6e 40 7f 3f 90 a7 86 3f 34 d8 7b 3f ad 47 70 3f
       0.99707687 1.0519886 0.98376775 0.9385937
0000f0 7f 85 95 3f bf a8 52 3f 37 b0 7c 3f 11 1f 88 3f
       1.1681365 0.82288736 0.9870638 1.0634481
000100 6a 5a 67 3f 97 51 83 3f a3 b9 84 3f f2 63 88 3f
       0.90372336 1.0259274 1.0369152 1.0655501
000110 f6 2c 80 3f e5 27 42 3f 8b 1c 7a 3f 81 e7 5e 3f
       1.0013721 0.75842124 0.97699803 0.87071997
000120 62 1a 6d 3f b7 c7 88 3f be 9e 8b 3f 97 90 97 3f
       0.9261838 1.0685948 1.0907819 1.1841
000130 6b e9 80 3f df 42 6e 3f 53 3d 87 3f 6f 52 82 3f
       1.0071234 0.9307079 1.056559 1.0181407
000140 aa 39 80 3f 90 6f 7a 3f 20 64 65 3f cb 21 4c 3f
       1.0017598 0.9782648 0.89605904 0.79739064
000150 2f cb 50 3f ed c2 70 3f c8 4a 86 3f 57 39 42 3f
       0.81560034 0.94047433 1.0491571 0.75868744
000160 d4 f5 73 3f 2a c6 8b 3f c6 f3 8b 3f 92 48 60 3f
       0.9529698 1.091985 1.0933769 0.87610734
000170 b6 4c 41 3f 09 44 8f 3f 87 5f 75 3f 2c ca 6f 3f
       0.75507677 1.1192638 0.9584889 0.93667865
000180 e9 6f 69 3f 53 2b 94 3f ec db 4c 3f 5b 68 9e 3f
       0.91186386 1.1575722 0.80023074 1.2375597
000190 fa 18 86 3f 88 d4 84 3f 36 66 86 3f 3f c0 4e 3f
       1.0476372 1.0377359 1.0499942 0.80762094
0001a0 d3 b4 8f 3f 9f 94 81 3f cd 54 93 3f a9 a2 4e 3f
       1.1227058 1.012348 1.1510254 0.8071695
0001b0 7b 56 58 3f 8f 67 7d 3f b5 2b 70 3f 23 c3 92 3f
       0.8450696 0.9898614 0.9381669 1.1465801
0001c0 ab 9f 7b 3f 88 24 98 3f 53 95 5e 3f 1d af 80 3f
       0.9829051 1.1886148 0.869466 1.005344
0001d0 ee eb 8a 3f 1d ac 67 3f 34 c5 91 3f 23 38 84 3f
       1.085325 0.90497 1.1388307 1.0329632
0001e0 a6 78 96 3f 48 f6 7f 3f 9e db 6a 3f 89 0b 65 3f
       1.1755569 0.9998517 0.9174136 0.89470726
0001f0 73 3c 80 3f a2 b5 78 3f 26 05 85 3f fe 66 92 3f
       1.0018448 0.9715215 1.0392196 1.1437681
000200 c8 79 92 3f 4f 3e 8a 3f 6a 38 5f 3f 2e 26 7a 3f
       1.1443415 1.0800265 0.87195456 0.9771451
000210 92 5d 8b 3f 62 00 6e 3f 45 35 8d 3f 26 c0 7a 3f
       1.088793 0.92969334 1.1031882 0.97949445
000220 00 1e 90 3f cd cc 8f 3f c6 3e 9b 3f a7 73 7b 3f
       1.1259155 1.1234375 1.2128532 0.98223346
000230 ea a4 76 3f 40 1b 79 3f bc aa 89 3f 8d 98 92 3f
       0.9634539 0.97307205 1.0755229 1.1452805
000240 5f 58 8b 3f 91 f2 80 3f 8c a7 6f 3f ad b9 6b 3f
       1.0886344 1.0074025 0.9361503 0.92080194
000250 15 59 80 3f 83 d3 a2 3f 63 69 a2 3f 67 d5 7c 3f
       1.0027186 1.2720798 1.2688411 0.98763126
000260 f6 2f 55 3f c2 72 61 3f 7b da 64 3f 4f 49 5d 3f
       0.8327631 0.8806573 0.89395875 0.86439985
000270 d3 82 4b 3f 1f a1 57 3f 31 14 43 3f 59 60 89 3f
       0.79496497 0.84230226 0.76202685 1.0732528
000280 6d da 8c 3f 6e 8c 56 3f 4d 27 90 3f b3 0f 45 3f
       1.1004158 0.8380803 1.1261994 0.7697708
000290 cd 0e 6e 3f a0 42 89 3f 22 73 7c 3f 3b 5b 84 3f
       0.92991334 1.0723457 0.9861318 1.0340341
0002a0 f1 fc 5f 3f 97 65 5a 3f f4 76 7e 3f ed 4a 87 3f
       0.8749533 0.85311264 0.9940026 1.056974
0002b0 d0 80 88 3f 77 95 91 3f 24 de 8a 3f d4 50 8e 3f
       1.066431 1.1373738 1.0849042 1.1118417
0002c0 51 15 96 3f bc 86 6f 3f db 56 80 3f 59 99 62 3f
       1.1725255 0.93564963 1.0026506 0.8851524
0002d0 fa 10 72 3f da 5e 80 3f 83 95 84 3f af 51 86 3f
       0.94557154 1.0028946 1.0358127 1.0493678
0002e0 d7 5c 54 3f 33 b1 6b 3f 0d 4e 72 3f 06 43 9a 3f
       0.8295416 0.9206726 0.94650346 1.2051704
0002f0 9d 16 6c 3f ae c9 54 3f 12 d4 5f 3f 1b de 8b 3f
       0.92222005 0.8312024 0.8743297 1.0927156
000300 eb f0 8d 3f 3f e4 85 3f dd e1 46 3f df 9e 63 3f
       1.1089147 1.046028 0.7768839 0.88914293
000310 57 91 3a 3f 49 ad 74 3f 27 21 73 3f a5 77 6d 3f
       0.7287802 0.9557691 0.9497246 0.9276069
000320 e6 c2 4e 3f ba 4c 6c 3f 29 28 7f 3f 31 77 4e 3f
       0.8076614 0.92304575 0.99670655 0.8065062
000330 f2 ec 6f 3f fe b4 90 3f 3a 43 55 3f 7a e1 69 3f
       0.93720925 1.1305234 0.83305705 0.91359675
000340 75 eb 86 3f d9 99 2e 3f ce a3 58 3f 2b e7 37 3f
       1.0540606 0.682035 0.84624946 0.7183711
000350 e0 6f 2c 3f 5a 36 7e 3f b4 7f 5e 3f b6 57 8b 3f
       0.6735821 0.99301684 0.8691361 1.0886142
000360 25 d7 a1 3f e6 7e 8d 3f ce f1 7d 3f fb ef 90 3f
       1.2643782 1.1054351 0.9919709 1.1323236
000370 dc 2b 8f 3f 25 59 74 3f 63 20 78 3f d8 5c 7e 3f
       1.118526 0.95448524 0.9692442 0.9936042
000380 6c 72 8f 3f 68 0c 61 3f 99 12 45 3f 59 e0 82 3f
       1.1206794 0.87909555 0.769815 1.0224715
000390 09 c3 fa 3e 7d ae 76 3f c8 ba 80 3f 91 26 89 3f
       0.48976925 0.9636 1.0057001 1.0714895
0003a0 22 ae 8e 3f 79 46 95 3f 00 04 72 3f 81 77 79 3f
       1.1146891 1.1662132 0.94537354 0.97447973
0003b0 f3 db 95 3f 85 63 94 3f 89 32 6a 3f f6 68 7c 3f
       1.1707748 1.1592871 0.9148336 0.9859766
0003c0 b9 2c 94 3f 31 ce 46 3f 55 2c 60 3f b6 eb 84 3f
       1.1576148 0.77658373 0.87567645 1.0384433
0003d0 41 41 2c 3f fb b6 83 3f cf 33 a9 3f 39 39 a3 3f
       0.6728707 1.0290216 1.3218936 1.2751838
0003e0 6c 30 90 3f 61 8b 84 3f 07 01 6d 3f 0c 36 8c 3f
       1.1264777 1.0355035 0.9257969 1.0953994
0003f0 66 00 6d 3f 77 5f 81 3f a1 5d a6 3f 8f 70 cd 3f
       0.9257873 1.0107259 1.2997323 1.6049975

conv0.0.bias f4 [256, 1]
000000 b8 a4 7e 3b 93 4b 61 be fa 96 40 be 38 96 84 be
       0.0038855504 -0.22001486 -0.18807593 -0.25895858
000010 b5 ce 54 be 8e 34 a7 be 51 84 28 be b6 56 88 3c
       -0.20781977 -0.32657284 -0.16456725 0.01664291
000020 0d 25 d3 bb ae 15 ec bc 9a fa 60 bd 88 53 6a 3d
       -0.006443626 -0.028818931 -0.054926492 0.057208568
000030 14 62 00 be 16 e1 52 bd ae c9 95 3d f5 a4 be bd
       -0.12537414 -0.05148419 0.07313858 -0.09308807
000040 83 db 0a be c1 ae 47 be 56 cd 95 be 11 d1 76 be
       -0.135603 -0.19500257 -0.2925822 -0.2410319
000050 b5 e9 2a be b9 b6 ae be a3 8f 39 be e9 fa ba bd
       -0.16690715 -0.3412378 -0.181212 -0.091298886
000060 c8 c4 c1 be 3c 09 e7 be 79 23 4e be 35 e6 66 be
       -0.37845445 -0.45124233 -0.20130719 -0.22548755
000070 32 93 69 be 09 af db be 8c 2b a7 be 49 b2 b6 be
       -0.22810057 -0.4290698 -0.3265041 -0.35682896
000080 55 fc b7 bd e4 53 b0 be e6 f1 15 be 2a d7 05 be
       -0.089836754 -0.34439003 -0.14643058 -0.1307036
000090 46 56 dc bd 35 bd 72 be 91 c0 46 be 00 e7 dc bd
       -0.10758643 -0.23704989 -0.19409396 -0.10786247
0000a0 57 a4 36 bc 20 26 3e be 77 49 dc bd 55 ee 6d be
       -0.01114758 -0.18569231 -0.107562 -0.23235448
0000b0 fb 27 58 be 01 a4 aa be 4e 69 0e be bf e6 af be
       -0.21109001 -0.3332825 -0.13907358 -0.34355733
0000c0 90 3b 18 be 15 c9 75 be 81 63 cd bd 3f 5e 01 be
       -0.14866471 -0.24002488 -0.100287445 -0.12633608
0000d0 47 a2 b1 bd 1f d9 8a be fe 35 81 be be 34 14 3d
       -0.0867353 -0.27118775 -0.25236505 0.03618311
0000e0 e7 60 68 bd 2d 89 d0 bd 0c 51 eb 3c 31 91 47 bd
       -0.05673304 -0.10182414 0.02872517 -0.04872245
0000f0 b2 6c 41 be 2f 66 a3 be be fb f7 3d 83 e9 c0 bd
       -0.1888912 -0.31913897 0.12108563 -0.09419539
000100 40 4e 19 3d a5 46 02 3c a8 c4 86 be 87 49 86 3d
       0.03742814 0.007951413 -0.26321912 0.06556993
000110 6e 04 73 3e 16 cf 2c 3e bf 5e 0e be 20 b2 ee bc
       0.23732159 0.16875872 -0.1390333 -0.029137671
000120 f7 39 9c 3d 7d 5c 5c 3e fd 0b b2 3d ad c8 08 3e
       0.076282434 0.21519656 0.08693693 0.13357802
000130 7d d7 0f be e1 58 14 be 53 c3 84 ba bc 3e f1 3d
       -0.14047046 -0.1448703 -0.0010129012 0.11779544
000140 d9 19 02 3e a6 ce 4c 3d c9 82 b7 bd 0d ec bb bd
       0.12705173 0.050001763 -0.08960492 -0.091758825
000150 0f cf 82 bd 94 ac 8d 3d 3e 29 7a bd bf 24 82 be
       -0.063871495 0.06917682 -0.061074488 -0.2541866
000160 26 ca d9 3d 7d 80 bd bc b2 30 b8 3d 0a f1 bb bb
       0.1063426 -0.023132557 0.08993663 -0.005735521
000170 54 c8 9e bd 7f 2a 17 be 68 5e 94 bd cd 1a 5d bd
       -0.07753053 -0.14762305 -0.07244569 -0.053980637
000180 73 1c b9 3d ca 40 a0 3e 99 52 2d 3d 78 f4 fb 3c
       0.090386294 0.3129943 0.0423151 0.03075622
000190 36 c6 19 3d 1d 7d 47 3d 4d da d3 3d 90 60 0a be
       0.037542544 0.0487033 0.10344372 -0.13513398
0001a0 4e 09 35 be 89 d2 b8 3c ce 67 fd bd fb ea 98 bd
       -0.1767933 0.022561328 -0.12373315 -0.07466694
0001b0 db 5f 16 be 96 60 17 bd 69 13 84 3d 5c b0 0f 3e
       -0.14685003 -0.036957346 0.06449015 0.1403212
0001c0 11 c5 0f 3c 2d 0f 9a 3c 6a 01 2b 3e a7 26 65 3e
       0.008775012 0.018806065 0.16699758 0.22378026
0001d0 24 3f a3 3e fa 06 8e 3d 49 c3 e5 bd aa f9 08 be
       0.3188411 0.069349244 -0.11218888 -0.1337649
0001e0 15 57 4b be 0a 39 a8 3d 36 c8 aa 3c 26 e1 27 3d
       -0.19857438 0.08214004 0.020847421 0.040986203
0001f0 b9 fd 52 be 0a 79 9b bc d0 c3 f4 3d a0 a6 4e 3e
       -0.206046 -0.018978614 0.11951411 0.2018075
000200 36 a7 a1 bc 73 cf 92 3d 98 1d d3 bc 80 11 dd bd
       -0.019733053 0.07168474 -0.025770947 -0.107943535
000210 75 1a 80 3e 3c b7 b0 3d dd 2f 14 3d f0 55 ac bd
       0.25020185 0.08628699 0.03617846 -0.08414829
000220 0c 04 fb 3d 8d ec f0 3d a3 d3 92 3d 4b 8c c9 3d
       0.12256631 0.117638685 0.07169273 0.09841212
000230 e3 22 cc bd fb 70 42 3e 0f 04 88 3e 9e b3 81 3e
       -0.099675916 0.18988411 0.26565596 0.2533235
000240 94 78 12 bc 18 6d 80 3d 48 33 87 3e d1 aa 57 3d
       -0.008939881 0.06270808 0.26406312 0.052653138
000250 0e d4 0e bd 0c 6c 25 3e 93 6a 88 3e 9d c7 bd 3d
       -0.0348702 0.16154498 0.2664381 0.09266589
000260 39 33 55 3e 52 d5 e6 3d 5b f4 85 be 59 46 23 3d
       0.20820321 0.11271156 -0.2616299 0.03986201
000270 b2 b5 50 3d 66 90 63 3e 79 9a ad 3d cb f5 09 3d
       0.05095453 0.22223052 0.08476729 0.033681672
000280 43 5b d8 bd 1a a6 11 bd a5 cf 22 3e 27 79 ee 3d
       -0.10564282 -0.035558797 0.15899523 0.11644202
000290 6f 0a 0f bd 33 0b 45 3d 54 47 38 3e 8f 19 e5 3d
       -0.03492206 0.048106384 0.1799596 0.111865155
0002a0 1f 5b c0 3d 06 8a bb 3d a9 d5 c4 3d 0a 1d 9a bd
       0.0939238 0.09157185 0.09611065 -0.0752507
0002b0 b3 25 37 bc 19 dd 5a 3e 26 f1 84 3e 7d cc 78 3e
       -0.011178422 0.21373405 0.25965232 0.24296756
0002c0 27 5a 9b bd 95 4b 40 3e 5d 8d 8d 3d 0c d8 4f 3e
       -0.075855546 0.18778832 0.069117285 0.20297259
0002d0 d3 a1 2c 3e b2 1a a3 3d cd 2f 98 3c 7a f4 98 bd
       0.16858606 0.07964076 0.01857748 -0.07468505
0002e0 a5 8a 39 3e 22 8a 22 3d 31 80 dc 3d 46 e1 53 bc
       0.18119295 0.039682515 0.10766638 -0.012932127
0002f0 06 72 60 3e 03 61 9e 3e 11 00 61 3e 88 a3 82 3e
       0.21918496 0.3093339 0.21972682 0.2551539
000300 6a 72 04 be c6 ea 70 3d 79 59 b8 3b 65 f0 8f 3e
       -0.1293427 0.058817647 0.0056259003 0.28113094
000310 56 c4 14 3e 37 d1 13 3e ac 12 c4 3d 2a 7b bb bd
       0.14528021 0.14435278 0.09573874 -0.09154351
000320 94 bd 20 3d b1 09 52 3e 75 93 67 3d 4a a0 1a 39
       0.039243296 0.2051151 0.05653711 0.00014746297
000330 bc 4e 52 3e 6b 13 af 3d f3 d7 bb 3d 9b de b9 3e
       0.20537847 0.085486256 0.091720484 0.36302647
000340 62 65 b8 3c 06 03 c7 3c 46 10 18 be c5 94 58 be
       0.02250928 0.024293434 -0.14849958 -0.21150501
000350 78 fe 39 3d 3a c2 f2 3d 53 e0 2b 3c 93 6b 9a be
       0.045408696 0.11853452 0.010490495 -0.30160198
000360 72 50 de bd 15 e2 76 3d 53 ec 07 bd 8b dc 1c 3e
       -0.108551875 0.060274202 -0.03318436 0.15318505
000370 e3 a6 14 be ae 0d 80 3d ff ac 16 be f1 76 c5 3d
       -0.14516787 0.06252609 -0.1471443 0.09641827
000380 12 4d a6 3d be d9 e3 bb 55 aa 0e bd 25 f9 72 bd
       0.08120169 -0.006953447 -0.03483041 -0.059319634
000390 40 92 e5 bc 1c 18 1f bd 00 af fd 3d 62 14 d2 3c
       -0.028023839 -0.038841352 0.12386894 0.025644485
0003a0 11 88 75 3e 18 00 bd 3e eb 3c a5 3e c8 26 b7 3d
       0.23977686 0.36914134 0.3227304 0.08942944
0003b0 42 95 84 3d 2b dd dd 3e 44 71 81 3e 7b 03 99 3d
       0.06473781 0.433328 0.25281727 0.07471367
0003c0 94 2f b3 be b6 26 c2 bd 41 98 41 3e 0b 82 9c 3d
       -0.34997237 -0.0948004 0.18905737 0.07641991
0003d0 6f 60 d6 bd dc 0d 00 bb 16 68 2a 3e 2b 16 95 3e
       -0.10467612 -0.001953951 0.16641268 0.29118475
0003e0 a3 b5 a8 3e f6 06 4f 3e 76 45 3d 3a cf 37 a0 3e
       0.32951078 0.20217499 0.00072201283 0.3129258
0003f0 9b c3 ce 3e 81 41 9d 3e 55 ad 47 3e 99 72 2f bc
       0.4038361 0.30714038 0.19499715 -0.010708475

conv0.1.weight f4 [32, 16, 3, 1]
000000 62 f1 55 3d 33 e8 1f be fb 9e d7 bd fb 89 46 bb
       0.052232154 -0.1561592 -0.1052837 -0.0030294645
000010 01 df 98 bd d1 a0 17 3d 87 de 0a be 95 4c c4 3c
       -0.074644096 0.0370186 -0.1356145 0.023962298
000020 62 91 e2 bd d8 46 1f bc 79 e3 ba 3a d3 2e 0c 3c
       -0.11062886 -0.00972148 0.0014258466 0.008556086
000030 70 16 b7 bd e5 e6 50 bd b9 4e c9 bd 56 b8 2d be
       -0.089398265 -0.05100145 -0.09829468 -0.1696485
000040 09 e2 11 3d ff d8 79 3d 58 e2 bf bc 6e 49 5b 3c
       0.035615955 0.06099796 -0.023423359 0.013384206
000050 66 ab 22 be 3b 4b 1f be c4 f8 72 bc 4b 4f 48 3d
       -0.15885696 -0.15556042 -0.014829818 0.048903745
000060 20 b7 b5 3c 1a 53 b7 bd 91 65 ac 3d 2d 75 20 be
       0.022182047 -0.08951397 0.0841781 -0.15669699
000070 85 03 60 be 89 2b a6 be 8c d3 e8 bd c6 e7 1f 3e
       -0.21876343 -0.3245509 -0.11368474 0.15615758
000080 0a 71 5e be 17 22 72 3c dc f2 e1 3d 5d 38 ef 3d
       -0.21722808 0.014778635 0.1103265 0.11680672
000090 e0 71 21 3d 84 a6 0e 3d 81 e6 f0 bc 22 1c b8 bd
       0.03941524 0.03482677 -0.029406788 -0.08989741
0000a0 28 9c 31 3e b7 76 ec 3c f8 ab b6 be 6d a0 06 bf
       0.17344725 0.028865201 -0.35678077 -0.5258854
0000b0 17 b1 ff be 1b 10 99 3d 7a 90 c5 3b 53 9c 38 bc
       -0.49939796 0.07473775 0.006029186 -0.011267739
0000c0 85 ae 46 3d 33 58 34 bd 90 42 38 bd a6 9e d5 bd
       0.04850628 -0.044029426 -0.044985354 -0.104306504
0000d0 b4 31 19 3d 99 81 33 bd ee 4e 36 be 6e ae 24 be
       0.037400916 -0.043824766 -0.17803547 -0.16082165
0000e0 85 92 8d 3d ac 6a 0b 3d 95 4c da 3c 75 e6 1f bd
       0.06912712 0.034037277 0.026647845 -0.03903814
0000f0 59 eb f2 3d 90 63 b6 3d 19 c8 dd 3d 16 97 ec 3d
       0.11861295 0.08905709 0.10829181 0.11552255
000100 f4 e1 de bd ce 9b 3b 3e f7 71 9c bb 5d f4 81 3c
       -0.10882941 0.18321154 -0.004774328 0.015863592
000110 f1 bd 07 3e f0 1b f1 bd 92 68 ba be ef fe 2b be
       0.1325605 -0.11772907 -0.36407906 -0.16796468
000120 62 f8 e8 bd ec ea 9d be cb 26 95 be 6b c2 d0 bd
       -0.113755 -0.30843294 -0.2913116 -0.10193332
000130 4e a4 0a 3e 9e 34 72 be 75 06 90 bc 57 62 1b bd
       0.1353924 -0.23652884 -0.017581204 -0.03793558
000140 82 3c af be 27 7d 09 3e f7 0e 24 be d5 5c d4 3b
       -0.3422585 0.13426648 -0.16021334 0.006480793
000150 ea 79 4a 3e 3f 8c 6c bd 8c 02 39 bc e0 d6 43 3e
       0.19773069 -0.057750937 -0.011292111 0.19124937
000160 f5 aa 83 3c 73 00 1a be 5a d8 e2 be 61 d6 72 3d
       0.01607273 -0.15039234 -0.44305688 0.05928648
000170 85 03 24 bf 31 52 83 3e 2c 72 40 3c f1 0f 25 3e
       -0.6406787 0.25648645 0.011745971 0.16119362
000180 93 c9 ed 3d ec b4 4b 3e a6 06 55 3c 92 54 33 bd
       0.11610713 0.19893235 0.013002073 -0.043781824
000190 40 76 d7 3a a4 d1 ae 3e 5f 12 8c bd bf 3f 7e bc
       0.001643844 0.34144318 -0.068394415 -0.015518128
0001a0 7f cf f4 3d 3d 41 34 be 58 3c 2d bd e9 a9 b4 3d
       0.11953639 -0.17603011 -0.042293876 0.0882147
0001b0 fd fa 96 3d 37 bc 84 be a1 42 9a 3c 10 9a e9 bc
       0.07372091 -0.25924847 0.0188306 -0.028515846
0001c0 6f 5f 28 bb 73 42 fa 3c 78 e6 e2 3d 25 90 c8 bc
       -0.0025691648 0.030549264 0.11079115 -0.024482796
0001d0 8a 42 c6 bd 9b f1 f2 3d ba 17 8d 3e 0e c6 7d 3b
       -0.0968066 0.11862489 0.27557164 0.0038722786
0001e0 1d d3 7a 3b 1b 3a 9b 3d 3a 2b 18 3c 64 1f 86 3e
       0.0038272806 0.07579442 0.00928765 0.26195824
0001f0 0c ec 41 3e d3 89 fd 3e 1f d0 90 bd d3 2d d5 3d
       0.18937701 0.49519214 -0.07070946 0.10409131
000200 c8 1a 7c 3e 72 1e ff 3d 95 43 88 bd c6 63 63 3e
       0.24619591 0.12456979 -0.06653515 0.2220603
000210 78 f5 e6 3d aa ff de bd f7 72 ea 3d 3a 5e 13 be
       0.11277288 -0.10888608 0.11447709 -0.14391413
000220 00 7d 49 bd 4d df 8c bb cb 75 af 3e 44 84 ef be
       -0.049191475 -0.0042990805 0.34269556 -0.46780598
000230 cd 5a f2 3e 2a bb c0 bd 4a ce bf bc ca 4c 80 3d
       0.473349 -0.09410699 -0.023413796 0.06264646
000240 44 35 3a bd e5 a8 1f 3e af f6 d2 bd bb 87 17 3e
       -0.045460954 0.15591772 -0.103009574 0.14797871
000250 ca 97 89 be 91 77 88 3d 49 04 6b bb 23 cd bc bb
       -0.26873618 0.066634305 -0.0035860708 -0.005761759
000260 bc 8e 0f 3d 58 77 c7 bd 6e 60 10 be dd e2 c0 3b
       0.03504823 -0.0973956 -0.14099285 0.005886419
000270 a4 9b 78 bc 32 b0 c0 bd f7 8c fe 3b 9a 34 44 3e
       -0.015173826 -0.094086066 0.007768269 0.19160691
000280 95 eb 03 be d5 25 cd 3d ad 79 03 3b a2 d8 31 3d
       -0.12882836 0.100169815 0.0020061538 0.043419488
000290 d7 1d 01 bb d4 69 ce 3d b2 e8 cd 3d e3 67 cb bd
       -0.0019701624 0.10078779 0.10054149 -0.09931924
0002a0 1e 8c ca be 47 0c 8e be 29 86 9e be f9 e8 96 be
       -0.39560026 -0.27743742 -0.3096173 -0.2947462
0002b0 cf e6 0b 3e 5f 79 b7 be 25 b3 49 bc 73 f5 a4 3d
       0.13662265 -0.35834786 -0.012310778 0.08054628
0002c0 10 05 2b 3a 8a 73 42 3e d1 36 10 3e b1 4f cd 3d
       0.00065238867 0.18989387 0.14083411 0.100249656
0002d0 cb 89 0d 3e f2 93 88 3e ea d2 b9 3d 6f 17 13 3d
       0.13822095 0.26675373 0.09073432 0.03591102
0002e0 9a a7 86 bd 38 7d cb bd 50 75 e1 be f0 80 03 bc
       -0.06574936 -0.09935993 -0.44034815 -0.008026347
0002f0 19 7e e8 be 18 56 87 3d 89 d1 d8 bd d6 cb 26 3e
       -0.45408705 0.06608218 -0.10586841 0.16288695
000300 51 53 4e bd dd 6d 19 3d d8 96 0d 3e 97 90 41 be
       -0.050372425 0.03745829 0.13827074 -0.18902813
000310 f5 8f a3 bc 0a f0 c0 3d eb 18 bf 3d 18 33 47 3c
       -0.019966105 0.09420784 0.093309246 0.012158178
000320 dc 87 af 3d b1 9c 2e bc 4e 33 e1 bc 3c ec 81 3c
       0.08570835 -0.010657475 -0.027490284 0.015859716
000330 9c 7b 7e 3d 7a 5a 41 3e d2 d4 3a 3d 84 d0 2a be
       0.0621296 0.1888217 0.045613118 -0.16681105
000340 6f 34 99 3d 64 ba e4 3d eb 13 3f 3d 0f fa 05 bc
       0.07480704 0.11168364 0.046649855 -0.008177294
000350 26 4f 85 3d f0 20 63 3d 11 e4 4e be d9 fc 7a 3d
       0.06509237 0.055451334 -0.20204188 0.06127629
000360 fd 3a 24 be f6 c1 bb bd e7 97 8c be 7f 49 ce be
       -0.16038127 -0.091678545 -0.27459642 -0.40290448
000370 85 8c 9d be 99 db 2e be 7b 61 37 be fd 7a 4c bd
       -0.3077127 -0.17075957 -0.1790828 -0.04992198
000380 be 21 38 bd ef 9d 6e 3c 23 e6 75 bd 71 55 47 3c
       -0.044954054 0.0145640215 -0.06003393 0.012166367
000390 28 65 82 3d bf 58 30 3e 8a b6 ba 3d 1b 53 17 3e
       0.0636695 0.17221354 0.09116848 0.14777796
0003a0 07 eb ce 3d 31 54 ea 3d c2 7e 08 bf 74 ff 45 be
       0.10103422 0.114418395 -0.5331842 -0.19335729
0003b0 a6 30 3d bf bf c1 07 3d 72 61 d2 3d 7b 48 97 3b
       -0.73902357 0.033143755 0.102724925 0.0046167946
0003c0 97 81 01 be e4 60 ef bb 8d 2a 28 be 28 53 93 bc
       -0.12647091 -0.0073052514 -0.16422482 -0.017983988
0003d0 d7 d4 cf bd 6f f4 41 3e 10 3c c5 bd ec 2b 51 3a
       -0.10148018 0.189409 -0.09630597 0.0007979262
0003e0 9d 3a 22 3e fc b1 8e bc 33 7e d7 3c d8 04 0a 3e
       0.15842672 -0.017418854 0.026305294 0.1347841
0003f0 97 d6 32 3e e9 a0 9a bd 1c 6c c2 3b 63 3c 2c be
       0.17464672 -0.075502224 0.005933298 -0.1681991

conv0.1.bias f4 [32]
000000 f7 28 2b 3d 2e 02 19 bd 7f 15 d8 3d 02 77 38 bd
       0.041787114 -0.037355594 0.10550975 -0.04503537
000010 16 a4 97 3d 8d 01 12 3e 01 5b 63 3c 64 b2 c2 3b
       0.07404344 0.14258404 0.0138766775 0.005941676
000020 84 da 89 bd 5e 8a 21 3d 55 6e b4 3b fb 62 fd bd
       -0.06731132 0.039438598 0.0055063167 -0.12372395
000030 de 06 61 bd 41 d8 e9 bd 55 57 22 3e 93 bd 64 bd
       -0.05493819 -0.114182 0.15853627 -0.055844855
000040 f0 64 01 be 13 eb 12 3d cc b2 cd bd cf 45 8c bd
       -0.12636161 0.035868715 -0.100438684 -0.068492524
000050 33 b3 6d bd 4c 94 16 be d7 fa 03 39 8e ca 0e bd
       -0.058032226 -0.14705008 0.00012586579 -0.03486114
000060 e4 76 5a bd 48 8a db 3c a3 ef b1 bd ff 6b 9d 3d
       -0.05333604 0.026799336 -0.08688285 0.07686614
000070 3e 41 c1 bd 7b b6 12 bd 07 3a 10 be b1 3f ec bd
       -0.09436272 -0.03581856 -0.14084636 -0.11535586

conv0.2.weight f4 [32]
000000 a0 b6 eb 3d cb 72 e3 3e 74 aa dc 3e 2b 44 de 3e
       0.11509442 0.44423518 0.43098795 0.43411383
000010 2d 81 84 3e b4 f6 cc 3e 83 8a 4f 3f b9 a9 70 3f
       0.25879803 0.4003197 0.8107073 0.94008976
000020 83 24 b6 3e d5 24 a7 bc b5 00 1d 3f fb 90 8a 3f
       0.3557473 -0.020403305 0.61329204 1.0825495
000030 a1 91 39 3e 2e d2 43 3f b2 de 14 3f b9 c8 40 3f
       0.1812196 0.76492584 0.58152306 0.7530628
000040 37 b4 45 3e 9a db 07 3c 81 f5 85 3e a3 56 91 3f
       0.19307028 0.008292103 0.26163867 1.1354564
000050 fb 77 7e 3f e1 60 01 3f 25 e9 64 3e 8c f7 14 3f
       0.99401826 0.5053845 0.22354563 0.58190227
000060 36 24 dd 3e b7 88 de 3e 91 8d 6c 3d a2 38 4f 3f
       0.4319169 0.4346368 0.057752196 0.8094579
000070 1c be 76 3b 25 cf 83 3f 4b d2 31 3d 36 31 3d 3f
       0.0037649935 1.029759 0.04341344 0.73903215

conv0.2.bias f4 [32]
000000 33 32 2f 3d 5a 91 26 3d 70 04 af 3c cf 30 0b bc
       0.042772483 0.04066596 0.02136442 -0.008495524
000010 9d 26 7e bd 53 70 ce bc 47 20 ae 3c ea 0b 0e bc
       -0.062048543 -0.025200045 0.021255625 -0.008669833
000020 13 3d 0a 3c 75 c0 69 bd 04 78 1d 3d fe ec b9 bd
       0.008437413 -0.057068307 0.038444534 -0.09078406
000030 a4 fb 13 bd bc 6b 23 bd 01 94 18 3d 35 7d bd 3b
       -0.036128655 -0.039897665 0.037250523 0.005782748
000040 a9 a5 90 3c f2 51 56 3c 9e b3 49 bc 8c c2 9d 3d
       0.017657118 0.013081061 -0.0123108905 0.077031225
000050 4a 16 bf 3a 5c 59 0a bd 9f e1 d7 3c f3 5c f7 3c
       0.0014578786 -0.033776626 0.026352702 0.030195689
000060 e1 f0 e3 bc 84 28 18 3d 76 d5 9a bc 2e f9 32 bd
       -0.027824821 0.037148014 -0.018900614 -0.043694668
000070 c1 c6 db bc 78 66 1c bb b7 e0 e4 bc c4 11 ff bc
       -0.026828172 -0.0023864787 -0.027939184 -0.031136401

conv0.2.running_mean f4 [32]
000000 0f e8 45 3d f0 87 e0 bb d3 d5 7f 3d f6 00 27 bd
       0.04831701 -0.0068521425 0.062459778 -0.0407724
000010 da 47 e5 3d 02 5b 20 3e 3d 03 fc 3c 70 c1 b9 3b
       0.11195345 0.15659717 0.030763263 0.0056688115
000020 8c 9e c7 bd f7 19 ab 3d 19 b6 e0 3c 46 61 ff bd
       -0.09747037 0.08354562 0.02743058 -0.12469725
000030 02 2d 8c bd d3 44 e3 bd f9 6a 11 3e 66 7c 8f bd
       -0.06844522 -0.110971116 0.14200963 -0.07006149
000040 c3 cc 27 be 98 02 04 3d fe 41 e3 bd 21 fd 8d bd
       -0.16386704 0.032229036 -0.110965714 -0.06933046
000050 76 d9 90 bd 0d 45 03 be 55 bf bc bc 6f e8 3e bd
       -0.070727274 -0.1281931 -0.023040453 -0.046608385
000060 52 7e 36 bd 1a 87 a5 ba 61 f6 ee bd 0d ac ca 3d
       -0.044554062 -0.0012628764 -0.11668087 0.09896097
000070 34 1f b9 bd a8 72 4d bd a6 b3 10 be 9f 37 ca bd
       -0.09039155 -0.050158173 -0.1413103 -0.0987389

conv0.2.running_var f4 [32]
000000 69 0e 88 3f 11 2c 31 3f c0 2a 92 3f a8 8b 6b 3f
       1.0629398 0.69207865 1.1419296 0.92009974
000010 34 7b 36 3f 0b 18 84 3f 8e ec e5 3f b6 ee 73 3f
       0.71281743 1.0319837 1.7962816 0.9528612
000020 c6 78 5c 3f 98 24 aa 3f 06 4d a0 3f 8e eb 9f 3f
       0.86121786 1.3292418 1.2523506 1.249376
000030 ae 41 89 3f a0 c9 d8 3f 09 4b e5 3f cb 62 1a 40
       1.0723169 1.6936531 1.7913524 2.4122798
000040 db 2e 5b 3f c1 34 c6 3f ea ea 8d 3f 6b 7d ab 3f
       0.8561837 1.5484849 1.1087315 1.339765
000050 c3 23 83 3f d7 36 c1 3f c1 eb 00 40 d6 96 82 3f
       1.0245289 1.5094861 2.0143893 1.0202281
000060 ce 6e 90 3f df 5b 46 3f 23 df b8 3f 09 88 e6 3f
       1.1283815 0.77483934 1.4443096 1.8010265
000070 d8 34 98 3f 6f 90 52 3f 30 e1 94 3f a6 c8 94 3f
       1.1891127 0.8225164 1.1631222 1.1623733

bottleneck0.0.weight f4 [192, 32, 1, 1]
000000 27 61 25 be bc 41 51 bd 2d d3 89 3e 87 86 bc bd
       -0.16150342 -0.05108808 0.26918927 -0.092053466
000010 81 c7 09 be 8e 7d dc bc 6c 60 17 be 7b a3 a8 be
       -0.13455011 -0.026915338 -0.14782876 -0.32937226
000020 40 ac ce 3d ec 9e 3c 3d a8 ed 58 bd c4 62 45 be
       0.10091448 0.046049997 -0.05296102 -0.19275957
000030 57 25 a1 bd 4f 1f 08 be 30 ad ed be 6b ed d8 bd
       -0.0786845 -0.13293193 -0.46421194 -0.10592159
000040 02 e0 7b 3e 48 da 0a 3e e7 b5 64 3e 64 d4 df bc
       0.24597171 0.1355983 0.22335015 -0.027322955
000050 b2 f8 f2 bc ee c8 47 be 42 00 43 3e 25 0a b0 3c
       -0.029659603 -0.19510242 0.19043067 0.021489212
000060 13 13 47 be ff 2b 67 3e 0d 52 d6 bd a5 e4 ff bd
       -0.1944087 0.22575377 -0.10464869 -0.12494782
000070 17 4b 99 3c f6 5d 77 3d 5d 2f a5 3e f7 a2 0a be
       0.018712563 0.060392343 0.32262698 -0.13538729
000080 92 ec 89 bd 0e 26 83 3e a3 44 10 be b5 0f 12 bd
       -0.06734575 0.2561497 -0.14088683 -0.03565951
000090 d1 41 49 bd 38 37 a2 bd d8 cc a1 bd 46 99 7d 3d
       -0.049135033 -0.079206884 -0.07900399 0.06191375
0000a0 7c e8 36 bd 94 5a d5 3c d3 c7 31 3e 37 56 12 be
       -0.044655308 0.026044168 0.17361383 -0.14290701
0000b0 45 34 4c 3d 55 1f 65 be ce 11 73 3c e8 01 f2 3d
       0.049854536 -0.22375233 0.014835788 0.1181677
0000c0 95 75 ba be e7 fd 18 bd 64 6f 1a 3e f1 0d 8c bd
       -0.36417833 -0.037351515 0.15081555 -0.068385966
0000d0 28 93 b3 3e e7 4e b0 bd 6b 6d 37 be 04 a5 fa bd
       0.3507321 -0.086087994 -0.17912833 -0.122385055
0000e0 bc cc 06 3f 9b f8 13 be 81 05 f0 3d 73 c1 71 3e
       0.5265615 -0.14450304 0.117198 0.23608951
0000f0 38 40 54 bd 12 94 28 bd b6 3d 44 3c dc 8e db bd
       -0.051819056 -0.041156836 0.011977604 -0.10720608
000100 04 02 de bc e6 72 5e be 25 05 81 3d 78 2a aa 3d
       -0.02710057 -0.21723518 0.06299809 0.083088815
000110 0e d8 63 be 98 a7 96 be d7 00 da bd 63 f6 0d be
       -0.22250387 -0.2942474 -0.106446914 -0.1386352
000120 94 cc 16 3e e4 ff 16 3e d7 6c 07 be d2 70 74 be
       0.14726478 0.14746052 -0.13225113 -0.23871163
000130 88 d8 a5 3d 64 cf 4d be dd 96 bf 3c f0 3a 17 be
       0.08097941 -0.20098644 0.023387367 -0.14768577
000140 73 9e 6a 3e ac d8 11 be d4 e5 51 3e 91 2f 12 bd
       0.22912006 -0.1424281 0.20497829 -0.035689894
000150 18 09 93 3d ae a9 61 be 9e 2a 2d be 65 4a a9 3e
       0.07179469 -0.22037384 -0.16910788 0.3306457
000160 c0 6c 53 bd a5 18 c1 3e b5 8d f8 3d 89 49 49 bd
       -0.051617384 0.37714115 0.121364035 -0.049142394
000170 fb c6 5f be 48 bc 3f be ad 31 e5 3d b0 5a f5 3d
       -0.21853249 -0.18724167 0.111911155 0.11980188
000180 a0 da 05 bd 4f 05 95 be bf 27 2c bd 67 d0 13 3e
       -0.0326792 -0.29105613 -0.042030092 0.14434968
000190 34 ba 2f be bb 6c 5b be ab 60 b4 3d 04 9b 33 3e
       -0.17160875 -0.21428196 0.088075005 0.17539603
0001a0 16 79 b7 3e 8a 5f c3 bd 7f 12 86 bd 3c b0 af 3e
       0.3583457 -0.09539707 -0.065464966 0.34314144
0001b0 f5 1a 84 bc 99 fb 25 3d d3 fe 90 3e c4 f1 2f 3d
       -0.016126135 0.040523145 0.28319415 0.042955175
0001c0 dc fd 3f 3c 0a 21 ad bd 90 e9 6a 3e ba 77 11 3e
       0.01171824 -0.08453567 0.2294066 0.14205828
0001d0 8f 6e 8c 3c 8b 28 cd bd b6 95 0b be 0a 74 0d 3a
       0.017142562 -0.100174986 -0.13631329 0.00053960143
0001e0 35 1d 72 b9 b7 04 50 3b e2 44 cd 3d 9e 88 8d bd
       -0.00023089799 0.0031741092 0.10022904 -0.06910823
0001f0 10 e2 28 bc ee 2c 28 bd aa 0e 06 be cb 30 19 3d
       -0.010307804 -0.041058473 -0.13091531 0.03740005
000200 16 f0 ab 3c 44 94 e2 bd 77 7f 28 be 75 c0 f1 3d
       0.020988505 -0.11063436 -0.16454874 0.118042864
000210 fd 6a 26 be b2 ff 37 bd 32 7d 03 3d 24 28 0a 3d
       -0.1625175 -0.044921584 0.032101817 0.033729687
000220 76 b0 60 bd 1a 66 e3 3d 21 e1 d0 3d c4 5e e7 3e
       -0.054855786 0.11103459 0.1019919 0.45189488
000230 6f e2 b0 be d9 6f 62 bc 8c e5 ae 3d b3 eb 1d 3e
       -0.34547755 -0.013820612 0.08539876 0.15421943
000240 53 a7 2f bc d4 de 92 bc fe dd 20 3e 99 17 3a bd
       -0.010721046 -0.017928518 0.15709683 -0.04543266
000250 a6 4e 08 be 28 6d 40 3e cd a0 bd bd e6 06 9e bd
       -0.13311252 0.1879164 -0.09259186 -0.077161595
000260 77 38 93 bd 0b db 41 be 43 bc d6 3d dc 34 a4 bb
       -0.07188504 -0.18931215 0.10485127 -0.005011184
000270 46 5b 86 3e 20 54 91 be ca 98 cf be 9c 94 da 3d
       0.2624151 -0.28384495 -0.40546256 0.10672876
000280 da 7f ee 3d 96 e7 b4 bd 5a 8d 5e 3e 81 70 95 bd
       0.116454795 -0.08833234 0.21733609 -0.07296849
000290 c2 54 42 3e 5b c9 d1 bd 3a ee 2c be 5d 84 01 3e
       0.18977645 -0.10243484 -0.16887751 0.12648149
0002a0 90 0a ad bd c8 31 17 3c 74 a5 7d be df ff 28 be
       -0.0844928 0.009228177 -0.24770147 -0.16503857
0002b0 76 9d 49 3e a9 e1 09 3e 14 55 b8 3d 81 74 a0 3e
       0.19688973 0.13464989 0.09000602 0.31338885
0002c0 53 c4 b8 bd db b8 b9 3e ca d2 8e be 53 b9 e9 bd
       -0.09021821 0.36273846 -0.27895194 -0.11412301
0002d0 ea fc 8b be 3f 88 04 bd 9d 19 02 be ea f8 26 3e
       -0.27341396 -0.032356497 -0.12705083 0.1630589
0002e0 7a 70 12 3d 38 04 7e 3e 68 db cf 3d e5 20 2e 3e
       0.035751797 0.24806297 0.1014927 0.17004736
0002f0 b3 03 04 3e 93 48 7e bd 01 e3 83 3d b5 af 20 be
       0.12892036 -0.06208093 0.06439782 -0.15692027
000300 15 04 48 ba bf 89 1a 3e 74 91 12 3d e0 66 42 3d
       -0.0007630003 0.15091608 0.035783246 0.04746139
000310 0a 14 03 3e 25 21 a8 bc 62 ba 16 3e aa e2 ec bd
       0.12800613 -0.020523617 0.14719537 -0.1156667
000320 9b f5 89 3c bd 68 f7 bd b4 37 de 3d 6b cf 46 3e
       0.016840747 -0.12080524 0.10850468 0.19415061
000330 e9 b9 7a 3d 55 07 03 bd ac 6b c6 bd 17 2e 7c ba
       0.061212454 -0.031989414 -0.096885055 -0.0009619905
000340 ea 3c 77 bd 12 a9 3c bd ab e5 39 3e d9 0e 03 3f
       -0.060360827 -0.046059676 0.18154018 0.5119453
000350 61 d0 4b be 04 8e 5e 3e b3 4a b2 3d a0 a6 80 bd
       -0.19903709 0.21733862 0.08705654 -0.06281781
000360 d4 ca d3 be 29 11 88 3c 36 3b 18 be 27 79 62 be
       -0.41365683 0.016609745 -0.14866337 -0.22116528
000370 12 ab f4 bd 98 4b 19 3e 98 06 f1 3d 82 ba 9b bd
       -0.119466916 0.14970243 0.11768836 -0.07603933
000380 e3 5f f9 bd b3 71 b9 3d 55 aa 4b bd fb db 23 3e
       -0.12176492 0.090548895 -0.04972299 0.16001885
000390 80 b7 96 3d f9 47 08 3d 7c bb 44 bc 00 b0 8d 3e
       0.073592186 0.033271763 -0.01200759 0.2767334
0003a0 92 d2 4c 3e f0 38 33 3e 59 38 89 bd 14 80 44 3e
       0.20002201 0.17502189 -0.067002006 0.19189483
0003b0 12 73 9b be 4c 63 05 3e ac 13 6d 3d 6c bc 3f 3e
       -0.3036123 0.1302616 0.05788009 0.18724221
0003c0 b6 ba 9f bc 5b 67 a1 3d 3a 62 19 3e e6 a2 84 3e
       -0.01949821 0.078810416 0.14978877 0.25905532
0003d0 a1 44 95 be 04 3d d7 3d 50 c3 a5 bb 10 bd 9e bd
       -0.29153922 0.10509685 -0.0050586835 -0.077509046
0003e0 8c 24 ae 3d 8d fd cc 3d 87 35 c6 3e bb 1d 05 be
       0.085030645 0.100092985 0.38712713 -0.12999623
0003f0 7e 1b 23 3e 00 54 72 3d 72 c9 e8 bb 4b 5b 8e 3d
       0.15928456 0.05916214 -0.0071040923 0.069510065

bottleneck0.0.bias f4 [192]
000000 70 77 96 3d 10 5a b1 3d 24 58 19 3e 41 75 d5 bd
       0.07347 0.08659756 0.14975029 -0.10422755
000010 9b 4d da bd 3a 4f 92 3d 1a 63 5a 3e a1 f4 40 3e
       -0.10659333 0.071440175 0.21326867 0.18843319
000020 ec ad 3d be bc 64 c1 3c 1a a4 5c bd 2d 2f b1 bd
       -0.18523377 0.023607604 -0.053867437 -0.08651576
000030 76 73 f0 bb a9 74 4c bc f5 1d c5 3d 03 1e 29 bc
       -0.0073379828 -0.012478986 0.096248545 -0.010322097
000040 ef af 26 bd 08 67 c7 3d f2 27 2c 3e 89 a1 30 be
       -0.040695127 0.097364485 0.16812113 -0.17249121
000050 82 2e 13 be c0 82 51 3d f9 3f 1d 3c fd 16 ed bd
       -0.1437321 0.051150084 0.009597772 -0.1157665
000060 75 76 0a bd 7f fc 9e bd da 14 1b 3e 1d 58 b0 bc
       -0.033804376 -0.077630036 0.15144673 -0.02152639
000070 85 c1 93 3d 88 a4 1e be 26 55 e2 3d 6f 1a ab 3d
       0.07214645 -0.15492451 0.11051397 0.08354651
000080 76 49 13 be 65 36 0a be e0 62 ce 3a 77 a4 89 bc
       -0.14383492 -0.13497312 0.001574602 -0.016802056
000090 c3 a3 f4 3d f4 3c e8 3d 41 e0 be 3c 17 9b d2 3d
       0.119452976 0.11339751 0.023300292 0.10283487
0000a0 b8 2d 2e 3e ce 0d 92 3d e2 f0 1c 3d 17 9a 3a be
       0.17009628 0.07131539 0.03831566 -0.18222843
0000b0 6d 12 05 bd b6 75 1f be 21 5f 2e 3e 7e d2 58 3e
       -0.032488275 -0.15572247 0.17028476 0.21174046
0000c0 9c fc 6f 3d 01 cf da bd 51 e4 ec bc 5d 83 2c 3c
       0.058590516 -0.10684014 -0.028917463 0.010529366
0000d0 cd 05 11 bd b5 c2 5f bd d9 04 b0 3c 25 0c 97 bd
       -0.035405923 -0.054629046 0.021486687 -0.07375363
0000e0 bd bc 00 bc c3 64 72 3c b7 30 de 3d 2a 73 23 3e
       -0.007857499 0.014794531 0.10849135 0.159619
0000f0 a8 3d f5 3d 7c 36 02 3e 22 a2 46 bd 78 d6 dd 3d
       0.119746506 0.12716097 -0.048494466 0.10831922
000100 31 5c 9c bc 9f 69 bf bd 74 b5 9a 3c 24 f2 53 3e
       -0.019086929 -0.093463175 0.018885352 0.20697838
000110 7b cb 08 3d 23 57 94 3d d9 87 a8 bd 83 b2 a5 3c
       0.03339718 0.072431825 -0.08229036 0.020226723
000120 48 63 6f bd 4c c9 2c bc a0 e9 9e 3c 17 a3 b9 3c
       -0.05844429 -0.01054604 0.01939851 0.022660775
000130 99 0d f7 3d fc b1 00 bb ac 88 2e 3e f4 85 9a bd
       0.120631404 -0.0019637337 0.17044324 -0.07545081
000140 2b f6 fe 3d 9c 50 d5 bd 9b 94 0e 3e 6b 54 25 3d
       0.124492966 -0.10415766 0.13923876 0.04036371
000150 be 2d a9 bc 50 9c 3b 3e 3e 3f 40 3e 3e 95 c7 3d
       -0.020651694 0.18321347 0.18774125 0.097452626
000160 44 75 01 3e fb 22 1c 3e 2e bd 18 bc 3a 29 9c 3d
       0.1264239 0.15247719 -0.009322448 0.07625051
000170 90 ad d0 3d ee 3e da b9 fc d2 8b bc 0c ab 23 be
       0.101893544 -0.00041627086 -0.017068379 -0.15983218
000180 ba 50 42 be cf 4a 2e 3e e4 3f 32 3e 83 89 19 be
       -0.18976107 0.17020725 0.17407185 -0.14993863
000190 3d f5 0c 3d 0b e2 ad bd ee 93 a3 3c d9 a9 12 3e
       0.034413565 -0.0849038 0.019968 0.14322604
0001a0 a5 68 55 3e 92 ac 03 bd d1 ea 24 bd 00 20 33 3e
       0.208407 -0.032146998 -0.040263 0.17492676
0001b0 17 44 c1 3d b7 e1 bc 3d d3 7b 59 bd 6a 6f fd 3d
       0.09436815 0.09222739 -0.053096604 0.12374766
0001c0 59 75 ee 3d a2 18 a9 bc 52 0b 4d 3d ea 66 0e bc
       0.11643476 -0.020641629 0.050059624 -0.008691529
0001d0 39 2c 29 be 3a 2e e7 3c 80 29 a8 3d e6 95 ee bd
       -0.16520776 0.028220285 0.082110405 -0.116496846
0001e0 af 1f ae bd 77 d8 d5 bd e8 a7 26 bd 29 05 2d be
       -0.08502137 -0.10441678 -0.04068747 -0.168965
0001f0 b4 4c 02 be fd e7 2e 3e ce 98 be bc 97 58 81 be
       -0.12724572 0.17080684 -0.023266222 -0.252629
000200 a1 6a a7 bb 88 59 fb bd c0 a7 5e bd 9f 48 67 3d
       -0.0051091467 -0.12272936 -0.054359198 0.05646574
000210 5d 5f df 3c 82 b0 fe bd 49 32 56 3d e3 e8 33 be
       0.027267152 -0.1243601 0.05229405 -0.17569308
000220 11 23 e2 3c 26 0e 21 be c1 29 39 3e 71 7d 30 bd
       0.027604612 -0.15728053 0.18082334 -0.04308838
000230 50 e2 f0 3d 78 dc 35 3e 6d 0d 20 3c c0 b6 88 3d
       0.11761916 0.17759883 0.009768826 0.06675482
000240 c8 76 54 3d 7d a6 ec bd 0b 39 6f bd 50 49 1e be
       0.05187109 -0.115551926 -0.05840401 -0.15457654
000250 1d e4 97 3d 31 b7 ee bc a8 cb a1 bd ff 95 c1 3d
       0.07416556 -0.029140087 -0.079001725 0.094524376
000260 b2 24 7c bd f5 36 9e bd 69 3f 44 be 0c 53 e4 bd
       -0.061558433 -0.07725326 -0.19164814 -0.111486524
000270 dd 77 ce bd f8 32 e0 bd bb ba c8 3d ab 57 14 be
       -0.10081456 -0.109472215 0.09801241 -0.14486568
000280 fb 4a 09 bd 75 a0 0a 3e 9b 32 79 3c a4 a3 db bc
       -0.033518773 0.13537772 0.015209819 -0.026811428
000290 83 89 9f 3d fb 77 73 bc fd c5 c6 3c 81 1e 2b be
       0.077899 -0.014860149 0.02426433 -0.16710855
0002a0 2e b0 81 3d 97 85 40 be 92 82 02 3e 74 5c 56 3d
       0.06332432 -0.1880096 0.12745121 0.052334264
0002b0 e7 14 d8 bd 3c 94 d0 3d 24 bd d7 bc 62 85 9e 3b
       -0.10550862 0.101845235 -0.026335306 0.004837678
0002c0 cb 2e 8a bd cb 90 63 bd 76 c8 e8 3d 84 40 98 3d
       -0.06747206 -0.055558007 0.1136636 0.074341804
0002d0 66 7e f4 3d 81 ca 14 be 65 7b 06 3e 42 0a 20 bd
       0.11938171 -0.14530374 0.13133009 -0.039072283
0002e0 46 94 d8 bd 9e d0 12 be 07 bd 5a 3b 7b 9c 8f bd
       -0.10575156 -0.14337394 0.003337683 -0.07012268
0002f0 18 48 b0 bd 4a 62 b6 3d 32 b1 cd bc ce aa b4 3d
       -0.08607501 0.08905466 -0.025108907 0.08821641

bottleneck0.1.weight f4 [192]
000000 a0 f4 0e 3e 58 e9 c1 3e 3e 0d c1 3e d5 13 97 3f
       0.13960505 0.3787334 0.37705415 1.1802927
000010 e0 29 71 3f ca d9 26 3e 1d ee 3f 3f 45 eb 54 3f
       0.9420452 0.16294017 0.7497271 0.8317149
000020 aa 07 21 3f 9b 35 b2 3e c5 50 31 3f 35 48 df 3e
       0.6290232 0.34806523 0.6926387 0.43609777
000030 a6 a9 60 3f f0 ed 18 3e cb 5d 55 3f 9e a4 e5 3e
       0.8775886 0.14934516 0.8334624 0.44852155
000040 78 46 d5 3e 7a c1 48 3c b4 8f a0 3e 22 23 b6 3e
       0.41655326 0.01225316 0.31359637 0.3557368
000050 a4 ea 38 3e 85 ba 92 3e 37 e8 20 3f c9 3c be 3d
       0.18058258 0.28657928 0.6285433 0.092889376
000060 48 3d f6 3e 31 e4 e4 3e bb d4 2b 3f af 09 39 3f
       0.4809363 0.44705346 0.67121476 0.722804
000070 be de 94 3e 00 e8 1d 3f d8 fc 17 3f 29 8f 39 3f
       0.2907619 0.6168213 0.59370184 0.7248407
000080 f2 7c cc 3e 2d 09 7d 3d 89 8a 6e 3f 54 26 04 3f
       0.39939076 0.06177633 0.9318014 0.51620984
000090 fa e3 27 3e f6 29 6e 3f 83 ad 51 3f 9a 7e 43 3f
       0.1639556 0.9303278 0.8190538 0.76365054
0000a0 e9 14 d5 3e 44 67 0b 3f 80 e4 06 3f f4 c4 d4 3e
       0.41617516 0.54454446 0.52692413 0.41556513
0000b0 38 75 d9 3e a4 ec 4e 3f 31 68 3a 3f aa c1 44 3e
       0.42472243 0.80829835 0.72815233 0.19214502
0000c0 88 ae 8c 3e 3c c2 a0 3e 40 cc 8a 3f f3 0c 0e 3f
       0.27476907 0.3139819 1.0843582 0.5548851
0000d0 7a 8d 16 3f 6e 7f 0c 3f 84 e8 48 3e 45 77 e2 3e
       0.58809626 0.5488194 0.19619948 0.4423162
0000e0 9d f7 86 3f 69 bb 10 3f 56 1c 65 3e 13 83 25 3f
       1.0544316 0.56535965 0.2237409 0.6465313
0000f0 c8 cc 56 3e 08 33 8f 3d 7a 71 f9 3d 5b 67 6f 3c
       0.20976555 0.06992155 0.12179847 0.014612044
000100 cd f3 ee ba 38 1d 25 3f ed 1b d3 3e 53 52 c4 3e
       -0.0018230617 0.6449771 0.41232243 0.38344058
000110 bc 36 1a bb 98 b5 6c 3e 3b 02 13 3f fb 4c 36 3f
       -0.002353116 0.23116148 0.5742528 0.7121121
000120 0a b4 8a 3e 1a 31 ee 3e ed 77 77 3f ce a5 fe 3e
       0.27090484 0.46521837 0.9666737 0.49735874
000130 29 80 35 3d 89 c8 89 3e 8e e7 05 3f f3 45 bd bb
       0.044311676 0.2691081 0.5230645 -0.005776161
000140 26 6d 61 3e 5a 7c 8c 3e d3 b8 cd 3e 8c 60 0d 3d
       0.22014293 0.27438623 0.40180072 0.034515902
000150 3d 3d 22 3f 76 5b 2b 3f 97 50 46 3e c3 8b 50 3f
       0.6337469 0.66936433 0.1936668 0.8146326
000160 88 5b 1d 3f a2 a9 0e 3f 85 f7 33 3e 44 a4 92 3e
       0.6146779 0.5572759 0.1757489 0.2864095
000170 5d 1c 25 3f 2f 29 0a 3f 01 c8 dc 3e 2e 8f c6 3e
       0.64496404 0.5396909 0.4312134 0.38781112
000180 55 12 23 3f 67 f9 78 3f 34 77 1a 3f 94 d5 7b 3f
       0.6369985 0.9725556 0.6033814 0.9837277
000190 d9 0c c0 3e e3 f3 05 3f a8 9f bd 3e 55 2a c0 3e
       0.37509802 0.52325267 0.3703587 0.37532297
0001a0 27 1d 2b 3f 83 30 9e 3f d6 09 06 3f 70 d1 0e 3e
       0.6684136 1.2358555 0.5235876 0.13947082
0001b0 00 98 1b 3e e0 25 c2 3d f1 ce 28 3f 6a 50 74 3f
       0.15194702 0.0947988 0.6594077 0.954352
0001c0 6e 31 37 3f 0d 43 2a 3f 94 1d 32 3f ac 5e 9a 3e
       0.715598 0.6650856 0.6957638 0.30150354
0001d0 85 d6 46 3f 3f a4 8a 3e 35 20 a8 3e 70 08 0f 3f
       0.7767108 0.27078435 0.32837072 0.5587225
0001e0 71 84 93 3e 94 b7 c2 bc 39 1b 3e 3f 29 35 29 3e
       0.28811982 -0.023769177 0.7426029 0.16524185
0001f0 18 59 32 3f de 7a 80 3c e1 46 73 3e f0 ad f3 3e
       0.69667196 0.015683588 0.23757507 0.4759364
000200 9d 34 88 3d 03 8b 19 3f a5 0d 5f 3f f3 34 69 3f
       0.0665066 0.5997774 0.87130195 0.9109642
000210 a2 63 8a 3e 1f ea 74 3f 23 a0 4f 3f bf 17 67 3f
       0.2702914 0.9566974 0.81103724 0.9027061
000220 3a e3 37 3f 29 09 83 3f e4 fd 58 3f 09 42 2c 3f
       0.71831095 1.023717 0.84762406 0.6728826
000230 9e 10 cf 3e 73 b3 10 3e 94 18 a3 3e f6 2d d4 3e
       0.40442365 0.14130954 0.3185469 0.41441315
000240 ad 51 82 3e b3 b8 7f 3f a0 a8 c7 3e 54 76 ba 3f
       0.2545294 0.99891204 0.38995838 1.4567361
000250 44 4a 30 3f e3 50 5a 3f 80 59 1f 3f 44 34 30 3f
       0.6886332 0.85279673 0.6224594 0.6882975
000260 64 b0 ac ba 90 15 67 3e 7f d6 87 3e dd 7a 4a 3f
       -0.0013175127 0.22566819 0.26530835 0.79093724
000270 88 b3 38 3c b2 06 42 3e c0 de 09 3f 5f 04 d1 3e
       0.011273272 0.18947867 0.53855515 0.40823647
000280 96 4a 22 3f 23 e5 8e 3e b4 45 8a 3f 0e 18 4f 3f
       0.6339506 0.27909192 1.0802522 0.8089608
000290 4e b7 7b 3f a7 78 b9 3d 10 44 9a 3e ec b0 ff 3d
       0.98326576 0.09056216 0.30130053 0.12484917
0002a0 01 3a e8 3e 8f 8a da 3e d9 d9 a1 3e 87 1a 4c 3f
       0.45356753 0.42683837 0.31611517 0.7972798
0002b0 50 07 f2 3e 6b 35 fb 3e b6 9d b9 3e d9 05 d5 3e
       0.47271204 0.49064192 0.36253136 0.41606024
0002c0 11 f2 5a 3f e5 c9 86 3e 2c e6 1d 3f 89 54 9c 3e
       0.85525614 0.26325908 0.6167934 0.30533245
0002d0 30 ca 51 3e 76 bf 2f 3f 51 dc 9e 3e c1 6a 53 3e
       0.20487285 0.6865152 0.31027463 0.20646192
0002e0 b1 a4 d3 3e 0b 40 c7 3d 23 fc e7 bd 9a 98 6a 3c
       0.41336587 0.09729012 -0.11327388 0.01431861
0002f0 98 af 75 3f 7c 42 4b 3f 20 37 45 3f 22 99 cd 3e
       0.9597106 0.7939832 0.7703724 0.40155894

bottleneck0.1.bias f4 [192]
000000 ec 00 09 3e 33 1c 3a bd d8 7a cf bd db 0b 41 bc
       0.13379258 -0.04543705 -0.101308525 -0.011782612
000010 e4 9c 3c 3e 4b d1 51 3d 63 13 71 3e 33 1d e9 3d
       0.18419224 0.051224988 0.23542552 0.113825224
000020 67 50 ce bd 24 9f 04 3e 11 5b 88 3d a2 3d 34 bd
       -0.10073929 0.12951332 0.066579945 -0.04400409
000030 18 77 fb bd d6 58 a9 bd 53 cc be bd 65 9a 6b be
       -0.12278575 -0.08268897 -0.093163155 -0.23008116
000040 ad fa 78 3d a6 f3 24 be fa e5 02 3e a0 19 72 3e
       0.060785938 -0.1610857 0.12783042 0.23642588
000050 40 87 70 3e 32 ee 68 be 14 f8 2e 3d ca ca 05 3e
       0.23489094 -0.22747114 0.042717054 0.13065639
000060 9a 16 a9 bd ac 31 47 bd 8e 84 cb bd 89 9c 91 bd
       -0.08256264 -0.048631355 -0.09937392 -0.07109935
000070 95 c6 dc 3d f1 7f de bd 11 58 29 3d 55 7c 48 3d
       0.10780064 -0.10864247 0.041343752 0.048946697
000080 41 9e 22 3e 8b e6 89 3e de fd 8f 3d 80 b2 d6 3c
       0.15880682 0.26933703 0.07030843 0.026208162
000090 4e 11 d5 3d cb a8 26 3e 16 f9 21 3e b7 0b 41 be
       0.10403691 0.16275327 0.15817675 -0.18852125
0000a0 5a 52 8e 3d 0f 6d d5 bc 3d cc 8c be 6d 10 b0 bd
       0.06949301 -0.02605298 -0.2749957 -0.08596883
0000b0 c9 25 f8 3d 88 08 1f bc 91 42 d1 bb 56 56 36 bc
       0.12116582 -0.009706624 -0.006386109 -0.0111289825
0000c0 22 21 69 3e c7 f1 5e bd 1c 54 18 3d b9 c5 c2 3c
       0.22766545 -0.054429796 0.037189588 0.023775922
0000d0 4f 64 78 3d 1a e3 8f 3b f8 8b ee be 45 39 21 bd
       0.060642537 0.0043910863 -0.46591163 -0.039361257
0000e0 31 4d 8c bd 1d 3c 12 bd 2a a9 3b 3e ad 3f c4 bd
       -0.068506606 -0.03570186 0.1832625 -0.09582458
0000f0 a8 d6 46 3e 07 67 3b 3e ac 7a 0e 3e fd b9 40 be
       0.19417822 0.1830102 0.13913983 -0.18820949
000100 65 24 35 bd 61 a5 87 bc 6c e0 e0 3c 39 72 fb 3d
       -0.04422416 -0.016558351 0.027450763 0.122776456
000110 ee b2 0b bd f2 2a 59 3e 94 1b f4 ba 5f 91 6d 3e
       -0.034106188 0.21207789 -0.0018623942 0.23199986
000120 ac c4 62 bd 5b 7c 1b 3d 05 5d f0 bc 13 63 54 bc
       -0.055363342 0.03796039 -0.02934123 -0.012963074
000130 d8 4b d6 3e 54 5b f0 bd db c1 ce bc 67 3e 27 be
       0.4185474 -0.117361695 -0.025238922 -0.16332398
000140 76 ca 13 3e 51 bc fa bc 0c 53 8a bd 1e 43 51 3e
       0.14432701 -0.030607374 -0.06754121 0.2043576
000150 ee cc 4d be aa 81 44 3d 83 3a 5c 3e 62 e3 fc b9
       -0.20097706 0.04797522 0.21506695 -0.000482346
000160 cd 4f 18 bd 1b 53 81 3d e7 c7 86 be 99 13 0b be
       -0.03718548 0.06314679 -0.26324388 -0.13581695
000170 4f b8 00 3e 4b be f7 bd b8 0b 87 3d 8b 9d b6 3e
       0.12570308 -0.120968424 0.06594032 0.3566707
000180 ae c2 9e 3d f6 b0 af bc 99 1d 81 3d cc d6 81 bd
       0.07751976 -0.021446686 0.063044734 -0.063397974
000190 ab 64 cc bc 81 5b 55 be be 49 a6 be cd 48 bb 3b
       -0.024950346 -0.20835687 -0.32478136 0.0057154656
0001a0 78 55 8f 3c 93 39 6e 3c da c9 95 3d 05 0e f0 3d
       0.01749681 0.014540094 0.07313891 0.11721424
0001b0 fc 49 05 be e9 71 a0 3d 28 21 69 3e a5 fb 00 3e
       -0.13016504 0.07834227 0.22766554 0.12595995
0001c0 01 8c 22 be e2 5b d1 3d 1c ab 49 3e 51 ea 10 bb
       -0.1587372 0.102226034 0.1969418 -0.002211232
0001d0 8b 7c aa bd d5 a1 e5 3d e9 71 73 3e 60 0e 32 3e
       -0.08324536 0.11212508 0.23773922 0.17388296
0001e0 e9 93 b0 be 76 7e 07 3e 36 54 7a bd 8e 46 40 3e
       -0.34487846 0.13231835 -0.061115466 0.18776914
0001f0 e5 4a 87 3e b7 c3 93 3d 5f 40 57 3e c5 64 c7 3c
       0.26424327 0.07215064 0.2102065 0.024340043
000200 85 42 23 3e f6 ba 44 be fd 94 21 bd 8e 30 3f 3d
       0.15943344 -0.19211945 -0.039448727 0.046677165
000210 cb 67 8e bd 6c cd 10 3d 13 af ae bd 36 bb 5c 3d
       -0.06953391 0.035352156 -0.085294865 0.053889476
000220 c2 f2 ae ba 55 be 8a bd 65 b1 b9 be e9 a7 eb 3d
       -0.0013347494 -0.06774584 -0.36268154 0.11506636
000230 c6 08 30 bb 09 ed d6 3d 7d b4 ae 3c 77 67 87 be
       -0.0026860698 0.104944296 0.021326298 -0.26446125
000240 42 6b 9c 3e c1 82 3f 3c 80 6d a6 bd dc 0e 26 3c
       0.3055058 0.011688889 -0.08126354 0.010135379
000250 65 2e 51 bd ef 77 95 bd 8c 71 8b 3e f3 95 12 be
       -0.051069636 -0.07298266 0.27235067 -0.14315014
000260 b6 e2 5a bd 7a cb f3 be c4 51 86 bc 3c b9 9b 3b
       -0.053438865 -0.47616178 -0.01639641 0.0047523063
000270 b2 c9 3b be f7 ec 3b 3c 94 2c 6e bc f4 6d 4f be
       -0.1833866 0.011470071 -0.014536995 -0.20256788
000280 76 97 31 be 77 88 16 be 5d e8 15 be 37 c9 40 bc
       -0.17342934 -0.14700495 -0.14639421 -0.011766723
000290 21 0c 7c be d2 b7 75 3c ce b7 eb bd fc a0 90 be
       -0.24614002 0.014997439 -0.11509667 -0.2824782
0002a0 cc 34 a2 ba 7b 88 0d 3e 59 16 04 3c 4f ce d3 bd
       -0.0012375354 0.13821594 0.008061969 -0.103420846
0002b0 84 3a 39 bc e1 b8 83 3d 74 ea 47 3e d5 61 5d bc
       -0.011305455 0.06431747 0.1952303 -0.0135120945
0002c0 b8 56 b9 bd e1 6e f0 3d 39 d8 0a 3e 9f 39 31 3d
       -0.090497434 0.117398985 0.13559045 0.043267842
0002d0 c2 e0 2b bc 39 60 15 3e 9c 2c 67 bc 33 6d 82 be
       -0.010490598 0.14587487 -0.014109757 -0.25473937
0002e0 72 34 01 be c0 78 10 bd 7d 46 31 3e 6c 1d 05 be
       -0.12617663 -0.035271406 0.17312045 -0.12999505
0002f0 70 57 19 bd ac 6f c2 3d 5e 9f d7 bd 08 c4 21 3d
       -0.037436903 0.09493956 -0.10528444 0.03949359
