TradingGym/PPO/PongDeterministic-v4_200.pth (torch_old, 679024 bytes, 8 tensors)

conv1.weight f4 [4, 2, 6, 6]
000000 85 1e 91 be 2c 18 f0 3d 8d c8 e9 3d e0 84 2c be
       -0.28343597 0.117233604 0.11415205 -0.16847563
000010 1d 2d 05 be 44 f7 2b 3e b6 c7 87 bd bf 0e d4 3e
       -0.1300549 0.16793543 -0.06629889 0.414175
000020 8f 7d 13 3d 73 2e 5f be 63 25 bb 3d ca 51 07 3e
       0.036008414 -0.21795063 0.0913799 0.13214794
000030 27 e9 3d be ee a9 65 3e 7c 76 42 3e da c4 0c 3e
       -0.18545972 0.22428104 0.1899051 0.13746968
000040 bf fe 56 3e 55 a9 b8 3d 1f 17 41 be cd c5 c9 3c
       0.20995615 0.090166725 -0.18856476 0.024630452
000050 15 6b 7c bd e5 04 66 3c 99 5e c5 3a 65 29 88 bd
       -0.06162556 0.014039253 0.00150581 -0.066485204
000060 26 1f 81 3e 45 05 9c 3e f2 ab e9 3d d2 67 48 3e
       0.25219077 0.3047277 0.11409749 0.19570854
000070 f5 15 87 bd 1b c8 1a 3e 9e 7a 65 3e f9 96 57 bd
       -0.06595985 0.15115397 0.22410056 -0.052634213
000080 06 16 71 3e a6 91 5e 3d 87 f5 ad be 3b 66 b0 3d
       0.23543558 0.05433812 -0.33976385 0.08613249
000090 6f 5e 21 3e b9 5a 15 bd 31 c8 77 3e 28 6d 81 bc
       0.1575868 -0.036463473 0.2419746 -0.01579912
0000a0 be 27 28 3e 29 d8 d2 3d f2 8e 5c bd 05 49 c2 3c
       0.1642141 0.102951355 -0.05384726 0.023716459
0000b0 80 2c 3c 3e 86 c0 a1 3e 51 04 a5 3d ab 2b 76 3e
       0.1837635 0.31592196 0.08057464 0.24040096
0000c0 64 88 00 be 77 eb a4 3d 07 4e ab 3c 11 fe 6c be
       -0.12552029 0.08052724 0.02091123 -0.23143794
0000d0 54 f3 06 3e c5 64 85 be 27 f3 33 be 71 67 93 3e
       0.1317876 -0.26053444 -0.17573224 0.28789857
0000e0 a0 f9 42 3e 24 8c 77 3e 7e 2c d7 3d 80 70 81 3e
       0.19040537 0.24174553 0.10506533 0.25281143
0000f0 04 5d 8a 3d a5 3f 99 3d 90 e1 12 3d 3a d1 1d 3e
       0.067560226 0.07482842 0.035859644 0.15411845
000100 c2 06 e3 3a ed 5b 21 3e 76 cf 9a 3e d7 99 c6 bd
       0.001732074 0.15757723 0.30236405 -0.09697311
000110 d3 c8 82 3e b9 cb 51 bb 4a 78 76 3e 92 47 87 3d
       0.25543842 -0.0032012297 0.24069324 0.06605448
000120 12 f9 3d be 5f 78 c8 3d b8 ed c4 bd 11 6e fd 3d
       -0.18552044 0.09788584 -0.09615654 0.12374509
000130 3b 1e 16 3e 86 e0 6b 3e b3 48 f7 bc cf 30 32 be
       0.1465997 0.23034868 -0.030186033 -0.17401432
000140 83 6f 30 bd 41 7b 10 bd 71 d6 1f 3e 25 05 94 3e
       -0.043075096 -0.035273794 0.15609147 0.28910175
000150 65 66 d2 3d ee 52 ba bd a2 af 07 3e 8e c6 47 bd
       0.102734365 -0.09097849 0.13250592 -0.04877334
000160 f9 6e e7 bd 3b 3d c7 3d e6 0d 45 3d ff dd 49 be
       -0.11300463 0.09728476 0.048108958 -0.19713591
000170 51 c2 11 be ba b2 dc 3d c6 76 4f be 34 88 1c be
       -0.14234282 0.10776277 -0.20260152 -0.15286332
000180 3c 23 94 3e 2c 76 9e bd 6d 9c 60 3e 2f 17 53 be
       0.28933132 -0.07737383 0.21934672 -0.20614313
000190 d5 3d a5 3e ed d0 5b 3e 25 4e 78 bd 8b 70 a9 3d
       0.32273737 0.21466418 -0.0606214 0.08273419
0001a0 a6 f1 9a bd 9d 1e f9 bd 5d e5 76 be a2 a2 f2 3d
       -0.07565622 -0.12164042 -0.24110933 0.11847426
0001b0 c5 74 e3 3e b7 e6 b3 3d b9 c7 7a 3e 02 e1 50 3d
       0.44425026 0.0878424 0.2449025 0.050995834
0001c0 33 40 12 be 91 81 83 3d d6 ee 0b 3e eb 89 44 bd
       -0.14282303 0.06421197 0.13665327 -0.04798309
0001d0 34 84 c7 3d db 67 92 be cb 15 05 3d 6f ce 81 be
       0.097420126 -0.2859486 0.032491487 -0.2535281
0001e0 13 a1 e1 3d 06 9c 3c 3e 86 39 25 bd 21 fb b6 be
       0.110170506 0.18418893 -0.04033806 -0.3573847
0001f0 e7 ef bc bd db 3e db 3e 2d f5 ad bc 6e a8 c6 3b
       -0.09225445 0.42821392 -0.021235073 0.006062559
000200 1b 93 0d 3b fa 0c 2a 3e 89 d3 cb 3c 52 b3 13 3e
       0.0021602574 0.16606513 0.024881141 0.14423874
000210 58 8b 50 bd dd d0 61 3e 56 f7 f1 3c 11 77 22 be
       -0.05091414 0.22052331 0.029536884 -0.15865733
000220 e9 b2 b8 bd 24 41 35 3e 83 3d f8 bd c0 be 02 be
       -0.090184994 0.1770063 -0.121211074 -0.12768078
000230 fa 92 46 3d f9 ca 5f bc 15 52 a1 be 5d 76 16 be
       0.04848001 -0.013659232 -0.31507936 -0.1469359
000240 77 11 a4 bd 7c 0d 60 3d 07 11 19 3e 40 00 32 3e
       -0.08011144 0.05470036 0.14947902 0.17382908
000250 44 a4 4a 3e fc a0 a4 be 73 9c 8a 3e 22 82 ac be
       0.19789225 -0.3215407 0.27072486 -0.33693033
000260 15 9f e2 bc ee 55 06 bd a1 a3 ba 3e 95 86 86 bc
       -0.027663747 -0.032796793 0.36452964 -0.016421596
000270 85 9f 68 bb 70 e5 8a 3e 94 d4 4c 3e 3d 31 13 be
       -0.0035495472 0.27128172 0.20002967 -0.14374252
000280 14 66 d1 3d 94 a9 4d 3e 59 95 8a 3d 3f df 06 be
       0.10224548 0.2008422 0.06766767 -0.13171099
000290 c6 3e 54 bd a4 34 81 3d a7 9a 97 3e dd f0 94 bd
       -0.051817678 0.063088685 0.29610178 -0.072725035
0002a0 95 79 9b bd ad 4e 31 be 2c d2 07 3d ab 78 f6 3e
       -0.07591549 -0.17315169 0.03315942 0.48138937
0002b0 e6 d2 a3 be 2c 8b 65 3e a2 60 38 bd 9f 52 9d 3d
       -0.3199684 0.22416371 -0.04501403 0.07681774
0002c0 eb 54 05 be b0 9e b3 3e 56 27 49 3e 4d a3 41 3d
       -0.13020675 0.35082006 0.19643912 0.047274876
0002d0 86 a8 7f bb 5b a2 34 be e2 95 3a 3e 22 5b e8 3d
       -0.003901036 -0.17640059 0.18221238 0.11345507
0002e0 83 13 81 3e 69 e8 26 bd 61 bf 46 be c0 34 22 bd
       0.252102 -0.040748987 -0.19408943 -0.039601088
0002f0 45 0e 97 bd 2c 1b de 3d 24 4a 0a 3d b2 ee 0f 3e
       -0.073757686 0.108450264 0.033762112 0.14055899
000300 22 1c 8a 3d ac bc ad 3d 58 3b 54 3d e9 77 c9 bd
       0.06743647 0.08483252 0.051814407 -0.09837324
000310 71 3e 21 3e 10 58 a3 3e 80 08 29 be 0d fa 37 be
       0.15746476 0.31903124 -0.16507149 -0.1796648
000320 03 6b 2a 3d de 9e 55 3e e8 5c 83 be c3 62 04 3e
       0.04160596 0.20861384 -0.2565682 0.129283
000330 94 f7 cd 3c 27 e8 18 3e be f8 57 bd d7 99 a6 bb
       0.025142469 0.14932309 -0.052727453 -0.005084257
000340 8c 2b bd bd c8 76 ce 3c e0 33 41 bd 56 76 35 bd
       -0.092368215 0.025203124 -0.047168612 -0.044302307
000350 74 03 8d 3d 72 d0 4b 3d 67 37 10 3d 38 36 94 3e
       0.06885424 0.049759336 0.035209086 0.28947616
000360 3c 79 c8 bc a9 2c 33 be 1c c7 4b 3e 4c d7 3f 3d
       -0.024471872 -0.17497505 0.19900173 0.046836182
000370 e0 df 27 be 76 a4 4b 3e a3 20 89 bd 2b b6 07 be
       -0.16393995 0.19886956 -0.06695678 -0.13253085
000380 20 fd aa 3c 95 2a 99 be f9 03 18 be a7 ef 07 3d
       0.020872653 -0.299153 -0.14845265 0.033187535
000390 c7 9b 73 3e 12 ce a5 3d 74 00 c0 3e b1 14 7a 3e
       0.23789893 0.080959454 0.37500346 0.24421956
0003a0 56 ca 06 be a7 f9 0e 3e 50 c8 d5 bd 6e eb 98 3c
       -0.13163123 0.13962422 -0.10438597 0.01866695
0003b0 07 6f 10 be 9b 16 43 3e 2e e5 f8 be f3 ca 7b be
       -0.14104854 0.19051592 -0.4861235 -0.24589138
0003c0 17 78 a3 bd 69 da 70 3d 76 d2 35 bd e6 d6 4e 3d
       -0.0798189 0.058802042 -0.044390164 0.050497912
0003d0 d4 7b b4 3d 7c 5e 94 bd 69 bb 9c bc 81 10 5a 3e
       0.08812681 -0.07244584 -0.019132333 0.21295358
0003e0 32 5d 82 be ef 0a 31 be 95 cd 99 3e 6b da 51 ba
       -0.25461727 -0.17289327 0.3003966 -0.0008005264
0003f0 f8 3c 39 bb 1b ca d4 3d b9 da 08 3e af ec 92 3e
       -0.00282651 0.10390111 0.13364686 0.286962

conv2.weight f4 [8, 4, 6, 6]
000000 fe b3 69 3d cd 91 b0 3d b0 36 4e 3e 6a d9 41 3d
       0.05705642 0.08621559 0.20138049 0.047326483
000010 cf 90 c3 bc 88 b3 6f 3e ef 83 8d 3e 32 e0 9f 3a
       -0.023872761 0.2340833 0.2763972 0.0012197553
000020 df ba 45 3e c6 77 7f 3b 08 de ee bd b7 78 ff bd
       0.19309567 0.0038981303 -0.11663443 -0.124741964
000030 70 48 80 3d 23 c7 23 bc fe 7e 04 bc 52 4c ed bc
       0.06263816 -0.009996208 -0.008086918 -0.028967056
000040 8d 6b 9a 3d 01 73 1d be 97 2a ec 3d 8c e8 83 3e
       0.07540045 -0.15375902 0.11531561 0.25763357
000050 90 10 1e be c8 2e 9f 3d 51 87 f9 3d b1 94 6f bd
       -0.15436006 0.07772595 0.12184013 -0.058491413
000060 07 58 03 be ab a0 19 3d 87 b6 b2 bb 0d 01 5f 3d
       -0.12826549 0.03750674 -0.005453888 0.05444436
000070 fa 5b cd bc 55 c1 8f 3b 5f 0b 99 3d 9d 80 16 be
       -0.025068272 0.0043870606 0.07472872 -0.146975
000080 85 2e ab 3a fa 69 17 3e 55 c0 14 3d e0 4d 43 3d
       0.0013060129 0.1478652 0.036316235 0.04768169
000090 da b5 a1 3d 7e 51 81 3c f9 2c e7 3c bd d6 19 3e
       0.078960136 0.015785929 0.028219687 0.15023322
0000a0 6a 59 b4 bd 3f 5e f0 bd 88 a9 22 3e 83 3b f3 3c
       -0.08806117 -0.11736726 0.15884984 0.029691463
0000b0 e5 7e 18 3e ab 7e 30 3c 76 29 f5 3d 72 0b 43 3e
       0.14892156 0.0107723875 0.11970799 0.19047335
0000c0 c7 1c 06 3e 30 4c 11 3e 3d 8c d3 3d b4 5d 78 3b
       0.13096915 0.1418922 0.10329483 0.0037897648
0000d0 8f 26 ca bb 08 3a d3 bd 1a c8 44 3d 15 d6 f6 bc
       -0.0061691473 -0.10313803 0.048042394 -0.03013138
0000e0 f3 02 1e 3e 22 f5 3b 3d be 9e ba 3d 56 2b 3f be
       0.15430813 0.045888074 0.09112309 -0.18668875
0000f0 2b fd 4a 3e 8d be 17 3e 5d f7 d3 3c 70 2d af 3c
       0.19823138 0.14818783 0.025874788 0.021383971
000100 a2 37 22 be 1e ef 09 be 5c ca b3 bd b2 22 2f be
       -0.15841535 -0.13470122 -0.08778831 -0.17103079
000110 49 9f fa 3d c7 2e 95 3d 67 a8 71 3d 54 30 88 bd
       0.122374125 0.07284313 0.05899849 -0.06649843
000120 0c 3d e5 3d 0e 34 61 3b a6 c5 0f bb 90 97 18 be
       0.111932844 0.0034363302 -0.0021937876 -0.14901567
000130 ce bb 01 bb f8 99 71 3a a1 ec be 3d 66 aa 06 bd
       -0.0019795778 0.00092163635 0.09322477 -0.03287735
000140 40 a1 96 3d 44 93 f6 3d 25 ac a6 bd 21 b2 67 be
       0.07354975 0.120398074 -0.08138303 -0.22626545
000150 1a c8 05 3f b8 11 26 3e 5b 51 cb 3b cc 8c a3 bd
       0.52258456 0.16217697 0.0062047667 -0.07985839
000160 c1 02 bd bd 6a 8b 48 be 28 86 72 be 84 c9 f4 bd
       -0.09229041 -0.19584432 -0.23683989 -0.119524986
000170 94 f2 23 3e 67 72 85 3d 42 42 d7 3c f7 6f 23 3c
       0.16010505 0.06515961 0.026276711 0.009975425
000180 d4 63 a1 bc 3c 4e 29 3e bc 70 0a bc 72 4d 27 3a
       -0.019700922 0.1653375 -0.0084497295 0.00063820847
000190 3c e5 6e be 34 8c 0e be a7 95 56 bc 2c 66 64 bc
       -0.23329633 -0.13920671 -0.013097203 -0.013940375
0001a0 cd 77 1b 3d 64 b1 3f 3e 52 33 f3 3c c5 e1 46 3e
       0.037956048 0.18720013 0.029687557 0.19422062
0001b0 04 f7 ad bd 3b f0 83 bd 57 73 89 3d 9f cd 1c be
       -0.0849438 -0.06442305 0.067114525 -0.15312813
0001c0 ee 36 f8 bc c9 0e 26 be e5 83 b4 3a 8d 20 3f 3c
       -0.03029963 -0.16216578 0.0013772218 0.011665476
0001d0 fe e2 40 3e 46 d7 09 be 2c 9e b8 3d 4b e0 da bd
       0.1883659 -0.13461027 0.09014544 -0.10687312
0001e0 a8 7a 54 bd 29 eb bd bc e1 2a a5 3d 49 67 99 bd
       -0.051874787 -0.023183422 0.08064819 -0.07490403
0001f0 0d 7e 54 3e 3d 07 d9 3d 4c 36 3f 3d 6b fc 24 3c
       0.2075121 0.10597084 0.04668264 0.010069947
000200 ef 98 33 3e 08 65 56 be 32 0c 61 3d d4 7e 38 3e
       0.17538808 -0.20936978 0.05494327 0.18017131
000210 bd 1e be 3c bd f6 96 3d 51 59 01 be 06 d4 dd bd
       0.023208017 0.0737128 -0.12631728 -0.10831456
000220 45 39 df 3d 8c c1 fb 3c 4d 1b 52 bd 41 ea d9 3d
       0.10899595 0.030731939 -0.051295567 0.106403835
000230 b1 7b f5 3d 2e fb c9 3d 23 29 6d 3d 21 f5 a5 3c
       0.11986483 0.09862362 0.05790056 0.020258488
000240 97 d9 29 3e 7a 24 36 bc 7c 26 9b 3d 14 7e 71 3c
       0.1658691 -0.011117095 0.075757 0.014739532
000250 86 76 75 be 30 43 22 bd af 42 11 bd c5 84 8c bd
       -0.23970994 -0.039614856 -0.035463985 -0.06861261
000260 67 df d9 bb 84 77 c8 bd 1d 14 c8 bd 3e 4d d1 3d
       -0.006648946 -0.09788421 -0.09769461 0.10219811
000270 bf 0c 09 3d b0 d7 d9 bc ed cf f5 3c 22 12 37 3e
       0.03345942 -0.026592106 0.030006373 0.17878011
000280 02 11 31 3e 1a 4f 8d 3d 50 5a 32 3e b6 41 96 3c
       0.17291644 0.06899853 0.17417264 0.01834188
000290 d7 3f 04 3e 99 7f d1 3d 95 32 d7 3c bb 0f 8e 3d
       0.12914978 0.102294154 0.026269237 0.06936594
0002a0 b8 3c 07 bb d7 69 04 3e 19 ea 95 bc 34 b1 e6 3d
       -0.0020635556 0.12931 -0.018300103 0.112642676
0002b0 da 9b e1 bd 06 9d 1d bd dd cf a0 3d 6e 37 c3 3c
       -0.110160545 -0.038479827 0.07852147 0.023830142
0002c0 f5 91 e6 3c 7c d5 76 3e e2 36 15 3d ac 4e 9f bd
       0.02814577 0.24104875 0.036429293 -0.07778677
0002d0 be e3 e5 bc 1d 30 02 3d ad dc dd bd e0 12 5e 3e
       -0.028062697 0.031784166 -0.10833106 0.21686888
0002e0 87 9d d0 3d 3a 8d cf bd ed 45 14 be 90 6e d6 3b
       0.10186296 -0.10134359 -0.144798 0.006543942
0002f0 54 85 18 be 6f af 44 3d 42 90 20 3e f0 49 ef bd
       -0.1489461 0.04801887 0.1568003 -0.11684024
000300 26 13 8c 3d 12 82 3b 3e 40 57 fb 3c b3 a9 1f 3e
       0.0683959 0.18311337 0.030681252 0.15592079
000310 86 4a 84 bd 68 15 08 3b 0a fd 7a 3d c3 43 87 3e
       -0.06459527 0.0020764712 0.061276473 0.26418886
000320 66 9b 85 be e2 a6 64 be 85 d9 85 be 57 c0 d3 bd
       -0.26095122 -0.22329286 -0.26142517 -0.1033942
000330 73 af ca bd 5f 1a 85 bd 7f e2 03 3c 86 c3 80 bd
       -0.098967455 -0.064991705 0.008049606 -0.06287293
000340 65 75 d4 bc b5 dd 78 3d 93 48 5c be 94 18 f2 3c
       -0.025934884 0.06075831 -0.2151206 0.029552735
000350 3e 40 05 bd bc 7c 13 be ce 94 e8 bc 10 66 c8 3d
       -0.03253197 -0.14403051 -0.028391268 0.09785092
000360 52 f8 0c 3d 8d d8 a2 bd f7 8e 04 be ee 2f f8 3d
       0.034416504 -0.0795146 -0.12945162 0.12118517
000370 9c 89 0f be 3c b3 7d 3d 87 5c 65 be 70 61 e1 3d
       -0.14017338 0.06193851 -0.22398578 0.11004913
000380 f8 50 2e 3e 62 36 e7 bd 44 cf 8c 3d 8d 57 1d bd
       0.17023075 -0.112896696 0.0687547 -0.038413573
000390 c3 f9 72 3d e9 a0 22 be 39 13 ea bc f7 e8 8f bd
       0.059320223 -0.15881695 -0.02857362 -0.070268564
0003a0 95 2b 43 be 80 bb 60 be 6c 8d 46 3e 5d 8d 2f 3d
       -0.19059594 -0.21946526 0.19389886 0.042859424
0003b0 e9 4b 40 bd e3 e7 f6 bc 50 7b 69 3e d6 ad fc 3c
       -0.046947394 -0.03013987 0.22800946 0.03084461
0003c0 ce 25 9f 3d ea fe f4 bd dd 11 13 bd f9 c4 29 3d
       0.077708825 -0.119626835 -0.035905708 0.041447613
0003d0 56 d6 a4 3d 41 06 a2 bd 55 02 3c 3d f8 cc 35 3e
       0.08048694 -0.07911349 0.04590066 0.1775397
0003e0 68 80 e2 bd 7b 10 8b 3e e7 56 ff bc 86 0b 46 3e
       -0.11059648 0.2716101 -0.031169368 0.19340333
0003f0 9f cb 1b be ba 6e 64 bd db a4 c0 bd 10 46 c8 3d
       -0.15214394 -0.05576966 -0.09406444 0.09778988

conv2.bias f4 [8]
000000 42 e7 b7 bc 32 1d 81 bd bf 8b 56 3d 52 c7 6c 3d
       -0.02244914 -0.06304397 0.052379366 0.057807274
000010 a9 06 cd 3d aa 3f 8a 3d 5e c9 32 bd 3b 0f bf 3d
       0.10011036 0.06750424 -0.04364907 0.09329077

lin.weight f4 [256, 648]
000000 0f 5b 4d 3d ba 4c ce bd 09 95 1e bc f0 91 90 3b
       0.05013567 -0.10073228 -0.009679087 0.0044119284
000010 b5 f1 08 bd b0 c7 4a 3d 33 09 ad 3c 73 cf 8a bb
       -0.033433635 0.049506843 0.02112255 -0.0042361557
000020 58 ca 05 bd 91 bd 25 bd 9b e5 7b bd a2 17 bb 3d
       -0.032663673 -0.040463988 -0.061498266 0.09135367
000030 3d 2c e6 bb 74 d7 15 bd 20 ec 8e bc ea cb 3b bd
       -0.0070243166 -0.036582425 -0.017446578 -0.045848764
000040 4d 8d aa 3d ce 98 28 bd fa a6 5c bd 8b 03 d0 3b
       0.08327732 -0.04116135 -0.05387018 0.0063480786
000050 5c e2 09 3d af d6 89 bc 04 3d d8 ba 15 5d b3 3c
       0.03366314 -0.016826002 -0.0016497676 0.02189497
000060 c8 df 09 be 9b fd a8 3d ab 54 e1 bc 7e 5a 72 3c
       -0.13464272 0.082514964 -0.027506193 0.014792083
000070 82 30 8f 3c 3d 47 86 3d 7f 8b 6b 3d 1a ba 58 3d
       0.017479185 0.065565564 0.05750608 0.052911855
000080 85 96 e3 3c 62 c9 4b 3d 35 d7 ba bc 75 ac 37 bd
       0.027781734 0.0497526 -0.022807697 -0.044842202
000090 ce 3c 23 3d 78 e8 45 bc b2 89 e2 bc 54 f6 3e bd
       0.03985291 -0.012079351 -0.027653549 -0.046621636
0000a0 c7 6f 9e bc cb d4 7d 3d a0 78 ce 3d 73 99 9f bb
       -0.019340409 0.061970513 0.10081601 -0.0048705875
0000b0 dc e6 86 3d ea a5 a0 3c 53 17 9a 3d 23 04 81 bd
       0.06587002 0.019610364 0.0752398 -0.06299617
0000c0 18 4f ed 3c e9 a1 a1 bd b9 09 11 3d 02 06 77 3d
       0.028968379 -0.0789221 0.035409663 0.060308464
0000d0 33 07 5b 3c 4c ca 87 3d fc 6a 7c bd 42 18 5a bd
       0.013368416 0.06630382 -0.061625466 -0.05324579
0000e0 f4 09 4d 3d 44 4c 11 3d e2 5d 53 3d c5 69 9f 3d
       0.05005832 0.035473123 0.051603206 0.07783846
0000f0 cb 6b 61 3d af 1d e3 bd 3a 2a 58 3d 4e c4 ac 3d
       0.05503444 -0.11089646 0.052774645 0.0843588
000100 03 ae ba 3d 77 49 32 bd cf 19 7d bc e4 c5 79 3d
       0.09115221 -0.043527093 -0.015448048 0.06097974
000110 ae 77 32 3d a9 1f 53 3c e8 2e d1 3b e1 aa d2 3d
       0.043571167 0.012885966 0.0063837655 0.10286499
000120 22 ba 23 3d ad 28 4f bd 3c c5 35 bc c7 86 a8 3d
       0.039972432 -0.0505759 -0.011094388 0.08228832
000130 2a b1 ac bc d7 4d 1d 3b 80 b4 88 bd 9f 59 b3 3a
       -0.021080572 0.0024002695 -0.06675053 0.0013683325
000140 52 18 58 3d 8b 67 48 bd 67 52 8b bd ef 6c 05 bc
       0.05275757 -0.04892687 -0.068028264 -0.008143648
000150 a8 37 2a bd 8f 36 af bd 42 b4 d1 3d 90 f5 7a 3c
       -0.041556984 -0.08555328 0.102394596 0.015317336
000160 a4 b9 3b bd 59 d3 98 bd 4a 4a 08 bc 71 e6 a3 3c
       -0.045831338 -0.07462186 -0.008318493 0.020007344
000170 6b c7 1c bd ee f1 85 bd 10 f1 1b bd ff b9 aa 3d
       -0.038276117 -0.06540285 -0.038071692 0.08336257
000180 a5 9d 4d bd b2 30 90 3d b0 f3 69 bd d1 a1 56 3d
       -0.05019917 0.07040538 -0.057117164 0.052400414
000190 39 13 99 bc 84 71 ec bc c3 d4 09 3d 34 84 16 bd
       -0.018685924 -0.028862722 0.03365017 -0.036747172
0001a0 50 11 c2 3b 10 fb 94 3c 04 f3 12 3c 65 21 41 bd
       0.005922474 0.018186122 0.008969072 -0.047150988
0001b0 d7 16 84 bd 2d 0b f1 3c f8 54 b4 bc 30 e9 bb bc
       -0.06449669 0.029424274 -0.022013173 -0.02293834
0001c0 65 b0 03 be 3c 1b 65 3d 45 ed e0 3c 6e dc 85 bc
       -0.12860258 0.055934176 0.027456889 -0.01634046
0001d0 41 69 bb 3c 96 4f 88 3c 19 68 da bc a2 f4 9e 3d
       0.022877337 0.016639512 -0.026660966 0.07761504
0001e0 e8 bd 89 3d 2f d0 10 bd c0 81 09 bd 2c 10 9e bd
       0.06725675 -0.03535479 -0.033571005 -0.07717928
0001f0 7b 3f a8 3d 6c 59 86 bd 2e f4 5a 3d 75 29 d6 3d
       0.08215233 -0.065600246 0.053455524 0.10457126
000200 ca e8 95 3c cf fb 21 3d 42 1b 0e bd ee fb 9c bd
       0.018299479 0.039546784 -0.034693964 -0.07665239
000210 c9 9f f6 bc 80 4c ab 3b 3d 9b 55 bd b7 0d 5e bb
       -0.030105488 0.0052276254 -0.05215 -0.0033882686
000220 7d 5a 30 bd bd 53 18 3d cf d7 12 3e 3c 5b c6 bc
       -0.043055046 0.037189234 0.14340137 -0.024213426
000230 a1 cc 07 bd 08 9e 16 bd d7 e0 3d bc b1 1c d0 bc
       -0.033154134 -0.036771804 -0.0115892505 -0.025404306
000240 4c b5 05 bd 3a e5 dd 3b 44 8f 7f bc ea 89 fa bc
       -0.0326436 0.0067717107 -0.015598122 -0.03058334
000250 8b bf 26 bd 23 73 87 3d 35 1b a6 bc 3e 1c 8c 3d
       -0.040710013 0.066137575 -0.020276645 0.06841324
000260 ca 16 07 bd 79 4c b6 bd dc e4 84 bd f2 49 0e 3d
       -0.032980718 -0.08901305 -0.06488964 0.03473849
000270 5a ed 2e bd 4d a0 7e 3d 60 2a c7 39 be b6 cb 3b
       -0.042706825 0.062164593 0.0003798781 0.006216853
000280 26 9f f3 bc 68 dd 9a 3d 05 78 de bc 3d b0 fa 3d
       -0.029738974 0.07561761 -0.02715684 0.12240646
000290 0f 73 4f bd 74 28 ef bb fd 4d 0c bd ad 3c 1d 3d
       -0.050646838 -0.0072985236 -0.034254063 0.038387943
0002a0 6c 5c 7f 3d dc 31 01 3d fa 5d ec 3d aa e1 55 3c
       0.062344 0.03154169 0.11541362 0.013054291
0002b0 48 a5 90 3d 3f 30 64 3d de 54 28 3d fd 4a 7d 3d
       0.07062775 0.055710074 0.04109656 0.061839093
0002c0 d1 d8 d5 3c 22 1b 4e 3d c0 13 74 bd b6 8c 0c be
       0.026104363 0.050318845 -0.059589148 -0.13725552
0002d0 62 6f b4 3c ee 30 f1 3d 6b e0 28 3e 12 cd f5 3b
       0.022025768 0.11776911 0.16491859 0.007501253
0002e0 70 c3 0f bd 0c 5e 77 bc 5d 2b 51 bb 76 79 3b 3d
       -0.035098493 -0.015098106 -0.0031916716 0.04577013
0002f0 c3 1e 69 3c 51 4b c5 3d a8 77 4c bd f5 3a 65 3c
       0.014228526 0.09633506 -0.0499188 0.013991107
000300 04 e8 5d bd 03 56 a2 3d e2 d8 30 3d 95 78 80 3c
       -0.054176345 0.07926562 0.043175586 0.015682498
000310 a4 80 b0 3d 80 81 1d 3b fa cc 16 3c 08 22 34 3b
       0.08618286 0.0024033487 0.009204144 0.0027486105
000320 33 a9 7f 3d a2 84 e6 3c 62 af a0 3d 0e 9c b5 bd
       0.06241722 0.028139416 0.078459516 -0.08867656
000330 e3 46 7e 3d fb d8 26 bd b5 a7 c1 3d aa ab 85 bc
       0.06207932 -0.040734272 0.09455816 -0.016317207
000340 37 82 1f 3c 05 f8 ab bc a6 cd 5f 3d 26 8e 46 3d
       0.0097356355 -0.020992288 0.05463948 0.048475407
000350 71 1f 93 3c 1a 32 4f 3d 31 57 40 3b 55 bc 35 3b
       0.017959328 0.05058489 0.0029348845 0.0027730663
000360 0c 9d e6 3d 05 7e 02 3c 77 a1 82 3c 18 eb 36 bb
       0.11260423 0.007964616 0.015946133 -0.0027911123
000370 84 a7 69 3d 28 a7 68 3d 2e 78 39 bc a0 5a c2 bc
       0.05704452 0.056800038 -0.011320157 -0.023724854
000380 42 4b 1d bd 4e 6a 92 bd b3 d9 6d 3d 33 ba ef bc
       -0.03840185 -0.07149182 0.058068942 -0.029263591
000390 c7 a6 dc bb 2f 56 bb bd ad da de bc 4b 7d cd bd
       -0.0067337486 -0.091472976 -0.027203882 -0.10033663
0003a0 6e 63 74 bd e1 31 00 3b 38 6d 81 ba f6 59 ba 3d
       -0.059665136 0.001956098 -0.0009874469 0.0909919
0003b0 8b c9 5a 3d 9e 6d 67 3d 63 6d aa bd b0 59 48 3d
       0.053414863 0.056501023 -0.08321645 0.048913658
0003c0 66 4e bb bb 63 c0 28 bd 3c ae d8 bd ce d7 fd 3c
       -0.005716133 -0.0411991 -0.105801076 0.030986693
0003d0 de a4 7f bd 2c f9 28 bd 27 cb c2 ba d9 e6 18 3d
       -0.06241309 -0.041253254 -0.001486157 0.03732953
0003e0 9a 3f ca 3d b5 29 bd bd a4 84 ca 3c 45 22 b4 bc
       0.09875412 -0.092364706 0.024721451 -0.021988997
0003f0 0b a5 26 be 57 b2 37 bd ae 14 4b 3e 7d 1d c2 bc
       -0.16273896 -0.044847813 0.19832107 -0.023695702

lin.bias f4 [256]
000000 79 76 45 3d f3 f3 6f bc 49 4c f2 3c 26 90 82 3b
       0.048208687 -0.014645564 0.029577391 0.003984469
000010 a2 8b 49 3d fb 7c 10 bd 6b 74 92 bc e2 53 97 3c
       0.04920543 -0.03527544 -0.017877778 0.018472616
000020 84 72 4b 3b 87 16 98 3c 57 fa c1 3c 14 64 3f 3d
       0.0031043598 0.01856543 0.023678942 0.0467263
000030 3a 7a 1f 3d cc 1e 0c 3d 0c 2f 08 3d a6 a1 83 bc
       0.038934924 0.034209058 0.033247992 -0.01606829
000040 81 20 90 3c f6 f5 1d bd d5 02 01 3d 7f 3d 37 3d
       0.017593624 -0.038564645 0.03149684 0.04473638
000050 b0 9f ff 3c e2 f3 ac 3c e2 77 9b 3b 55 e6 19 3d
       0.031204075 0.021112386 0.0047445158 0.037573177
000060 12 6b ef bc 7b d3 c8 3c 09 81 20 3c 66 81 26 bd
       -0.02922586 0.024514904 0.009796389 -0.040650748
000070 ff c8 58 3d d7 52 d8 bb bb 2c 9c 3b 59 4a a7 bc
       0.05292606 -0.006601672 0.0047660745 -0.020421194
000080 2a e3 22 bc bc fb c0 3c 81 60 95 3b 76 0b 86 3c
       -0.009941855 0.023557536 0.0045586233 0.016362887
000090 90 9e 3d 39 f7 39 0e 3c a4 0c f3 3c 6c c3 22 bc
       0.00018083514 0.008680812 0.029669113 -0.0099342875
0000a0 11 f8 f3 3c 81 6b 9f bc ab 70 9b bb a1 b3 11 bc
       0.029781373 -0.019460442 -0.0047436557 -0.0088929245
0000b0 fe be ca bb b0 08 42 bc 9b 2d d3 3b 55 43 24 3d
       -0.006187319 -0.011842892 0.0064446456 0.040103275
0000c0 20 3f 93 3b be 83 39 bc b8 46 31 3d e4 85 22 bd
       0.004493609 -0.011322914 0.043280333 -0.03967847
0000d0 c8 b8 ca 3c 07 df 07 3b ea bc f5 3c 1b 49 a4 bc
       0.024746314 0.00207323 0.029997308 -0.02005439
0000e0 f9 61 a3 3b de 71 ca 3c db f3 13 bd 60 a8 9f 3b
       0.0049860445 0.0247125 -0.03612123 0.004872367
0000f0 23 c2 81 3c 67 61 e2 3c a0 11 c2 3b 73 b2 b7 3c
       0.015839642 0.027634336 0.005922511 0.022423958
000100 f4 fb d0 bc 10 01 cd bc 8a b8 bd bb 2b 4f c2 bb
       -0.025510766 -0.02502492 -0.005789821 -0.0059298477
000110 b6 59 9a bb ae 2b 05 3d 53 ab 12 bc 67 ee 4a 3b
       -0.0047104014 0.03251236 -0.00895198 0.0030964853
000120 f2 78 06 3d d3 af 4a bc 93 8d 83 3b ca 7b e0 3c
       0.032830186 -0.012371021 0.0040146797 0.027402777
000130 42 44 00 bd aa 3b 0c 3b 4e 7e 07 bd d3 5d 1f bd
       -0.031315096 0.0021397867 -0.033079438 -0.038907837
000140 a1 80 c8 3c ad db 58 3c a0 c1 c4 3c 63 ec 29 bc
       0.024475398 0.013235969 0.024018109 -0.0103713
000150 8e bd d6 3b de 09 b6 3b ad cf 17 3d bd 6b 57 3c
       0.0065533584 0.0055553755 0.03706329 0.013148245
000160 9b 15 52 3d 1b 8f a0 bc ec 38 31 3c a2 c1 60 3c
       0.051290136 -0.019599488 0.010816794 0.013718041
000170 51 89 14 3d 03 fe 1e bd 95 01 da 3c 73 85 0d 3d
       0.036263768 -0.038816463 0.026612082 0.034551095
000180 7e 87 d2 3c 66 5d de 3c a4 41 d7 bb 8c e0 3a 3c
       0.025699373 0.027144145 -0.0065691043 0.011406075
000190 fa 78 9a bc 38 e9 e2 ba ca 82 8c 3c 65 fd 0b bb
       -0.018856514 -0.0017311936 0.017152209 -0.0021360752
0001a0 56 c3 a9 3c ea 05 39 3d 01 e9 55 3d ee 1f 84 bc
       0.020723026 0.045171656 0.052224163 -0.016128507
0001b0 0e d9 c6 bc 97 f3 d8 3c 1c ee 63 3d 22 cb d5 3c
       -0.024273422 0.02648334 0.055647 0.026097838
0001c0 24 5d e7 3c c3 57 34 bc df 0f 86 3c 57 71 87 3c
       0.028242655 -0.011007252 0.01636499 0.016533537
0001d0 43 28 c0 bc e7 f9 16 3c d6 e7 b6 bc 9a b3 f5 b9
       -0.023456698 0.009214855 -0.022327345 -0.00046863855
0001e0 6b f4 98 3b 46 ee 42 3c 9b e7 54 bc d5 3c 3a bb
       0.004667809 0.011897629 -0.012994672 -0.0028417606
0001f0 d1 34 f5 bb 95 ae 21 3d ce 6e dd 3c 85 5c 9e bc
       -0.007483103 0.039473135 0.027030375 -0.019331226
000200 64 b4 24 3c 72 ea 61 bc 90 ad 12 bc a3 ff ea 3c
       0.010052774 -0.013788806 -0.008952513 0.02868635
000210 01 27 87 3c 1a 66 8a 3c ef e5 de 3b 96 94 c5 3b
       0.01649809 0.016894389 0.0068023126 0.0060296757
000220 cf 17 9c 3b 97 8e 2c bd f1 e5 22 bd 7b f6 00 3d
       0.0047635804 -0.04212817 -0.03977007 0.031485062
000230 10 d1 32 bd 7e 55 00 3c 16 a0 82 bb b5 30 74 3b
       -0.04365641 0.007832883 -0.003986369 0.0037260477
000240 c4 17 ff bc af 99 66 bc 12 08 bf 3b d2 0d 10 bb
       -0.031139262 -0.014074727 0.0058298195 -0.0021980894
000250 19 98 01 3d 98 a9 a1 3b d8 4c 19 bd dc 4b 21 3d
       0.031639192 0.004933547 -0.0374268 0.039378986
000260 77 8a 4a 3c fc 4e 9d bc 65 55 a8 bc 14 a8 97 bc
       0.012362114 -0.019202702 -0.020548532 -0.018512763
000270 12 23 c7 bc d1 05 d3 3c c9 de 93 bc 99 fb 44 3d
       -0.024308715 0.02575961 -0.018050568 0.048091505
000280 dc f0 5a bc a1 31 17 3b 1e 80 e5 3b 1a df 22 bd
       -0.013363089 0.0023070353 0.007003798 -0.039763547
000290 bf 09 9a bb f7 29 62 3b ba d5 c4 bb e4 42 80 3c
       -0.004700869 0.0034509876 -0.0060069235 0.015656896
0002a0 0e 76 9d bc fa 11 a5 3b ba eb ab b8 2a d4 ac 3c
       -0.019221332 0.0050375434 -8.197823e-05 0.021097261
0002b0 79 f3 dd bc 88 66 c6 3c 49 92 01 bd 23 8d 6f 3d
       -0.027093636 0.024218813 -0.03163365 0.058484208
0002c0 b8 7a bf 3c cf ad b8 3c bf 3f 03 3d c0 70 13 bd
       0.023373947 0.022543816 0.032043215 -0.0359962
0002d0 9b 04 bd bc 00 fe da 3c f5 63 a2 3c 81 22 d8 3c
       -0.023073485 0.026732445 0.019823054 0.02638364
0002e0 8f 48 11 3d 78 0b 38 3d 26 9f b5 b9 95 98 e7 bc
       0.035469588 0.044932812 -0.00034641585 -0.028270999
0002f0 86 f4 28 bb bb 80 b2 3c de 11 7b bc c2 b8 c5 3c
       -0.0025780513 0.0217899 -0.015324084 0.024135951
000300 e9 ff 87 3c 68 d9 bd 3c 1a f3 55 3c 89 af 12 3d
       0.01660152 0.023174956 0.013058448 0.035811935
000310 02 47 18 ba 4e 8f f9 3c f1 84 a7 3c f2 55 02 bb
       -0.0005808921 0.03046384 0.020449134 -0.0019887653
000320 ad 3e a8 3c 2e e5 8a bc c0 30 94 bb 79 9a 1d 3c
       0.020537699 -0.016954985 -0.004522413 0.009619349
000330 31 ce 1c 3d 0c 52 f0 b9 64 bb 3c 3d 28 ab 0e 3d
       0.038282577 -0.00045837497 0.046077147 0.034831196
000340 f0 e3 d5 bb 3e 52 5e 3c 44 26 50 3c c3 59 29 3d
       -0.0065274164 0.013569413 0.012704436 0.04134537
000350 28 cb a2 3c 93 1e 0a bc b7 94 82 bc ce 53 09 3d
       0.019872263 -0.008430141 -0.015940053 0.033527188
000360 6d 13 19 bd 35 7c 8d 3c 99 e7 20 3a 78 4a a4 3c
       -0.03737204 0.01727114 0.00061380264 0.02005504
000370 10 26 60 3b 49 22 d5 3c 57 2b be 3c 77 c4 35 3d
       0.0034202375 0.026017325 0.023214025 0.044376817
000380 54 50 82 bc db 03 d2 3c 5a 5e 20 3d 80 d7 4f 3d
       -0.015907444 0.025636604 0.03915248 0.050742626
000390 79 63 b5 bc b6 99 0b 3d 4d 58 52 3d 6c 3e 10 bc
       -0.022142159 0.034082137 0.05135374 -0.008803945
0003a0 0d 0c 1c 3d ba 5d 64 3d 68 1b b6 ba 63 d7 b5 bc
       0.03809743 0.055753447 -0.0013893666 -0.022197431
0003b0 40 50 78 3c a1 1c b7 3b 0b 86 46 bc 90 54 c5 bc
       0.015155852 0.0055881296 -0.012116919 -0.024088174
0003c0 ad 3d a5 bc 57 33 d8 bc f6 76 84 bc fa 87 f8 bc
       -0.02017101 -0.026391668 -0.016170006 -0.030338276
0003d0 e9 12 7e 3c dc 4e 5e 3b d3 6c 13 bc 6e 64 5f 3d
       0.015507438 0.0033921516 -0.008998114 0.054539137
0003e0 bb f9 b9 3c 65 d5 07 3d f9 83 52 3d e5 5a 2a 3d
       0.022702089 0.033162493 0.05139539 0.04159059
0003f0 f6 eb 4e 3d 85 43 89 3c b9 14 1c bd 60 96 f1 bb
       0.050518 0.016755829 -0.0381057 -0.0073726624

pi.weight f4 [6, 256]
000000 eb 30 8c bc 0d c2 c0 bc fd 65 ac bc 74 f8 9b 3b
       -0.01711317 -0.02353003 -0.021044726 0.0047598425
000010 2b 23 a3 bc 38 84 9d b8 8c 73 87 bc dc d4 c6 bb
       -0.01991423 -7.510971e-05 -0.01653459 -0.0060678553
000020 eb ae 0a bd 7c 05 e7 ba 22 d8 b9 bc f8 07 42 bc
       -0.03385822 -0.0017625536 -0.022686068 -0.01184272
000030 d8 4c 6d bc 3d 9d 22 3b 1c be 8b bc c8 0b d8 3b
       -0.014483653 0.002481296 -0.017058425 0.0065932013
000040 a5 0e be bb d3 7a 8d 38 4d 50 8b 3b 4f 6e 12 bd
       -0.0058000856 6.746282e-05 0.004251516 -0.03574973
000050 a1 38 fc bc a7 2d 6e 3b c9 68 c1 bc ff 11 c2 bc
       -0.030788722 0.003634313 -0.023609536 -0.023690222
000060 4d de dc 3a cc f1 d8 bc a5 59 81 bc b6 d2 43 3c
       0.0016850919 -0.026482485 -0.015789816 0.011952093
000070 8d 07 99 bc cd 21 e1 bb 9b 0a da bc e0 05 a3 bc
       -0.018680358 -0.0068704844 -0.026616385 -0.019900262
000080 76 43 68 3b 3c d0 ae bb da 5a d7 bb c6 c0 b1 bc
       0.00354406 -0.005334882 -0.0065721096 -0.021698367
000090 93 d6 cb bc b8 cf ba bc 0d 48 8a 3b 24 2e 0d bd
       -0.02488259 -0.022804126 0.004220015 -0.03446783
0000a0 ed 36 32 bc cc 6e 78 bb bf 23 73 bc 79 1d 68 bc
       -0.010877353 -0.0037907837 -0.0148400655 -0.014167183
0000b0 22 82 b8 bc ec f8 9b bc a5 bf 0a bd 15 a7 c5 bc
       -0.02252299 -0.019039594 -0.033874173 -0.024127522
0000c0 32 01 37 3c 33 07 5a 3a 37 31 5a bc e0 81 fa 3a
       0.011169719 0.0008317113 -0.013317398 0.0019112192
0000d0 71 9c 36 bc 2b c7 14 3b 51 4f c2 3b ba 6b dd 3a
       -0.011145697 0.0022701721 0.0059298654 0.0016893067
0000e0 32 f5 ca bc 1d d6 1a bd 7e 9b 31 3c 39 3e d9 3b
       -0.024775121 -0.03780185 0.010840295 0.006629732
0000f0 38 0e ea bc 38 7e 9e bc 13 aa 2f bb a3 97 99 bc
       -0.028571233 -0.019347295 -0.0026804253 -0.018749064
000100 ed b5 21 bc 4a 0c a9 bb cc 2f 85 bc 36 6f bd ba
       -0.009870035 -0.0051589357 -0.016258143 -0.0014452699
000110 9c 50 76 bc 1b 70 64 3b 6a e9 1f bc 4f c8 6f bc
       -0.015033867 0.003485686 -0.00976024 -0.01463516
000120 ee cb 6e bc 84 4a 1d bc 9d 38 40 bc b1 99 b4 3b
       -0.014574988 -0.009600285 -0.011732248 0.0055114855
000130 a0 60 fa 3b 01 5c 17 bd 00 6a 29 bb 0a c6 04 3b
       0.007640913 -0.036952976 -0.0025850534 0.0020259642
000140 e6 4b b7 bc 7a 07 e7 3a a6 eb ab bc d6 35 e7 bc
       -0.022375058 0.001762613 -0.02098639 -0.028223913
000150 7f 1a 9c bc 23 92 3d bc ae 9b 00 bd 43 e8 f7 bb
       -0.019055603 -0.011570486 -0.031398468 -0.0075655296
000160 16 58 8f bc 6d 3c 8f ba 14 bc aa ba 5d fc e9 bb
       -0.017498057 -0.0010928042 -0.0013026022 -0.0071406798
000170 dd 11 45 bc 8f 31 6c bb c8 fe 82 b8 d4 b5 99 bc
       -0.012028185 -0.0036040281 -6.24634e-05 -0.01876346
000180 b2 2a 9a bc 74 66 63 bc f6 dc 3a bc 42 da b4 bb
       -0.018819187 -0.013879407 -0.01140522 -0.0055191824
000190 63 3f 08 3c 9e 70 d7 bc ea 70 ca bc e4 92 d4 bb
       0.008315894 -0.026298817 -0.024712045 -0.0064872373
0001a0 c1 9f 77 bc 04 c5 98 bc 55 d3 b0 bc 24 5c d4 bc
       -0.015113772 -0.018648632 -0.021585146 -0.025922842
0001b0 ad f1 a5 ba 72 a3 8b bc 3a c3 8f bc c1 4e ae bc
       -0.0012660526 -0.01704571 -0.017549146 -0.021277787
0001c0 93 cc 27 bc 35 c5 c6 bc d4 1f ae bb 39 0f ff bc
       -0.010241645 -0.024263958 -0.005313853 -0.031135188
0001d0 60 57 d7 bc 27 9d ec bc ef 13 f1 3a 00 85 d8 bb
       -0.02628678 -0.02888353 0.0018392781 -0.0066076517
0001e0 e8 d7 90 3b d4 be d8 bc 46 eb ae bc 19 4a 00 bd
       0.0044202693 -0.026458181 -0.021352421 -0.031320665
0001f0 0b e6 9f ba 76 de ac bc 5a 81 ab bc ee 14 92 3b
       -0.0012199295 -0.021102171 -0.020935703 0.0044580614
000200 e8 25 02 ba 72 83 c1 bc 7d 1f d1 bb dd 49 cd bc
       -0.0004964755 -0.023622248 -0.0063819275 -0.025059635
000210 a6 63 cd 3a 16 15 85 3b 90 f9 bf bb a5 f0 cf bc
       0.0015669956 0.0040613515 -0.0058586076 -0.025383303
000220 86 c3 63 bc d1 e4 b2 3b dc 0c 99 3c 02 f1 cf bc
       -0.013901597 0.005459406 0.01868289 -0.025383476
000230 b1 4c 50 3b 08 fe 4f bb c8 78 1e bc 5f 04 54 bc
       0.0031783993 -0.0031737108 -0.009672351 -0.012940495
000240 9c be 9e bb 7d d7 9d bc 1a a0 40 bc 08 06 ec 3b
       -0.0048444998 -0.019267792 -0.011756921 0.0072028674
000250 19 ae 8a bc 3a 96 a6 bc 51 66 08 bb 4c 8f d8 bc
       -0.01692872 -0.020335305 -0.0020812938 -0.026435517
000260 b3 1f 29 bc 4f 59 b0 bc 48 41 1e bc 7b 52 1b 3c
       -0.010322499 -0.02152696 -0.009659119 0.009480114
000270 95 35 19 bc 20 71 84 bc 8a 4a 62 b9 85 d4 ae bc
       -0.009351154 -0.016167223 -0.00021580808 -0.021341572
000280 e1 d1 31 bc 07 7c e8 bc 2c d0 10 bd 84 c9 d3 b9
       -0.010853262 -0.028379453 -0.03535478 -0.00040395197
000290 33 84 79 bc ef 62 ec bc c5 e9 ff bc 82 9c 63 bb
       -0.015229273 -0.028855769 -0.0312394 -0.0034730737
0002a0 bf b7 e4 ba 84 e2 9a bc b2 71 b7 bc f6 3a b5 bc
       -0.001744978 -0.01890684 -0.022393081 -0.022122841
0002b0 c2 0e fd ba 4b eb a2 bb 7b 82 0f bc ba 17 b8 bc
       -0.0019306766 -0.0049718968 -0.008759136 -0.022472251
0002c0 29 88 e4 bc ff e5 37 3c 0e 29 2b 3c 09 7c 9b 3a
       -0.027896957 0.011224269 0.0104468 0.0011862527
0002d0 cd 30 8b bb c9 b6 0a 3c 6e a2 a2 bc d3 a6 0a bc
       -0.004247761 0.008466431 -0.019852843 -0.008462626
0002e0 14 71 43 bb 44 6a c0 bc 0d 7a 8d 3b 6a 82 f6 ba
       -0.0029822038 -0.023488171 0.004317528 -0.0018807177
0002f0 44 70 20 3b dc f6 b3 bc 20 02 8c bc 33 7f e5 ba
       0.0024480978 -0.021968298 -0.017090857 -0.0017509222
000300 a8 d5 ca bc c1 6f 59 bc f2 7e 5e bc d8 1d b8 bc
       -0.024760082 -0.013271273 -0.013580071 -0.022475168
000310 fa 5d e9 ba 07 5c 87 bc f4 35 aa bc 53 2e b7 ba
       -0.0017804496 -0.016523374 -0.02077768 -0.0013975598
000320 b5 8d c8 bc 96 19 45 bc 79 14 99 bc 48 d2 23 bc
       -0.024481634 -0.012030026 -0.01868652 -0.009998865
000330 33 0d dc bb 88 a1 ca bc b2 2c 83 bc 18 3a 46 bc
       -0.0067154407 -0.024735227 -0.016012523 -0.012098812
000340 7e 54 a2 bc 69 5f 22 bd 95 06 07 bd 45 25 db bc
       -0.01981568 -0.03964177 -0.03296526 -0.02675117
000350 99 17 92 bc da 68 5d 3c a8 c7 be bc 80 f0 d8 bb
       -0.017833518 0.013513768 -0.023288563 -0.0066204667
000360 40 e5 24 3c b1 90 58 bb 22 0e ce 39 a8 5a c3 bc
       0.010064423 -0.0033045227 0.00039301912 -0.02384694
000370 d0 63 8e ba 30 80 a4 bc a2 f0 c6 bc a5 c0 90 bc
       -0.0010863487 -0.020080656 -0.024284665 -0.017669985
000380 92 b4 21 bc a3 6f eb bc 8e 99 84 bc 30 ac ad bc
       -0.0098697115 -0.028739756 -0.016186502 -0.02120027
000390 bd 23 5e 39 52 40 d5 3b 39 3d d6 bc c5 e9 04 bc
       0.00021184883 0.0065079117 -0.02615224 -0.008112376
0003a0 48 d1 10 bd 8b 08 c1 bc 31 e2 88 bb 5a b8 e3 3b
       -0.035355836 -0.023563644 -0.0041773547 0.0069494667
0003b0 35 37 36 bc d6 0b d0 39 41 88 a2 ba c1 11 83 3b
       -0.011121561 0.0003968167 -0.0012400226 0.003999919
0003c0 7e 8d c7 bc 5b 31 6e bb a4 39 74 bc 51 87 69 bb
       -0.02435946 -0.0036345336 -0.014906321 -0.0035633633
0003d0 57 3e c7 bc 8e 4b c8 bc 6d e5 1e bb 5f f8 8e bc
       -0.024321718 -0.02445009 -0.0024245635 -0.017452417
0003e0 c6 42 82 bc e2 1f e9 bb a0 ab bb bc 4d 25 e3 bc
       -0.01590098 -0.0071143964 -0.022908986 -0.027727747
0003f0 b5 e4 9d bc 26 88 b9 bc a5 c6 f6 3b ad 2a e4 bc
       -0.019274095 -0.022647928 0.0075310045 -0.02785238

pi.bias f4 [6]
000000 e2 bd 85 bd 15 fb 1a 3c d9 ff 1c 3c ba 8d 2b 3b
       -0.06530358 0.009459277 0.009582483 0.0026177005
000010 6c 72 0b 3d 60 d6 eb ba
       0.034044668 -0.0017992966

value.weight f4 [1, 256]
000000 40 d6 e4 bc 7b c0 11 bd f6 e4 8c 3d d6 f8 49 bd
       -0.027934194 -0.035583954 0.06879608 -0.049309574
000010 05 73 cf bd 53 f8 79 bc 2f e7 c2 bd 81 91 8d 3d
       -0.1012936 -0.015256959 -0.09516751 0.06912518
000020 ea 3e 9c bd d3 c3 84 bb d7 dd 81 bd 9e 9e 54 3c
       -0.076291874 -0.0040516644 -0.06341141 0.01297727
000030 1c 83 ec bd 8b 72 3b bc 48 82 be 3d 70 ff 6b bd
       -0.11548445 -0.011440883 0.09302193 -0.05761665
000040 bb 5f bc 3a e0 f4 1c be 86 8e dc 3d f4 0f aa 3d
       0.0014371792 -0.15327787 0.10769372 0.08303824
000050 40 9c a9 3c 42 49 e0 bd 2a 6d d5 bc e8 91 47 bd
       0.020704389 -0.10951473 -0.02605303 -0.04872313
000060 ff d6 96 bc 5c f2 2a bd f2 a0 3a bd c6 66 8e bd
       -0.018413065 -0.04173504 -0.045563646 -0.06953196
000070 27 34 9b 3c 96 a8 72 bd 3e 56 dc bc bb 08 b1 bd
       0.018945767 -0.059242807 -0.026896592 -0.08644243
000080 ec 37 08 3d d7 66 a7 3d 1b 7d 62 bd 74 74 60 bd
       0.033256456 0.08173912 -0.05529509 -0.05479856
000090 f7 74 e6 3c 65 98 ff bc 91 0f 55 3d 20 48 c0 bd
       0.028131945 -0.031200597 0.0520168 -0.09388757
0000a0 df ba ea bd 6d ac a1 3d 24 10 ab bd 3e 31 e7 bd
       -0.11461424 0.07894216 -0.08352688 -0.11288689
0000b0 f2 49 b3 bb d7 c8 00 3c e6 5b 4b 3d b0 03 60 bd
       -0.0054714615 0.007860384 0.049648188 -0.054691017
0000c0 e5 d9 25 bd 65 da 7b bc f6 0e 0d 3c bb e7 97 bb
       -0.040491004 -0.0153718935 0.008609524 -0.0046357787
0000d0 33 12 30 3d 8b 99 03 3a 60 d3 5d 3d 86 88 e6 3c
       0.042986106 0.0005020133 0.05415666 0.028141271
0000e0 2b cb 90 bd 68 53 d2 bc 03 09 8c 3d cd de 90 3d
       -0.07070001 -0.025674537 0.06837656 0.07073746
0000f0 5e bc b3 bc e8 86 18 3d f5 3d c6 3d 91 10 6f 3d
       -0.021940406 0.03723803 0.09679786 0.05836541
000100 84 71 fb 3d bd 2d 17 be f3 f5 3f 3d 52 6e c8 39
       0.12277511 -0.14763542 0.046865415 0.00038229168
000110 82 af ea 3d 6e b0 6e 3d 0f ef 99 bd 5d ac 28 3d
       0.11459257 0.058273725 -0.075163 0.041180003
000120 a1 84 ea 3d 97 f2 68 bb cd b7 97 3c be ae 8b bc
       0.11451078 -0.0035544985 0.01852026 -0.017051097
000130 83 7f bf 3d eb ff d3 3c 71 21 d5 3d b9 ea 12 3d
       0.09350493 0.025878867 0.10406769 0.03586838
000140 0f 4f a9 bc aa 39 d0 3c e4 f9 03 be 31 c7 af 3d
       -0.02066758 0.025418121 -0.12888294 0.085829146
000150 ec 02 f5 bd bf 29 09 3d 2a 76 20 bd 77 c2 43 3d
       -0.11963448 0.033487078 -0.03917519 0.047792878
000160 df d5 71 bd 99 be 96 bc 32 9d e7 3c a4 67 9a bc
       -0.059041854 -0.01840143 0.028273199 -0.018848248
000170 fc 7c f1 bd bc 00 f5 3b da bb fc bc 63 78 62 3d
       -0.11791417 0.007476894 -0.030851293 0.05529059
000180 be b6 89 3d 69 a8 a9 3a 64 d1 c7 bd 6e b3 02 bc
       0.067243084 0.0012943867 -0.09756735 -0.00797735
000190 82 82 82 bd 12 c8 7d 3d cb 3b b2 bc cf a6 9c 3d
       -0.06372549 0.06195838 -0.021757027 0.07649004
0001a0 a0 00 31 3b 02 94 9b bd 91 1a ed bd 9e 4b 5e bb
       0.002700843 -0.075965896 -0.11577333 -0.0033919583
0001b0 34 c1 15 bd 9b 38 1b 3d a8 d2 8b 3c 4c 06 bb bd
       -0.036561206 0.03789578 0.017068222 -0.091320604
0001c0 c3 2f 98 bd af 02 47 bc 04 65 b3 bc f3 b7 3f bd
       -0.07430985 -0.012146636 -0.021898754 -0.046806287
0001d0 1b 8a dd bc 0e d2 1b bd 4f aa d9 3b 45 09 8a 3d
       -0.027043393 -0.03804212 0.006642617 0.06740049
0001e0 d2 03 ef 3d 77 10 80 3c ed 08 50 bd cd 63 a4 bd
       0.116706505 0.015632851 -0.050789762 -0.08026848
0001f0 1e bf 24 bc 27 4e d4 bd 37 15 c0 bc b1 e8 d3 bb
       -0.0100553315 -0.10366469 -0.023447616 -0.006466948
000200 c8 51 01 bd 1f 16 a0 bd 60 f3 9e bd 7a 76 e5 bd
       -0.031572133 -0.07816719 -0.07761264 -0.11204238
000210 99 bd ed 3d 2f 78 74 bc ff fc b7 3d c7 8e 49 3c
       0.116084285 -0.014921232 0.08983802 0.012302107
000220 62 9f 32 3d 59 85 3e bd 8c a0 1c 3d 3c 08 b0 3d
       0.04360903 -0.04651389 0.038239047 0.085953206
000230 58 81 ab bd 35 3d eb 3b 8f a7 d5 bb a2 77 d8 bd
       -0.0837428 0.0071789273 -0.0065202187 -0.10569693
000240 09 90 99 bd 3a ae be 3d e3 34 d4 3d d2 62 61 3d
       -0.07498176 0.09310575 0.1036165 0.055025883
000250 de 4d 4d bc e1 a2 ee bd de 61 b6 3d 85 2a 0f bd
       -0.012530772 -0.116521604 0.089053854 -0.03495266
000260 c4 84 0d bc 40 c2 98 39 3a fb 1f be 8b e9 3d bd
       -0.008637611 0.00029136427 -0.15623179 -0.046365302
000270 3c c6 f9 3c 81 31 0c bd 66 bc 58 bd 0b d1 3c bb
       0.030490033 -0.034226898 -0.052914046 -0.0028811123
000280 8b 27 a2 3d 4c 64 34 3c 2f 0d 66 bd 8a 9f 8e 3d
       0.079176985 0.011010241 -0.056164917 0.069640234
000290 b8 37 1b bc e8 aa 61 bc 22 25 03 3d 25 18 47 bd
       -0.009473734 -0.013773657 0.032017834 -0.04860701
0002a0 9e d2 8b 3c 12 a7 ee ba 39 2f 82 bb 73 82 a0 ba
       0.017068204 -0.001820775 -0.0039729145 -0.0012245908
0002b0 08 c7 05 3e e0 2b 01 3d d4 36 ab 3c 3f e5 65 3a
       0.13064206 0.031535983 0.020900168 0.0008769817
0002c0 70 78 09 bd c4 07 fc bc 81 13 d3 3c ce 76 41 3d
       -0.033562124 -0.030765422 0.025766136 0.04723244
0002d0 c3 b8 26 3c 1e f5 4a bc 41 1f 4e 3d 70 16 8b bc
       0.010175887 -0.012387542 0.050322775 -0.016978472
0002e0 2d 1e 29 bd 06 9e 9f bd 76 bd 9b 3d fc 75 a1 3d
       -0.041288543 -0.077938125 0.07604496 0.07883832
0002f0 3d b9 f7 3d fb 49 a7 bc b1 d5 eb bc 7c 2d 9d bc
       0.12095878 -0.020421019 -0.02878842 -0.019186728
000300 d8 3d 08 3d be 12 4b 3d 8e bf 83 bd 4e 1f ea bc
       0.033262104 0.04957842 -0.064330205 -0.02857938
000310 cf 91 93 bd b2 33 9f 3c f8 e5 a0 bd a5 17 e6 3d
       -0.07205545 0.01943383 -0.07856363 0.112349786
000320 d1 c7 27 3d 22 41 16 3e bd cb a4 bd 04 39 0f 3a
       0.040962044 0.14673284 -0.080466725 0.0005463513
000330 fd bb b1 3b 13 c1 0e bc 6f 77 95 3b 3d 64 84 bd
       0.0054240213 -0.008713025 0.0045613567 -0.064644314
000340 59 8c 34 bd 17 13 d3 3c 2e 22 2f 3c 9e f3 ab 3d
       -0.04407916 0.025765939 0.010689301 0.08396076
000350 fe 75 d6 bb a7 0c 42 3d c4 28 84 3c 2d 7d a6 3d
       -0.0065448275 0.047375347 0.01613272 0.08129344
000360 8a 3b b5 bc 18 01 81 bc f3 7b d6 3c 1b e8 31 3e
       -0.022123117 -0.015747592 0.02618215 0.17373697
000370 7c 9d 93 bc 61 30 41 3d b4 04 7d bd cd 2b 7f 3c
       -0.01801943 0.04716528 -0.061772063 0.015574408
000380 41 0a 26 3d 9e 36 c0 3b 20 64 cc 3d 88 ff f4 bb
       0.040537123 0.005865886 0.09980035 -0.0074767508
000390 b4 65 4f bd 8e 06 62 bc 94 b1 9b bd b3 20 bd bd
       -0.0506341 -0.013795508 -0.0760223 -0.092347525
0003a0 a8 04 0f bd 71 60 03 be 0e 3f 31 3a dc ea 76 3d
       -0.03491655 -0.12829758 0.000676141 0.060282573
0003b0 09 0c 3c bd 70 50 c8 3c d8 27 64 3d ae 13 4e 3d
       -0.045909915 0.024452418 0.05570206 0.050311737
0003c0 b0 d3 60 bd 3a 0f 08 bd 31 dd 23 bd 0d ec 37 bc
       -0.05488938 -0.033217646 -0.040005866 -0.0112257125
0003d0 3e 00 bf bd 80 cf f8 3b ce ab 81 3c 1f 31 da 3c
       -0.09326218 0.0075930953 0.015828993 0.02663475
0003e0 14 f2 bc bc 12 b7 80 bd 3b 70 8d 3c e9 11 df bc
       -0.02306465 -0.06284918 0.01726543 -0.02723022
0003f0 45 70 8c 3c c0 46 18 be 60 81 0c bd db d5 b5 bb
       0.017143378 -0.14870739 -0.03430307 -0.005549175
