TradingGym/PPO/PongDeterministic-v4_3100.pth (torch_old, 679006 bytes, 8 tensors)

conv1.weight f4 [4, 2, 6, 6]
000000 fc 13 2c bd f3 7e 99 be 99 8c 4b 3e f8 6e 5f 3e
       -0.042011246 -0.29979667 0.19877852 0.21819675
000010 0f b9 80 3e 1a d7 cb be 3e ba 42 be c2 46 49 be
       0.25141189 -0.39812547 -0.19016358 -0.19655898
000020 8b 70 7e 3e ba 12 93 3e 31 c4 52 3e a4 00 f8 bd
       0.24847619 0.28725225 0.20582654 -0.12109497
000030 cb 54 40 be 9a a6 b2 bd e7 3e 71 3e 8b 10 dd 3e
       -0.18782346 -0.08723183 0.23559152 0.43176684
000040 5e 33 56 3e a3 8d 8b 3d 17 86 36 3e 2e 02 a1 3e
       0.20918033 0.068141244 0.17824589 0.31446975
000050 0a 2b 31 3e 1f 47 36 3e 16 19 0e 3e fa 4f 4f be
       0.17301574 0.17800568 0.13876757 -0.20245352
000060 13 81 69 bd 29 1a 9d bd 1b 30 3d 3e ff 5b c9 3e
       -0.05700786 -0.07671005 0.18475382 0.39328
000070 ca 7b 28 3e be d3 a4 bb 1c 58 35 be ee d8 45 be
       0.16453472 -0.0050301244 -0.17709392 -0.19321033
000080 03 a8 25 3e 6e 27 3e be 89 32 e4 bb 3b 4b 0f be
       0.16177373 -0.18569729 -0.006964032 -0.13993542
000090 16 76 d3 3d 9b fa d9 3d 03 03 a6 3e 99 95 68 3e
       0.103252575 0.10643502 0.32424173 0.22713317
0000a0 f2 b2 7b 3e 9c e7 ab 3e 41 13 57 bc 53 be e6 3e
       0.24579981 0.3357514 -0.013127149 0.4506708
0000b0 77 fa 4e 3c 53 15 0d 3e e7 98 ef 3d dc bf 04 3f
       0.012632958 0.13777666 0.11699086 0.51855254
0000c0 5c 55 a8 bd 2b f3 b3 3e 7f eb b1 3e f7 4f 36 3d
       -0.08219406 0.3514646 0.34749982 0.044509854
0000d0 9b 4e 9f 3e 0d 46 a8 3e 7e 6c 85 bd eb 88 c8 3e
       0.3111466 0.32865945 -0.06514834 0.3916696
0000e0 46 bb d4 3e b1 df 88 3e 4b 83 23 bd c7 de ce 3e
       0.41549128 0.26733163 -0.039920133 0.4040434
0000f0 4f 44 5a 3d f3 24 db 3d 08 50 9d 3d 62 49 5e bb
       0.0532878 0.10700407 0.076812804 -0.0033918251
000100 c4 84 97 3d bd 75 e5 3e 67 6d 21 be d2 dc ae bb
       0.0739837 0.4481639 -0.1576439 -0.0053363824
000110 89 2e e2 3e 07 89 07 3e c8 b7 43 3d 2e b0 c0 bd
       0.44176129 0.13235866 0.04778269 -0.094086036
000120 a6 cf 30 3d 98 fe b9 3d 08 b9 83 3e c5 ad cb 3e
       0.04316678 0.09081763 0.25727105 0.39781013
000130 c9 56 9b 3e 1a 2a bc 3e 93 ef 06 3f 35 1c 83 3e
       0.3033965 0.3675087 0.5270931 0.25607458
000140 0b 01 07 be 5a 8f 01 3e 5c 5e 1c be 36 61 d0 bd
       -0.13183992 0.1265234 -0.1527037 -0.101747915
000150 de fb 08 3e 7c 61 03 bc 68 f8 5a 3e f2 93 48 be
       0.1337733 -0.008018848 0.21383822 -0.19587687
000160 d5 7b ba bc c9 f8 3f bc 02 34 09 3e 1c 6c 7c bd
       -0.022764126 -0.01171703 0.13398746 -0.06162654
000170 08 20 20 bd 3d 92 81 bd ba 5c b5 3c 32 26 82 3e
       -0.039093047 -0.06326721 0.022138942 0.25419766
000180 d8 a3 a5 bc b9 06 5e 3e cf 53 2b be d3 8c 35 be
       -0.020219728 0.21682252 -0.16731189 -0.17729501
000190 06 ee a2 bd 49 cd 10 3e a6 ac 59 3e 82 c2 39 3e
       -0.079555556 0.1414081 0.21257266 0.18140605
0001a0 52 13 cd 3a c4 02 18 3e 4a 16 05 bd e9 be 95 be
       0.0015646017 0.14844805 -0.03249196 -0.29247215
0001b0 4c 6a 03 be 6c 8d fd 3d e8 55 ea bc f1 6c 69 3e
       -0.12833518 0.1238049 -0.028605416 0.22795464
0001c0 96 e4 a6 3d ef a9 02 3e 7f 8b 23 3e e4 d0 3d 3d
       0.08149068 0.12760137 0.15971182 0.04634179
0001d0 5a 9b 5c 3c 98 0c dc bd dd 85 2c be ab ae 94 3e
       0.013464773 -0.107445896 -0.1684794 0.2903951
0001e0 0d 77 13 3e fc 4b af 3e 9f a6 56 be f3 1a 17 3e
       0.14400883 0.3423766 -0.20961998 0.14756374
0001f0 ea 99 c0 3e 10 70 c1 3e 19 e5 eb bd 8f 11 9e 3e
       0.37617427 0.3778081 -0.11518306 0.3087277
000200 f0 42 1c 3e b5 0b 0e 3f 11 c4 f0 bd 54 51 ad 3e
       0.1525991 0.55486614 -0.11756147 0.3385111
000210 e1 80 c2 3d 11 40 c0 3d 45 3f dc bc 24 e4 e0 3e
       0.09497238 0.0938722 -0.026885638 0.43924057
000220 5c 15 eb 3e f2 86 ba 3e 8b 0f b2 3d 5c a8 00 3e
       0.45914733 0.3643108 0.08694371 0.12564224
000230 72 db db bd 7c f3 40 3e 28 07 78 3d ed 78 35 be
       -0.10735215 0.18842882 0.0605537 -0.17721911
000240 ed 40 42 3e 76 30 0e 3e bd 9d 6c be 3c 25 32 3e
       0.1897008 0.13885674 -0.23107047 0.17397016
000250 60 f1 b1 bd a3 cb 14 be 42 cc cb 3c 19 f4 18 bd
       -0.08688617 -0.14530806 0.024877671 -0.037342165
000260 ad a3 11 bd 79 20 52 3e 48 02 a7 bd dc f1 88 3e
       -0.035556484 0.205202 -0.08154732 0.26747024
000270 fe ff c2 3e 8e 31 23 3e f5 99 23 be 50 78 6c be
       0.38085932 0.15936872 -0.15976699 -0.2309277
000280 e4 ed ef bd 1b 47 bc 3e 71 04 df 3c c9 87 a2 be
       -0.11715296 0.36773 0.027223798 -0.3174422
000290 fb af 4c 3e 1b fb bf bd 2d c6 e9 bd 17 eb 10 3e
       0.19989006 -0.093740664 -0.11414752 0.1415218
0002a0 47 de 65 bd 13 85 ab 3e 50 b9 e7 bd b8 fe 95 be
       -0.056120183 0.33499965 -0.113146424 -0.29295897
0002b0 01 d3 e6 3d 31 ae 43 3e a0 ba a5 3d 75 cc b9 3e
       0.112707146 0.19109417 0.080922365 0.362888
0002c0 72 1f 1e be db 9d 0c 3e 77 6d ac 3e 0a 71 10 3e
       -0.15441683 0.13732092 0.33677265 0.14105621
0002d0 a6 85 c2 3e 97 e0 fc 3c 14 82 7b ba d9 eb 57 be
       0.3799259 0.030868812 -0.0009594273 -0.21086062
0002e0 00 69 94 bb 74 73 0b 3e 24 b1 d5 3e 12 05 16 3f
       -0.0045291185 0.1361826 0.4173671 0.58601487
0002f0 4d c2 5d be 36 af e0 3c ef 91 f1 bb 4c 91 ce 3e
       -0.21656151 0.027427297 -0.007372133 0.40345228
000300 35 1e 53 3d 7d de cf 3e 4a e7 32 3d 59 16 44 3e
       0.05154248 0.40599433 0.043677606 0.1914915
000310 aa d2 71 be 0c 6e 2d be 14 70 a9 3d a0 8a 45 3e
       -0.23615518 -0.16936511 0.0827333 0.19291162
000320 10 fb 48 bc 1d 1f df 3d 49 27 c1 be 59 1e 05 3d
       -0.012266889 0.10894606 -0.37725285 0.032499645
000330 ec 5d cb b9 dc 94 93 3d 17 95 22 be bd 89 d2 bb
       -0.00038789154 0.07206127 -0.15877186 -0.006425111
000340 09 ae 29 3c 8b 71 9f 3e 67 59 13 3e e8 07 f1 3d
       0.010356435 0.31141314 0.14389573 0.11769086
000350 13 13 4b 3d d4 ef 5c be 9d 3d 82 3d fe 7e 58 bd
       0.049578737 -0.21575862 0.06359408 -0.052855484
000360 60 be c2 3d 64 e8 d2 bd 1c 85 5e 3e d2 ac 09 3f
       0.095089674 -0.10298231 0.21730465 0.5377933
000370 b3 0d 80 3e a0 c1 51 bc c9 43 96 bd 2e 15 23 3e
       0.25010452 -0.012802511 -0.07337148 0.15926048
000380 a1 3f aa 3d 9d 85 0c 3e 16 85 4d 3e f8 f5 0f 3e
       0.083129175 0.13722844 0.200703 0.14058673
000390 87 59 13 3d 8d 9d 29 3a ec 5f 57 bd 3d 05 40 3e
       0.03597405 0.0006470315 -0.052581713 0.18751998
0003a0 fd 12 96 3e c2 a1 68 be 2b 6a 9c 3e 05 5f 02 be
       0.29311362 -0.22717956 0.3054975 -0.1273156
0003b0 aa 12 c1 bd 5a 7a 8b 3e 5b 27 20 be 98 af f7 3c
       -0.09427388 0.27241784 -0.15640013 0.030235097
0003c0 ef 90 c2 3e 00 51 d0 3d 88 39 8e be fc 99 06 bd
       0.380012 0.101716995 -0.27778268 -0.032861695
0003d0 0d e9 d2 bd 5d 63 27 be bc 2f 38 3e 17 25 ac 3e
       -0.10298357 -0.16346498 0.17986959 0.33622047
0003e0 d2 9f 7a 3e ef 3d a9 3e 77 c0 5f be 15 f2 b0 be
       0.24475029 0.33055064 -0.21850763 -0.34559694
0003f0 ad cf 82 3e 35 d6 be 3d 00 27 90 bd ab 47 13 3e
       0.2554907 0.093182005 -0.07038689 0.14382808

conv2.weight f4 [8, 4, 6, 6]
000000 d3 ae 38 3d 2d 9d 72 3d 8a d9 37 bd 4b 09 5c 3d
       0.0450886 0.059231926 -0.044885196 0.0537198
000010 d0 e1 5f bd 34 a8 01 be 6d 34 9b 3d a0 2c 0b 3e
       -0.05465871 -0.1266182 0.07578359 0.13591242
000020 5c a9 32 bd dd 28 5e bd e8 14 e8 3d ae 77 99 bd
       -0.043618545 -0.05423819 0.113321126 -0.0749353
000030 49 1b 29 3e a2 48 62 3c d2 7c 69 3e 90 ad 8e bc
       0.16514315 0.013811262 0.22801521 -0.017416745
000040 df 58 04 be 4d 8c 18 be e6 32 b0 3b 8c fd 48 3e
       -0.12924527 -0.1489727 0.0053771613 0.1962797
000050 04 11 8a 3c 95 6f 82 3e 98 e9 01 be e3 28 5c 3e
       0.016853817 0.25475755 -0.12686765 0.21499972
000060 0c c4 b4 bd 6a c5 39 3e 1c 9e fe 3d 7c 56 1d 3e
       -0.088264555 0.18141714 0.12432501 0.15365022
000070 93 84 23 3e b4 f8 45 3d b5 ae 6a bd 85 64 ab 3e
       0.15968542 0.048332885 -0.05729552 0.33475128
000080 5b cd 16 3b 25 6a 04 3e a8 1f 14 3e 7c b3 2a 3b
       0.0023010585 0.12931116 0.14465201 0.0026046922
000090 1a 4e 29 3d ef 28 73 3e 4f 45 1c bd 00 3f 8a bd
       0.04133425 0.23746084 -0.038152035 -0.067502975
0000a0 87 5b 84 bd 9b 59 28 bd 92 33 b0 3c 7f e9 62 3e
       -0.0646277 -0.04110108 0.021508966 0.22159384
0000b0 cc 06 3a bd 69 5a b6 bd 33 40 1d be 65 80 79 be
       -0.04541664 -0.08903963 -0.15356521 -0.24365385
0000c0 c6 31 d9 3e dc 26 f7 bc 6e a9 0b 3e e4 35 1c 3d
       0.42420787 -0.030169897 0.13638851 0.03813733
0000d0 5c bb d4 3c e3 0a 44 3e 58 69 05 3f d9 5c 2f bd
       0.025968246 0.19144778 0.52113867 -0.042813156
0000e0 f4 e6 ed 3d ef 8a f3 3d 8e 4e 63 3e 6f 6e c7 3c
       0.116163164 0.11891734 0.22197935 0.024344651
0000f0 ea 68 a9 3d 6f 12 26 bb b8 52 84 3c 2f 05 85 3e
       0.08271964 -0.0025340577 0.016152725 0.25980517
000100 ff 7f b8 3b 9e 84 11 3e 00 d8 6e be b5 4d a6 3d
       0.0056304927 0.14210746 -0.23324585 0.0812029
000110 94 ae 1b 3e ac c0 c4 3c 42 24 bb 3e 73 91 c8 3d
       0.15203315 0.024017654 0.365511 0.09793367
000120 de f9 52 be cc 7e 75 3c c7 aa 5c 3e 23 b8 90 be
       -0.2060313 0.014983844 0.21549521 -0.28265485
000130 61 ce b9 3b 3c 34 13 bc d8 2d 6f 3e c8 72 c7 bc
       0.0056703542 -0.008984622 0.23357332 -0.024346724
000140 e3 38 90 3e 81 d3 4e 3d 02 4f 3e bc ae 0f 53 be
       0.281684 0.050494675 -0.011615517 -0.2061145
000150 27 cb c7 3c 39 4c 03 bd d7 84 9b 3e a1 74 d6 bd
       0.024388863 -0.032055113 0.30374786 -0.10471464
000160 31 67 b8 3d d1 c3 2b be 07 81 46 3e f3 79 16 3e
       0.09004057 -0.16773917 0.19385158 0.14694957
000170 9e c9 c3 3e b4 a4 20 3e 37 d1 1e bd f4 66 37 bd
       0.3823976 0.1568783 -0.03877374 -0.044775918
000180 d5 96 8f 3e 36 8f 9e bd 7a 6e 99 bd 1f af 87 3e
       0.28044763 -0.07742159 -0.07491775 0.26500794
000190 14 27 d9 3d 38 82 92 bd b3 01 e2 3d d2 53 af 3e
       0.10603157 -0.071537435 0.1103548 0.34243637
0001a0 89 c2 22 3c cd 94 c0 3d d9 01 00 bd 02 8a 12 3d
       0.009934076 0.094033815 -0.031251762 0.035776146
0001b0 c6 de 0d 3e c1 10 fe 3c f4 fa e6 3d 8d 8e f6 bd
       0.13854513 0.031013848 0.11278334 -0.12038908
0001c0 b4 c9 4d 3c ca ce 75 be 29 a1 da 3d cf 83 cc 3b
       0.012560297 -0.24004665 0.1067527 0.0062412987
0001d0 4e 26 91 3e 46 c0 2f be b8 cc 2c 3d df d6 f7 bc
       0.28349537 -0.1716319 0.042187423 -0.030253826
0001e0 f6 21 1a 3f 32 1b 22 3d 63 c1 a2 ba 73 e5 8e 3d
       0.6020807 0.039576717 -0.0012417253 0.06977358
0001f0 8e 43 c5 3d b3 06 73 bc ce cc c1 3b c9 6a 07 3e
       0.09632026 -0.01483314 0.005914307 0.13224329
000200 24 83 9d 3e a6 0c ba 3d f6 16 48 3e 8d 43 21 bd
       0.30764115 0.09084444 0.19540009 -0.039371062
000210 93 8b 2e be 42 3d b3 3e 9e 96 60 bb 84 fc 4f bd
       -0.17045431 0.35007674 -0.0034269462 -0.050777927
000220 f4 e3 e9 3d f5 d8 5f be f5 d5 f5 3d 43 24 82 3e
       0.11420432 -0.21860106 0.120037 0.2541829
000230 1d 0c 68 bb fb c4 10 3e c4 50 75 bd 06 69 86 bd
       -0.003540761 0.14137642 -0.059891477 -0.065630004
000240 c0 e7 a7 3d 8c 79 7d 3d 28 41 2f 3d 2c ff 98 3b
       0.081985 0.061883494 0.042786747 0.0046690907
000250 f6 e3 46 3e c8 58 a4 3e 2a ca 91 3d 2b 6c eb 3d
       0.19422898 0.32098985 0.07118638 0.11495241
000260 49 f8 df 3c 87 89 56 bd 81 ee d4 3d c1 96 36 3e
       0.027340071 -0.05237725 0.103970535 0.17830946
000270 cc 80 95 bd 22 66 c1 3d c0 5b df 3d 3a 7f 20 3e
       -0.07299957 0.094433084 0.10906172 0.15673533
000280 a8 af 90 3c 37 68 03 3e 14 65 9b bd d9 1a ac 3e
       0.017661884 0.12832724 -0.075876385 0.33614233
000290 6a 2c 6c 3c ca 47 60 3e 5a 52 cd bd 9c 1a 9b bd
       0.014414886 0.21902385 -0.10025473 -0.07573435
0002a0 a6 d4 f8 3c 74 31 15 3e 4f 4e 90 3d 0a 1f 83 3e
       0.030374836 0.14569646 0.07046186 0.25609618
0002b0 c5 2f 9d bd 6b 3d 0a 3e 1e 8a 48 bc 8e 5d 81 3e
       -0.07675127 0.13499992 -0.012239961 0.2526669
0002c0 27 91 14 3e 26 a3 bb bc 67 36 4b be b0 b0 e4 3d
       0.14508496 -0.022904944 -0.19844972 0.11166513
0002d0 d0 c1 42 3e 40 b7 56 3e 26 a5 c5 3d 09 ed 36 be
       0.19019246 0.20968342 0.0965064 -0.17863859
0002e0 3b ff 02 bc 62 9c c7 bd 3d 0e 19 3e 17 2e a1 3d
       -0.007995422 -0.097466245 0.14946838 0.07870119
0002f0 87 39 c1 bd 10 00 5e bd 5b 64 77 3e 56 00 78 3e
       -0.094348006 -0.05419928 0.24159376 0.24218878
000300 a2 b5 f8 bd 83 0e 0f 3e 07 6a ee 3c 3c 99 83 3d
       -0.12144019 0.1397038 0.029103292 0.064257115
000310 12 f4 77 3c f8 34 19 3e 6a 29 55 bd e1 d5 02 bc
       0.0151338745 0.14961612 -0.05204145 -0.007985563
000320 46 75 38 3e 49 e2 28 3e 88 e5 2a be 12 70 f0 3e
       0.18013486 0.16492571 -0.16689122 0.46960503
000330 7b 29 89 3e 95 4f 82 bd 28 d4 d6 bd d2 f5 8f 39
       0.2678946 -0.06362835 -0.10489684 0.00027458236
000340 b9 a4 91 3e 72 c9 b0 bd 51 6a dd 3c 58 60 9a 3c
       0.28445986 -0.08632173 0.027028235 0.018844768
000350 bc 56 8d 3e 67 97 67 3d ac 81 91 3e bc 14 c0 bd
       0.27605236 0.056540873 0.28419244 -0.09378955
000360 8e 53 27 be 4e 3c f6 3d 7f 0d ba 3e 40 5e f1 bc
       -0.16340467 0.12023221 0.36338422 -0.029463887
000370 5e 3a 9e bd 07 6e 61 3c 7b 9d 48 3e 57 6a f9 3d
       -0.077259764 0.013759143 0.19591324 0.12178486
000380 ca 32 d0 3d d5 4e db bc 65 19 50 3d 5a 2f ad 3d
       0.10165937 -0.026770988 0.050805468 0.08456297
000390 64 05 98 bd 0f e6 f6 bd 2b 93 26 3e d8 4a 5c bb
       -0.07422903 -0.12055599 0.16267078 -0.0033613946
0003a0 d5 0f b2 3d a8 cf 50 3d cc a9 c7 3d 85 24 80 3d
       0.08694426 0.050979286 0.09749183 0.062569655
0003b0 11 25 86 3e 85 07 e5 3d 82 f1 f7 3d cb 44 51 3e
       0.26200154 0.11183075 0.12106611 0.20436399
0003c0 5e 7c 8c 3e 43 13 f5 3d ee 66 d6 bc d2 4b ea 3c
       0.27438635 0.119665645 -0.026172128 0.028600607
0003d0 e0 4d cd 3d 9f d9 1d 3e 19 63 a5 3d bd bc 99 3d
       0.10024619 0.15415047 0.08075542 0.07506702
0003e0 a3 5d 07 be d0 82 7d 3e e6 af 40 3e ab a0 23 3e
       -0.13219313 0.24756932 0.188171 0.15979259
0003f0 0d e1 0f 3e 88 40 5d 3e a3 4c c7 3d f4 e5 e7 bd
       0.14050694 0.21606648 0.09731414 -0.11323157

conv2.bias f4 [8]
000000 85 cc ef 3b a4 52 d1 3d 64 73 37 3d 7b 48 0f 3d
       0.007318082 0.102208406 0.04478778 0.034981232
000010 a3 91 04 3d 5c ca 8d 3d 9c 6f c9 3b da 20 47 3c
       0.032365452 0.069233626 0.006147338 0.0121538285

lin.weight f4 [256, 648]
000000 33 8b 96 bc d1 ae c2 3a eb cc 8b bd 73 64 37 bb
       -0.018376922 0.0014853125 -0.068261944 -0.0027983456
000010 5c dc 8a 3d b1 a9 2e 3e 4e d8 9c 3d 17 e9 84 bc
       0.067803115 0.1705692 0.07658444 -0.016224427
000020 89 43 f1 bd 92 f0 00 bd 4e d2 fb bc 79 72 29 bd
       -0.117804594 -0.031479426 -0.03073993 -0.041368935
000030 93 a7 c8 3b 45 ec 40 3d d0 18 54 bd 49 1b 16 3d
       0.006123492 0.047100324 -0.051781476 0.036647115
000040 83 8a cc bd 28 c3 83 3c 89 e3 34 bd 7f aa 09 bd
       -0.099873565 0.016084269 -0.044162307 -0.033609863
000050 cf 59 94 bc 0c fb 9a bd f2 6c 0b be 47 94 d4 bd
       -0.01810923 -0.07567415 -0.13615778 -0.10379844
000060 c7 b7 05 3e 99 5f 8c 3d f1 50 09 bd af 07 13 be
       0.13058387 0.06854171 -0.033524457 -0.143584
000070 0d 5a 16 38 6c 09 06 be 3a 52 a5 bd 2b 81 86 3d
       3.5846653e-05 -0.13089532 -0.08072324 0.065676056
000080 64 1d 32 bb c0 99 4e bd 5a 58 e1 bc e2 10 9d bd
       -0.0027178163 -0.050439596 -0.02750795 -0.07669236
000090 05 6f 66 bb 6a 6f d1 bc 2c b9 00 3d d6 4a f9 3c
       -0.0035161388 -0.025565822 0.031426594 0.030431192
0000a0 90 c0 da bc a9 0c b0 3d b5 b6 01 bd b9 49 1b 3d
       -0.02670315 0.08596165 -0.031668384 0.037912104
0000b0 48 59 37 bc b6 d0 d6 3d 66 2f 01 3d 05 22 c8 3d
       -0.01119072 0.10489027 0.031539343 0.09772114
0000c0 6a b2 e9 3d 7b 2d aa 3d 9c a0 90 3d 0e 80 a5 3b
       0.11410983 0.08309456 0.07061884 0.0050506657
0000d0 13 85 3e bd 7a 2f fe 3c 51 49 5b 3c e7 f3 55 3d
       -0.04651363 0.031028498 0.013384179 0.052234557
0000e0 29 4b 0c 3d c3 25 ef 3c a9 68 b3 3d 04 16 60 3c
       0.034251366 0.02919281 0.08760197 0.013677124
0000f0 07 69 b9 3b 89 8e d8 3d 2e 12 46 bc a3 bc a5 3d
       0.005658272 0.105740614 -0.012089295 0.0809262
000100 cc 4b 0a 3d 1e 0e 5a bd 35 6d b6 3c 2e f7 5f 3c
       0.03376369 -0.05323612 0.02226887 0.013669772
000110 55 e0 a5 3d ae cd a0 bd 5a 21 d4 bc ae 3b 0b bc
       0.080994286 -0.0785173 -0.02589481 -0.008498115
000120 8d ad a4 bc e3 74 9c 3b 54 f7 00 bd bc 51 1d bd
       -0.020102287 0.004774676 -0.03148587 -0.038408026
000130 6d 28 c0 bd 1b 68 be ba 48 15 88 3d 99 8a 48 bd
       -0.093827106 -0.0014526875 0.06644684 -0.048960302
000140 e6 4a e6 bd d3 e1 b3 3c 05 cc 19 bd 59 39 00 3b
       -0.112447545 0.021958267 -0.037548084 0.0019565432
000150 37 3b de 3d 58 32 30 3d 60 b1 db 3d 9d 17 bb 3d
       0.10851138 0.04301676 0.10727191 0.09135363
000160 41 dd a5 bc fc 97 a9 bd f4 0a f8 3d e9 07 f7 3d
       -0.020247104 -0.08280942 0.12111464 0.120620556
000170 d1 41 a0 3d f4 52 97 3c 7b 5e cf bc 4c 09 32 bd
       0.078250535 0.018472172 -0.025313606 -0.043465897
000180 68 98 e0 3c 18 c0 b8 bb fc f8 75 3b 12 5f 3e bd
       0.027416423 -0.0056381337 0.003753244 -0.046477385
000190 2b 5c c2 3d f9 22 9a bc 70 b1 61 bd 8d 33 da 3d
       0.09490236 -0.018815504 -0.05510086 0.10654364
0001a0 bf 2b 80 bc b3 a9 49 3d 82 47 72 3c 31 98 c9 3c
       -0.01564586 0.049234103 0.014787557 0.024608703
0001b0 cf e6 8a 3c c3 9b d2 bd 3f 3a b1 bd 27 a9 63 bc
       0.016955761 -0.102836154 -0.08653688 -0.0138953095
0001c0 d1 f7 8c bc bd d6 c3 bc a3 c9 3e bd 33 c4 00 3d
       -0.017208012 -0.023906106 -0.046579015 0.03143711
0001d0 4a 33 3e bd 15 4b 7c 3d 85 3a a6 3a d7 97 3d 3d
       -0.04643563 0.06159504 0.0012682235 0.046287384
0001e0 d7 9b 8d 3c 9e 41 86 bd 7c cb 5a 3e 6e 83 54 3d
       0.017286224 -0.06555484 0.21366686 0.051883154
0001f0 83 80 af bc f4 55 5f bb 52 f1 9d 3d 5c c9 d6 3d
       -0.021423584 -0.0034078332 0.07712044 0.10487625
000200 14 af 57 bd 06 d1 c9 3c 8f 47 db 3b 9f 3c 09 3d
       -0.052657202 0.024635803 0.00669188 0.03350508
000210 62 4c ed 3d be 1a 86 bd 0c a4 f4 3c 0d c1 ae 3d
       0.115868345 -0.065480694 0.02986338 0.08532915
000220 5d 0b 40 bd a9 40 e6 3c b8 4c ed 3d 41 53 b7 bc
       -0.046885837 0.028107004 0.115868986 -0.022378566
000230 b5 0d 5b bc 13 34 09 3d 5b 93 2e bc fc 46 09 3e
       -0.013369967 0.033496927 -0.0106552495 0.13405985
000240 f9 98 82 3d 71 95 22 3c c8 43 23 bd 61 44 98 3c
       0.063768335 0.009923325 -0.039859563 0.018587293
000250 96 b0 9b 3d 38 bc 9b bd a4 0b 97 3d ef 2b b9 bc
       0.076020405 -0.07604259 0.07375267 -0.022603957
000260 db 43 d2 bc 6e 7e 87 bc a9 e5 05 bd a4 0b c4 3d
       -0.025667122 -0.016539779 -0.032689724 0.09572533
000270 ad 6e 08 3e 74 b4 35 3b e5 bb a4 3d c8 39 f7 3d
       0.1332347 0.0027725967 0.080436505 0.12071568
000280 1e 07 53 bd 36 1d c0 bc 4e 92 6e 3d bd eb 12 bd
       -0.05152046 -0.023451429 0.058244996 -0.03586935
000290 0c 95 bd bd e9 ec 75 3c 75 bf 93 3d d1 0d 07 bc
       -0.09256944 0.015010097 0.07214252 -0.00824304
0002a0 27 b1 48 bd 18 e4 0c 3e a4 a5 49 3d 6a f8 42 3c
       -0.04899707 0.13758886 0.049230233 0.011900047
0002b0 10 e8 f1 3c a3 fb 95 bc 36 d1 c9 bd 04 4f e9 3c
       0.029529601 -0.018308466 -0.09854357 0.02848006
0002c0 24 66 88 bc db 72 2c 3e 26 ab d2 bd 47 6f e5 bc
       -0.016650267 0.16840689 -0.1028655 -0.028007163
0002d0 85 56 e9 bc bb 45 a1 3c a9 11 11 3d 48 82 4a 3c
       -0.028483639 0.01968657 0.035417233 0.012360163
0002e0 85 af 54 bd 11 1e ee bc 53 fa 2b bd a7 03 22 3c
       -0.0519252 -0.029067071 -0.041986775 0.009888566
0002f0 d3 a9 b2 bd 7d ff a6 3c 91 b6 1c bd 8d 42 eb bd
       -0.08723798 0.020385498 -0.038260046 -0.11487303
000300 31 3d d5 3b f1 0d 19 3d 7a f3 05 3c ef 58 72 bd
       0.0065075387 0.03736681 0.008175725 -0.059166845
000310 d7 90 b0 3b 95 a1 83 bc 69 fc a4 3d 13 eb 6f bc
       0.00538836 -0.01606826 0.08055956 -0.014643448
000320 7d 01 a2 bd e2 96 9a bd e3 51 8c 3c e1 5e d3 bc
       -0.0791044 -0.0754831 0.01712889 -0.025802078
000330 fb 23 d8 bd 62 1a 36 3d 1c 0a 9d bc db 42 78 3d
       -0.10553738 0.044458754 -0.01916986 0.060610633
000340 4c 23 0d 3c d2 a6 fe 3c 7b c3 1f 3e ae 77 cb 3c
       0.008614372 0.031085405 0.15601914 0.024837341
000350 7b 53 b2 3c ed 4f 78 3d db 87 19 3c 2b a9 51 3d
       0.021768322 0.0606231 0.009370769 0.05118672
000360 25 e0 b6 3d 68 36 91 bd 56 aa 07 3e a2 bc 45 3c
       0.08929471 -0.07090455 0.13248572 0.012068899
000370 37 db 24 bc 39 b3 a6 3d a3 07 ba 3c 20 89 12 3e
       -0.0100620305 0.08139653 0.02270872 0.14310122
000380 86 9d e0 3d fb ef 21 3d b8 9b c5 bc 78 81 db 3c
       0.10967545 0.039535504 -0.024122104 0.026795134
000390 6b 93 95 bd 82 12 67 3d 84 25 05 bc 97 00 10 3d
       -0.07303508 0.056414135 -0.00812662 0.035156813
0003a0 a8 63 1b 3c dd 12 ac bd 16 25 93 bd d4 79 34 bd
       0.009484209 -0.084020354 -0.07184808 -0.044061497
0003b0 24 73 db bc 6d 8b f9 bc fb e7 3c 3d 42 11 34 bd
       -0.026788302 -0.030461991 0.04611967 -0.04396177
0003c0 97 72 ef bc 9c a4 44 bd 83 35 fe bd 63 07 d0 3d
       -0.029229445 -0.048008546 -0.1241255 0.10157659
0003d0 00 22 89 3d f5 cf 01 3e 35 3e c7 bc 50 3a 19 bd
       0.06695938 0.12676986 -0.024321655 -0.037409127
0003e0 0c e4 19 3d 6d a7 35 3d 92 29 cc 3c 4a 1d 9a bd
       0.037570998 0.044349123 0.024922166 -0.07525118
0003f0 7f fb c3 3d 33 52 0d bc 1c 00 16 bd 0f d5 68 3c
       0.095694534 -0.008625555 -0.036621198 0.014210953

lin.bias f4 [256]
000000 59 cb 09 3d 87 58 1a bc 83 c4 e2 bc d6 30 bc ba
       0.033641193 -0.009420521 -0.027681595 -0.0014357816
000010 48 29 e2 3c 4c 5c 2b 3d 5e db 12 3d 95 7d d6 bb
       0.027607575 0.041836068 0.035853736 -0.0065457323
000020 c9 0a 0b bc 88 33 f1 3c 9e 5c 07 3d c1 20 8c bc
       -0.008486458 0.029443517 0.03304731 -0.017105462
000030 e9 8b 79 3d 73 af 02 3d 6f f7 62 3d 66 ba 4d bc
       0.060924444 0.031905603 0.055411752 -0.012556648
000040 cf cc b6 3c a8 b9 ad 3c 22 d7 25 3d 4f a8 1c bd
       0.022314457 0.021206692 0.04048837 -0.03824645
000050 8a bd a8 3c 0b fb 4b 3d 65 42 49 3d c2 90 6b 3d
       0.020598192 0.04979996 0.049135584 0.0575111
000060 ed b3 33 3d 5a f9 9d ba 38 63 f4 3b b0 d1 3a 3d
       0.043872762 -0.0012052462 0.007458117 0.04561013
000070 b0 91 68 3d f5 6e 2e 3d 7a 78 3e 3d 33 1a c5 bb
       0.056779563 0.042586286 0.046501614 -0.006015086
000080 30 ba bb 3c 32 b5 ea 3c 32 07 8f 39 a7 96 20 3b
       0.02291593 0.028650854 0.00027280446 0.0024503858
000090 e4 83 2b 3d 01 69 e2 3c 30 2c 03 3d ed bd 2b 3d
       0.041873828 0.02763796 0.032024562 0.041929174
0000a0 12 d2 8b bc 5a e3 b3 3b 23 67 3d 3d 7d 23 8b bc
       -0.017067943 0.005489749 0.046240937 -0.016984696
0000b0 b4 0d 1a 3d 6c 1f c5 3b ac a4 26 3d 51 52 9b bc
       0.037610725 0.0060157087 0.040684387 -0.01896015
0000c0 79 20 c8 3c 14 44 e1 3c e6 64 e4 3c 8d 29 3e 3d
       0.024429547 0.027498282 0.027880143 0.046426345
0000d0 93 a4 34 3d 76 c3 46 3d ee 8c f2 3c 4e 05 fe bc
       0.044102263 0.04852625 0.029608216 -0.031008389
0000e0 05 91 4e 3d 94 25 44 3d b1 a3 90 ba 79 f2 42 3c
       0.05043127 0.0478874 -0.0011035112 0.01189863
0000f0 6f db 91 3c 8d 50 0a bc 83 54 3f 3d bb f8 3f bb
       0.01780483 -0.008442056 0.046711456 -0.0029292542
000100 e9 49 ea 3c ad d6 07 3c 12 a8 47 bb 49 98 d6 3b
       0.028599696 0.008290929 -0.0030465168 0.0065489155
000110 b7 87 73 3d e7 21 dc 3c 42 8a d1 bc 99 be 18 3c
       0.0594556 0.026871635 -0.025578622 0.009322786
000120 db 4d 23 bc 3d 56 58 bc 8d 46 53 3b 90 e1 17 bc
       -0.009967293 -0.013204155 0.0032238096 -0.009270087
000130 72 dc 8d bc c1 18 92 3b 2a 7a c1 bc 1c 70 15 bc
       -0.01731703 0.0044585173 -0.023617823 -0.009120967
000140 5d a4 c9 bb 48 d6 10 3b 25 19 6b bc 23 c5 cd 3c
       -0.006153627 0.0022100378 -0.014349257 0.025118416
000150 19 01 b9 3c cb fb 20 3d 74 05 21 3d 17 de 1e 3c
       0.022583531 0.03930263 0.03931184 0.009696505
000160 1c 86 da bb 54 8d 28 3d 24 af 00 3d f3 41 7a 3c
       -0.006668819 0.041150406 0.031417027 0.015274513
000170 78 ea cd bc bf 36 31 3d 5b e0 c5 3c dc 1f da bb
       -0.025136217 0.0432651 0.024154833 -0.00665663
000180 64 a6 8d bc 94 97 b5 bc 89 8d 43 3b 7f b8 03 3c
       -0.017291255 -0.022167005 0.0029839 0.008039593
000190 c7 ba 0e 3c fd 19 48 3d 88 b2 d6 bb f9 11 42 3d
       0.008711523 0.04885291 -0.0065520443 0.04738042
0001a0 9a d7 81 bc 20 b4 11 3d f3 82 bf 3b 0a 31 d9 3c
       -0.015849877 0.03557217 0.005844468 0.026512641
0001b0 a2 9e b8 3c f1 71 44 3d e1 d0 d4 3b b8 29 05 3d
       0.02253658 0.047960225 0.006494627 0.03251049
0001c0 46 ba 73 3b ae d8 d3 3c 35 21 74 3c c7 87 ba 3c
       0.0037189885 0.025860157 0.014900495 0.022769822
0001d0 c4 5d e8 bc 39 09 07 3c 60 4d 9f bc 7d fb 27 ba
       -0.028365023 0.008241945 -0.019446075 -0.0006408019
0001e0 b5 70 1b 3d 95 f4 42 3d 23 37 40 3d d8 9b ef 3b
       0.037949283 0.047596533 0.046927582 0.007312279
0001f0 85 3c 53 3d 66 e3 18 3c c9 82 35 3c 8e 56 af bb
       0.051571388 0.00933156 0.011078545 -0.0053508943
000200 1d fa a0 3c 02 a3 18 bc 21 f1 7f b9 e3 14 3b bb
       0.019650513 -0.009316208 -0.00024408523 -0.0028546385
000210 0e 16 e1 bc ce 89 3e bb 0e 3d eb bc 9a 22 cd bb
       -0.027476337 -0.0029073837 -0.028715637 -0.0062602283
000220 6e e8 05 bd de e6 94 bc 37 84 50 3d 85 d5 42 3d
       -0.032692365 -0.018176492 0.05090734 0.04756691
000230 90 32 98 bc b5 c2 80 bb 4a 33 9b 3c 12 92 63 3d
       -0.018578798 -0.003929461 0.018945355 0.055559225
000240 a4 7b 7c 3c 2b bd 0a 3c 8c bc e3 3c df 02 f0 3c
       0.015410338 0.008467953 0.027799867 0.029298244
000250 90 ad b9 3c 61 20 1a 3d 1c fd 6b 3c c0 d8 66 3c
       0.022665769 0.037628535 0.014403608 0.014089763
000260 59 66 55 3d cc e8 09 3c 85 d6 7f 3c 24 08 53 3d
       0.05209956 0.0084173195 0.01561511 0.051521435
000270 a0 65 24 bc 32 07 e7 3c 13 fc c1 bb d3 25 1d 3d
       -0.010033995 0.028201673 -0.005919942 0.03836615
000280 c4 c7 66 bc 07 db 95 bc 94 79 00 3d 8d 4d 45 3d
       -0.014085714 -0.018292917 0.031365946 0.04816966
000290 94 17 88 3d 47 de cd bc d6 a3 15 3d 5c 64 2e bd
       0.06645122 -0.025130404 0.0365332 -0.04257618
0002a0 98 3c f2 3c 90 bd 72 bc 53 3a 50 3d 04 79 ef 3c
       0.029569909 -0.014815703 0.050836872 0.02923251
0002b0 65 64 8c 3c 50 23 74 bc a6 06 c8 ba 0f 96 96 3c
       0.017137716 -0.014900997 -0.001526077 0.0183821
0002c0 a7 f3 22 3d 93 1c 2a bc d9 f0 7a 3d d8 31 51 bc
       0.039783146 -0.010382789 0.061264846 -0.012768231
0002d0 3c dd d0 3c 35 16 19 3d 8d 1c 7b bc 6b 92 de 3c
       0.025496118 0.037374694 -0.015326631 0.027169427
0002e0 eb 5b e7 3c 85 d4 4e 3c 62 7e ea bc 0d e9 9e bb
       0.028242072 0.012623911 -0.028624717 -0.004849559
0002f0 af 8e 3c 3d f1 fe 2d 3d 41 07 75 3c 7b b4 43 3c
       0.04603451 0.04247946 0.014955343 0.011944885
000300 c0 3e 34 3c b8 90 30 3c 8a c6 72 ba 9f bf 62 bc
       0.011001289 0.010776691 -0.0009261152 -0.013839631
000310 de 75 3b 3d df 09 33 bc ce a8 85 3b 7e 17 12 3d
       0.045766704 -0.010927646 0.004078961 0.035666935
000320 10 86 89 3c ea 09 4a 3c 03 88 44 3d f2 59 32 3d
       0.016787559 0.012331465 0.047981273 0.04354281
000330 8f 6a 55 3b f4 86 e9 b9 09 eb ec 3c c3 46 00 3d
       0.0032564735 -0.0004454177 0.028920667 0.031317484
000340 dd 99 dd 3c d7 0a 03 bc fe aa 9b bc 5e ee ac bc
       0.027050907 -0.00799819 -0.019002434 -0.021109756
000350 8b e7 24 3d 96 c8 e7 ba 9a 12 27 3d 63 f0 6f 3c
       0.04025988 -0.0017683681 0.040789224 0.014644715
000360 29 e1 b3 bc 8e ef 81 3b 9b 9f cb 3b ec e7 ad bc
       -0.02195795 0.0039653247 0.006214095 -0.021228753
000370 41 fe 03 3c 94 66 2e bc 5e 4f d2 3c f9 06 e4 3c
       0.008056224 -0.010644574 0.02567261 0.027835356
000380 19 cd 2b 3d 4d c8 2c 3d 40 af b7 3c a5 b4 90 bc
       0.041943643 0.04218321 0.022422433 -0.017664263
000390 b4 fe 59 3d b1 cf 6e 3c 09 a5 81 3c 58 13 81 bb
       0.05322142 0.014575885 0.015825765 -0.0039390735
0003a0 40 a0 a7 3c 24 d0 44 3d 31 7a 63 bc c2 45 e1 3c
       0.020462155 0.04805006 -0.013884113 0.027499083
0003b0 7a 22 21 bc 8c 7f f3 3c 90 b9 18 bd ca 5f 0d 3d
       -0.00983488 0.029723905 -0.03728634 0.03451518
0003c0 b9 f5 2e 3d 41 de 87 3d bf d9 dd 3c 25 b0 33 3d
       0.042714808 0.066341884 0.027081368 0.043869156
0003d0 56 12 d5 3c ae ef 61 3d c8 eb 99 3c 4a 9b 79 3d
       0.02600972 0.055160217 0.018789187 0.06093911
0003e0 8c f8 5c 3d 08 fa 96 3c 63 dc 90 bc b5 1d 4a 3b
       0.05394797 0.018429771 -0.017683214 0.003084046
0003f0 55 41 b8 3c dc e3 56 3d 5d 6b bc 3c bb 27 1e 3d
       0.02249209 0.052463397 0.023000414 0.03861211

pi.weight f4 [6, 256]
000000 60 eb d1 3a 83 d9 77 3c 87 ad 39 bb 83 08 c8 bb
       0.0016015582 0.015127542 -0.002833219 -0.0061045303
000010 f4 d7 73 bc f5 25 27 3d 36 86 80 3c ef 3b c2 3b
       -0.01488303 0.040807683 0.015688997 0.005927555
000020 3f 7d d6 bc 93 b3 9f bc 3d 89 c9 bb 0f 56 08 bc
       -0.026182769 -0.019494807 -0.0061503933 -0.008321299
000030 3a c4 f8 3b 3e 1b 00 bc 7b c5 a0 bc c7 58 34 3b
       0.0075917514 -0.007818995 -0.019625416 0.0027518736
000040 dc ae 49 bb 47 81 6e 3c 2f cc 97 bc fb 68 28 3d
       -0.003077439 0.014557189 -0.01852998 0.041115742
000050 70 de 6a 3c f1 e2 f4 3a b0 ff b0 bb e8 e8 57 bc
       0.01433526 0.0018683356 -0.005401574 -0.013178088
000060 b5 e9 d8 bb ee a2 b1 bb 87 67 12 bd cf cc 01 3d
       -0.006619657 -0.005421034 -0.035743263 0.03168946
000070 cc 1b 8a bc b0 9b c6 3b 1c d3 7a bc 56 b3 30 bc
       -0.016858958 0.00606104 -0.015309121 -0.0107849445
000080 4d b5 dd bb 40 ed f0 3c a9 fc 8d 3d f1 ec 58 3b
       -0.0067659975 0.029410005 0.06932957 0.0033100212
000090 bd 13 c0 ba 9a 77 9f ba 68 f1 ae bb 2e a5 be 3c
       -0.001465432 -0.0012166381 -0.0053388365 0.023272123
0000a0 76 9e 9e 3c d5 d8 85 bc be f3 a8 bb c2 95 08 bb
       0.01936267 -0.016338745 -0.0051560095 -0.0020841216
0000b0 ed d8 80 3c 65 29 a3 3c 8f 32 29 bb 98 2a 14 3d
       0.015728438 0.0199172 -0.0025817489 0.036173433
0000c0 5c d6 f2 bb c2 1d 55 3c 6e bc cb bc 3c ba 4a 3a
       -0.0074108075 0.013007583 -0.024870124 0.00077334396
0000d0 6b 0e 45 bb f9 a5 55 3b ae 81 94 bc d3 ab c5 bc
       -0.0030068408 0.0032600148 -0.018128242 -0.024129784
0000e0 e6 c5 a4 bc 4e b1 25 bd 42 17 95 3c 58 ae 2d bc
       -0.020113897 -0.040452294 0.018199567 -0.010600649
0000f0 ef e7 25 3c 5e e0 31 3c 37 6c 34 bd 3c 6f 58 bc
       0.010126098 0.010856716 -0.044048514 -0.013210114
000100 d6 87 54 3d 6a 85 5b 3b 4b 58 c0 bc 84 8f 4c ba
       0.051887356 0.003349627 -0.023479601 -0.0007803368
000110 f0 73 53 3c 5e 19 bf ba 9b fe 24 ba 78 88 66 3a
       0.01290606 -0.0014579704 -0.00062940427 0.0008794139
000120 b3 ad e5 bc 29 3d 0e bc 5f fd cf bc c8 fe 68 bc
       -0.028036928 -0.008681574 -0.025389371 -0.014220901
000130 1e 7d e8 3a 53 1f ab 3c d7 9b 91 3c 6e 4f e0 bc
       0.0017737483 0.02088896 0.017774506 -0.027381625
000140 bf e2 d4 3b 7c 59 03 3c 8f d4 af bc 38 cd 83 3b
       0.006496757 0.00801694 -0.02146366 0.0040222667
000150 b6 8f 2d 3c 5c a0 bc bb 1c 97 fb 3a 84 d3 23 bc
       0.010593345 -0.005756421 0.0019194814 -0.00999916
000160 f8 56 4c ba d2 ec 97 bc 8c ca bf 3c 41 aa 4d bc
       -0.0007794942 -0.018545542 0.023412012 -0.012552799
000170 a8 57 ed bb ff ec fd 3b c8 e0 85 3c 74 95 cd bc
       -0.0072431155 0.0077491994 0.016342536 -0.025095679
000180 05 ee b6 bc f3 3e 2b bc 88 ae e7 bc 47 e0 5c bc
       -0.022330293 -0.01045202 -0.028281465 -0.013481206
000190 a7 ee a8 bc aa 64 3e bc c9 1e 11 3d 50 c9 03 3b
       -0.02062161 -0.01162068 0.03542975 0.0020109005
0001a0 7e fc 77 3c b9 de 54 3c 82 a6 9b 3c 85 b9 b2 bc
       0.015135882 0.012992554 0.019000296 -0.021816978
0001b0 32 62 a0 3c 6f 38 f8 bb af 25 47 3a 86 fa 40 3b
       0.019578073 -0.007575087 0.0007596863 0.0029446199
0001c0 45 a1 a3 3c 25 37 57 bb 09 a7 79 bc 42 6d d0 bc
       0.01997436 -0.0032839265 -0.015237578 -0.025442723
0001d0 75 53 0f bd b2 4e 50 3c 1f 33 cc 3a 04 e3 51 bd
       -0.0349917 0.012714075 0.00155792 -0.05124189
0001e0 62 2a 86 bc 3e c4 03 3c ec c5 9c 3c 50 08 76 bc
       -0.016377632 0.008042393 0.019137345 -0.01501663
0001f0 3b 15 ad bc c2 58 3d bb 56 b6 6c bc ef 73 c2 bb
       -0.021128288 -0.0028892015 -0.014447769 -0.0059342305
000200 6a ca ed 3b d8 65 db 39 aa 39 c3 3c 1c 20 c3 bb
       0.0072567957 0.00041846815 0.023831207 -0.0059547555
000210 bd be 22 bd 03 4b bf ba cb 48 22 3d 7c 76 a0 bc
       -0.039732683 -0.0014594499 0.039620202 -0.019587748
000220 17 b6 44 bd a0 2f 84 bc a8 1a 9a 3c 71 f3 46 bb
       -0.048025217 -0.01613599 0.018811539 -0.0030357505
000230 9d fa eb bc 4e 41 05 bc 6c 7e 6a bc f3 78 ab bb
       -0.028806025 -0.008133246 -0.014312368 -0.005232924
000240 0f 22 ad 3c 63 94 62 bc db 69 c5 bc 6e 21 39 3c
       0.021134404 -0.013829323 -0.024098327 0.011299474
000250 b6 5d 8a bb 2a 0d 7e bc cd e0 af 3c c6 83 07 bc
       -0.004222597 -0.015506068 0.021469498 -0.008271163
000260 fa 56 50 bc b2 47 b5 bb 09 c7 43 bb 81 7a 1b 3a
       -0.012716049 -0.0055322284 -0.0029873273 0.0005931035
000270 be 06 a8 bb aa ea c7 b7 c0 e4 8c bc c3 e0 e8 3c
       -0.005127757 -2.3831923e-05 -0.01719892 0.028427487
000280 f9 ce 70 bd 0b 05 a3 3b 8b e4 f9 3a 52 5f 80 bc
       -0.058791135 0.0049749664 0.0019065303 -0.015670452
000290 08 ff a9 3b 8c 82 b3 3b 9c c4 a6 bb ef 86 9b 3b
       0.005187873 0.005478209 -0.0050893556 0.00474631
0002a0 a3 36 13 3c 50 d9 94 bb 69 44 a0 bc cd 8b 3d 3c
       0.008985194 -0.004542507 -0.01956387 0.011568976
0002b0 c4 68 d4 bc 7c 40 33 3d d2 e0 a1 3c 3c 98 d3 3b
       -0.025928862 0.04376267 0.019760523 0.0064573567
0002c0 d5 20 86 3b c1 57 a7 3b c2 29 68 3c 42 d2 67 bc
       0.0040932694 0.0051068966 0.014170112 -0.01414925
0002d0 6c 71 03 3d b5 d2 1c bc 22 76 a9 bc 94 a9 0c 3d
       0.03209059 -0.009571721 -0.020686213 0.03434141
0002e0 9e c7 9f 3b 7f bb c4 bb ea ff 6a 3c 45 d7 9b bc
       0.004876091 -0.0060037966 0.014343241 -0.019023547
0002f0 ed 3f 25 bd 3b 23 f9 3b e9 23 92 3b 55 24 da bc
       -0.040344168 0.0076030768 0.004459847 -0.026628653
000300 2f db 28 3c 50 6f b8 bc 2d 2e 70 3c 72 b3 75 3c
       0.010306164 -0.022514015 0.014659447 0.014996396
000310 5a 0b 5d ba 83 bc 36 bc 92 73 14 bc 92 a1 59 3c
       -0.00084321725 -0.011153343 -0.009060757 0.01328315
000320 a9 91 65 3a 47 2a 35 bb 80 4a 1a bc 19 8c 5b 3c
       0.0008757362 -0.0027643607 -0.009417176 0.013400101
000330 9b ee a8 3c 79 8b c2 3c b6 e8 ca 3c 94 6b 06 bd
       0.020621588 0.023748146 0.024769168 -0.03281744
000340 00 b3 a4 ba 5d 82 80 3b 71 5a 92 3c 1f 9b ac bc
       -0.0012565553 0.0039217905 0.017865391 -0.021070061
000350 22 8e f6 bc 54 59 e6 bb cf c4 0c 3c 33 c4 27 3d
       -0.030097071 -0.0070296917 0.008591845 0.040958595
000360 49 c3 7a bb 90 a6 7a 3c fe ae 15 bc 59 22 5b 3c
       -0.0038263372 0.015298501 -0.00913596 0.013374888
000370 3e 55 d5 bc 8a c7 1f 3d d1 f6 d4 bb 77 18 0e bb
       -0.026041623 0.039008655 -0.0064991494 -0.0021682063
000380 a0 94 3d 3c d4 88 af bc 40 a1 12 bc 07 66 41 3d
       0.0115710795 -0.02142755 -0.008949578 0.04721644
000390 ab 98 b3 3c bc cd a4 3b e3 86 5b 3b 36 3a 3d 3c
       0.021923384 0.0050294083 0.0033497147 0.011549523
0003a0 da 55 b4 bb b0 b8 39 3c 06 0f 81 3a 9e 98 f4 3b
       -0.0055033984 0.011335537 0.0009846396 0.0074644824
0003b0 d5 9c 87 bd 7c 3b a4 bc 7d 83 29 bd e0 1c 05 bd
       -0.0662171 -0.020047896 -0.041385163 -0.03249824
0003c0 02 5d 8b bc a9 e2 2e bc 26 d1 a6 bc dc f7 d8 bb
       -0.017012123 -0.010674157 -0.020363402 -0.006621344
0003d0 79 ad 31 bc b8 ff b6 3c 8d ac 64 bc 68 30 2e bc
       -0.010844582 0.022338733 -0.013957155 -0.010631658
0003e0 38 e8 84 bc 5f 46 06 3c e5 19 69 bd 5f 75 d3 bb
       -0.016224012 0.008195489 -0.05690946 -0.0064532007
0003f0 6a f5 33 bc 82 e7 94 bb 7a 56 6b bc 70 43 05 bb
       -0.010983804 -0.0045441994 -0.014363879 -0.0020334385

pi.bias f4 [6]
000000 be f7 7b 3d 38 03 9f bc 86 64 15 bd 29 fe 53 bc
       0.061515562 -0.019410715 -0.03647282 -0.0129390145
000010 53 09 af 3b da dd 10 3d
       0.0053416877 0.035367824

value.weight f4 [1, 256]
000000 f0 dc ce bd cd 27 8c 3d 66 12 91 3d 5f 52 ca bc
       -0.10100734 0.06843529 0.07083587 -0.02469748
000010 21 bf 23 3d bd e2 96 bd d9 46 a1 3d c7 51 bc bc
       0.039977197 -0.07367466 0.07874841 -0.022988213
000020 51 7c 90 bd da 16 f6 ba 33 02 6a bc 9a 92 0b be
       -0.070549615 -0.0018775121 -0.014282751 -0.13630143
000030 05 df 56 be 40 b4 b7 bd 12 71 25 3d 24 8b cd 3c
       -0.20983513 -0.08969927 0.040391035 0.025090761
000040 2d ca 15 bd 41 11 b5 bd 2f dd a6 bc f2 1b 2d 3d
       -0.036569763 -0.088411815 -0.02036914 0.04226298
000050 a9 42 61 bd 6b 34 b9 3d 9f 28 ca bc 67 a5 8a 3d
       -0.054995213 0.09043201 -0.024677573 0.06769829
000060 a1 37 63 bd 23 a6 09 3e be 7a 59 3c 24 6b 54 3d
       -0.055472974 0.13442282 0.013273893 0.05185999
000070 9b d5 cc bc b0 8a 9f 3c 7b fa 67 bd 21 72 ea bc
       -0.025004199 0.019475311 -0.05663536 -0.028618874
000080 0a ab b1 3d 54 0b bd bc d5 4d 1a bd f9 73 c3 bc
       0.08675201 -0.02307669 -0.037671883 -0.023859011
000090 2f 6f bc 3d dd b1 25 3d 0f 91 6f bd 86 02 4e 3d
       0.09200894 0.040452827 -0.058487948 0.050295375
0000a0 c9 02 dc 3d 95 84 21 3d 33 45 d4 3d 21 58 d4 3c
       0.10742719 0.03943308 0.10364761 0.02592093
0000b0 9d b0 af bc 90 87 91 bd 28 f8 80 3b 59 66 1a 3d
       -0.02144652 -0.071059346 0.0039358325 0.037695263
0000c0 c5 fd 60 bd 32 5f 68 bc da 9a c9 3b d8 32 6a 3d
       -0.054929513 -0.014182853 0.006152493 0.057177395
0000d0 7b 01 da bc ea 52 a5 3d aa 5d c1 3d 95 20 03 be
       -0.026612034 0.08072455 0.09441693 -0.12805398
0000e0 66 fe d0 3c 4f 02 80 bc be 14 18 3d 0c 41 02 3e
       0.025511932 -0.0156261 0.037129156 0.12720126
0000f0 1b 40 4b 3d bd 69 3b 3d 71 ae b3 3d e0 5f c9 bc
       0.049621683 0.045755137 0.087735064 -0.02458185
000100 ac ae b1 3c 9e 6a 60 3c 25 5c bb 3d eb fa 73 3d
       0.021689735 0.0136972945 0.091484345 0.059565466
000110 49 27 f0 3c a5 7e 86 bd 3e e7 b4 3d c5 17 ad 38
       0.029315608 -0.06567124 0.088331684 8.25371e-05
000120 fb a5 3d bd 3f b7 31 3d 8d 5a c6 3d b8 ab 35 bd
       -0.04630087 0.043387648 0.0968524 -0.044353217
000130 db b4 c9 bd 93 dc 7a 3d e4 f2 77 39 0a 8f 05 bc
       -0.098489486 0.061245512 0.0002364624 -0.008151779
000140 d8 93 85 3b 31 b8 37 bd d3 69 ab bd 39 45 99 bb
       0.0040764622 -0.044853393 -0.08369794 -0.0046774414
000150 52 0a ed bb e4 59 8b bd db b5 d0 bc e3 eb d6 3d
       -0.0072338963 -0.06804255 -0.02547734 0.104942106
000160 49 09 be bd f5 18 ea bc 45 25 34 3d d1 2a 90 3b
       -0.09279115 -0.028576354 0.043980855 0.0043996354
000170 75 53 73 3d 59 bc 29 bb 20 14 1a 3d ce 04 f4 3c
       0.059405763 -0.0025899617 0.03761685 0.029787447
000180 d4 3e f3 3d d3 5b 9b bc 1f 1a c5 bd 53 ee e9 3c
       0.11877218 -0.018964684 -0.09624123 0.028556025
000190 fb 54 9d bd 11 88 b6 bc 3b d9 a5 3d b4 c2 6f bc
       -0.07682224 -0.022281678 0.08098074 -0.014633823
0001a0 ab 9b 6b 3d e3 11 77 3c 7d 39 86 3c ee a2 89 3d
       0.057521503 0.015079948 0.016384834 0.067205295
0001b0 a1 bf 82 3d 75 7d 3e 3c 8f 0e 52 bc 41 a5 05 bb
       0.063842066 0.011626591 -0.012820854 -0.0020392688
0001c0 00 a6 ad bd c4 7d d0 3d 17 ee c1 3d 39 7c 86 3c
       -0.084789276 0.10180238 0.0946924 0.016416656
0001d0 68 ab 15 3e 2a 32 71 3d 0b 0e 5b bc 20 81 29 3d
       0.14616168 0.05888573 -0.013370047 0.04138291
0001e0 64 74 33 bd 1a ec 39 bd 08 33 79 bd 4a 52 17 3c
       -0.04381217 -0.04539118 -0.060839683 0.009235928
0001f0 78 6e 23 3d c4 ce 92 bd 82 37 2a 3c 09 5f d8 bc
       0.039900273 -0.07168344 0.010389211 -0.026412504
000200 20 01 37 bd 4f 91 be 3c cd c3 9e 3d 01 67 a1 3c
       -0.044678807 0.023262648 0.0775219 0.019702436
000210 54 2c d3 3d af be 22 bc bd 25 05 3b ba c1 64 bb
       0.10311189 -0.009933158 0.0020316683 -0.003490551
000220 03 11 6e bd 92 f9 1b 3d 9a 45 e6 3d ca 4f 85 3d
       -0.058121692 0.038079806 0.11243744 0.06509359
000230 84 e7 d2 ba aa 16 64 3d b7 25 52 bc 20 de 1d bd
       -0.0016090726 0.055685677 -0.012826375 -0.038541913
000240 81 fa 2d 3e 2e 39 ca 3d 72 b7 ae 3d 57 16 f6 bc
       0.16990091 0.098741874 0.08531083 -0.03003995
000250 fe ce 97 bc e6 e9 a4 3d 57 0f dd bc ad 0f 88 3d
       -0.018531319 0.08052425 -0.026984854 0.06643615
000260 35 d3 d1 bb a7 20 3b bd 10 c4 3b bd 96 81 91 3c
       -0.0064033517 -0.045685437 -0.045841277 0.017761987
000270 1b ad 76 bd d2 a9 26 3c ff 97 fe 3c 49 05 21 bc
       -0.06022368 0.010172324 0.031078337 -0.00982792
000280 5c 04 d3 bc 2c e9 91 bd 1e 29 9c bc ad dc 94 3d
       -0.025758915 -0.07124552 -0.019062575 0.07268653
000290 15 93 89 3d fa 4b f6 bc 12 ad 00 bd b6 3b 5a 3d
       0.06717507 -0.030065525 -0.031415053 0.0532796
0002a0 4b 42 19 bd 11 85 65 3d db 71 6b 3d 39 e6 3d bd
       -0.037416738 0.056035105 0.057481628 -0.046362136
0002b0 35 87 36 3e 2c db d1 bd 98 6c 90 3d bd 6e e8 3d
       0.17825015 -0.10246882 0.070519626 0.11349247
0002c0 a0 0b 2e bc 49 63 f2 bc f2 bf 41 bd b4 7e 05 bd
       -0.010622889 -0.029588358 -0.047302194 -0.032591537
0002d0 e5 1a 8a bd bb 26 25 bd fc b2 a2 bd ed 56 b9 3a
       -0.06743411 -0.04032014 -0.07944295 0.0014140286
0002e0 7a 7f 13 3c b3 3f ca bb 97 fa 55 3d 2d 14 22 3d
       0.009002561 -0.0061721443 0.052240934 0.039570022
0002f0 a4 99 17 bd b2 de 93 bc 1e 0a 9c 3d 61 58 a1 bd
       -0.037011757 -0.018050525 0.07619117 -0.07878185
000300 10 02 5d bc b8 92 bf bc 50 21 0e bd f4 fc 83 bd
       -0.013489261 -0.02338539 -0.034699738 -0.06444731
000310 5b 0c 44 3c df 5c fe 3c 1c 1b 5a bd b3 87 47 bc
       0.011965836 0.031050144 -0.05324851 -0.012178349
000320 1b 97 3b bd 94 87 37 bd 69 97 92 3d f9 c9 1f be
       -0.045798402 -0.04480703 0.071577854 -0.1560439
000330 34 5a 8d 3c fb c9 a9 bc 7e 15 44 3e 47 da 1d bd
       0.017254926 -0.020726195 0.19148824 -0.038538244
000340 30 62 81 3d d4 b9 65 3d 90 f3 cf 3b 5f 60 17 3e
       0.06317556 0.056085423 0.0063461736 0.14782856
000350 46 e7 f1 3d c8 25 bf ba 14 68 42 bd 5c 66 a8 3d
       0.1181169 -0.0014583403 -0.047462538 0.082226485
000360 63 c1 ac bc 9d 3c 9f bd 13 c4 9b bd 19 b8 04 3b
       -0.021088308 -0.07775233 -0.076057576 0.0020251332
000370 b8 f4 d3 3c 87 68 7d 3d 58 57 14 bd ff e5 01 3d
       0.025873527 0.061867263 -0.03621611 0.031713482
000380 e3 ab 8b 3d e1 e2 f0 3d 23 65 be bc 0b f1 c1 3c
       0.06819894 0.11762024 -0.023241585 0.023674509
000390 c0 f0 58 3c a1 eb 2f bd 27 98 97 3c ca 64 b3 bd
       0.013240993 -0.042949323 0.01850517 -0.08759458
0003a0 a3 80 4c 3c 86 39 b4 bc d1 a4 de ba 9c 2a 53 bc
       0.012481841 -0.022000086 -0.0016986375 -0.012888577
0003b0 20 7d 66 3b 56 ac d6 3c db 4c 91 3d 4f 3c b2 bd
       0.0035169795 0.026205223 0.07094737 -0.08702909
0003c0 8e 40 40 3c ab c5 b0 3c 3d 32 a1 bb 70 f6 31 3d
       0.011734141 0.02157863 -0.004919319 0.04344791
0003d0 fe 8c 4e 3d 1e 7b cc 3d ca 58 8e bd 93 f2 43 bc
       0.05042743 0.0998442 -0.06950529 -0.01195969
0003e0 41 ca f1 bc ae 36 cb 3c 97 69 d4 3d 58 51 1a 3c
       -0.029515387 0.024806347 0.10371702 0.009418808
0003f0 75 6e b3 bd 4f e5 0b bc 7c 74 97 bd a9 8b 79 3d
       -0.087613024 -0.008538558 -0.073952645 0.060924206
