TradingGym/PPO/PongDeterministic-v4_101.pth (torch_old, 679024 bytes, 8 tensors)

conv1.weight f4 [4, 2, 6, 6]
000000 c2 4c bf bc 80 d4 e8 3d 03 6d 2e be 93 c8 41 3e
       -0.02335203 0.11368656 -0.17033772 0.18924169
000010 96 97 c8 3c a4 31 b4 be ea 6c 1f be 37 00 44 bd
       0.024486344 -0.35194123 -0.15568891 -0.047851767
000020 52 0a 35 3e b8 67 7e bc e8 f3 b1 3e 50 ef 3e be
       0.17679718 -0.015527658 0.34756398 -0.18645978
000030 b1 60 f0 3c 75 4f 50 3e a7 4d 6a 3d 33 93 4d 3e
       0.029342981 0.2034281 0.05720296 0.20075683
000040 0e d0 77 3d 62 4f 90 3e d9 27 b0 be 7a ac 4e be
       0.06050115 0.28185564 -0.344054 -0.20182982
000050 49 5e 33 be 33 25 6c 3d 5f 3c 74 3e a0 3f 8e be
       -0.17516436 0.057652663 0.23851155 -0.27782917
000060 59 5c 28 be 9b 43 91 3d dd a7 76 bd 28 41 0f be
       -0.16441478 0.07092973 -0.06021868 -0.13989699
000070 b9 70 ef bd ca 89 22 be bb 8c 18 3e 48 b2 c6 3d
       -0.11691422 -0.15872875 0.14897434 0.09701973
000080 97 ef 34 3e 49 2a 1a be 40 7e 59 3c 31 c8 b4 bd
       0.17669521 -0.15055193 0.013274729 -0.08827246
000090 0d 82 59 3e d6 e3 df bd 7b ed 9c bd a2 81 d2 bc
       0.21241017 -0.10932128 -0.07662483 -0.02569658
0000a0 06 15 05 be 34 29 84 bd d9 36 24 be 1d f0 cd 3c
       -0.12996301 -0.06453171 -0.16036548 0.025138909
0000b0 8f 64 93 be c4 4a 43 3e 4d 36 3d bc d4 d0 12 be
       -0.28787658 0.1907149 -0.011548591 -0.14337474
0000c0 81 77 c3 3e 9b f7 ce bc 82 b8 88 3d 68 9b 5d be
       0.38177112 -0.025264552 0.06675817 -0.21641314
0000d0 ca 35 1f 3e 74 70 30 be eb 62 a9 3c a2 6c aa bc
       0.15547863 -0.17230397 0.02067705 -0.020803753
0000e0 d5 14 3c bd d3 1d d9 3b a8 9e 62 be 1d 09 0c 3e
       -0.045918304 0.00662587 -0.22130835 0.13675351
0000f0 ce a2 89 be f4 57 2b be 62 c1 81 3d bb 9e 11 be
       -0.26882023 -0.1673277 0.06335713 -0.14220707
000100 b3 e2 d1 3b 28 ae 98 3d 92 bd d9 bd 15 d0 af 3d
       0.0064051985 0.07455093 -0.10631861 0.085846104
000110 73 84 b2 be 24 f5 6b be 40 26 c8 3c 55 f2 80 3d
       -0.34866676 -0.23042732 0.024432302 0.06296221
000120 95 f9 31 3e 67 83 6c bd a2 5e 02 3e cb 3d 66 3b
       0.17380364 -0.057742503 0.12731412 0.0035132046
000130 f6 ed 0f be b1 45 52 3e a6 66 9b 3e cf 70 ce 3e
       -0.14055619 0.20534398 0.30351752 0.4032044
000140 e8 70 c7 3c 07 46 83 bd 24 63 bd bd 02 cf 3e be
       0.02434583 -0.06409841 -0.09247425 -0.18633655
000150 e9 cb 15 be 1e a9 3c 3e 79 fc ba 3b e9 9a 27 3e
       -0.14628567 0.18423888 0.0057063666 0.16367687
000160 07 20 2f be b9 f6 4d 3c c7 ea 42 3e d4 ac ca 3d
       -0.17102061 0.01257103 0.19034873 0.098962456
000170 19 0d 25 bd f0 ff 6e 3e 97 5a 31 bd 4c 85 cd bd
       -0.040295694 0.2333982 -0.043299284 -0.1003519
000180 88 75 bd bc 17 13 2e 3e d8 e6 3f 3e 74 49 c1 3c
       -0.023127332 0.1699947 0.18740404 0.023594595
000190 ee dc fb 3d eb 4a 79 3e 6f 72 8b be a4 35 3e bd
       0.12297998 0.24344985 -0.27235743 -0.046437874
0001a0 4a 71 9c bd 69 72 ac 3c ea 08 2e 3e c9 11 a6 bc
       -0.07638796 0.021050649 0.16995588 -0.020272152
0001b0 1a 58 b9 3e e3 09 82 3e 26 f8 0b bb a2 ab 15 be
       0.3620003 0.25398168 -0.0021357625 -0.14616254
0001c0 80 48 99 bd 08 8d 90 3b 09 76 67 bd a1 be c1 bd
       -0.074845314 0.0044113435 -0.05650905 -0.09460188
0001d0 87 8e 86 be cc ed 1a be 24 25 9e 3e 95 01 2c bd
       -0.26280615 -0.15129775 0.3088771 -0.041993696
0001e0 7a cb 81 bc 5a 68 80 be 69 d7 1c bd ae 64 e3 3c
       -0.015844095 -0.25079614 -0.03829137 0.027757969
0001f0 46 db 67 be ae 26 bd 3c a8 1d 4e bd ba e4 23 bd
       -0.2264224 0.023089733 -0.05032125 -0.040013053
000200 fe c8 35 3c 9c b4 a6 3c 89 9c 79 bd 83 c3 27 bd
       0.011095284 0.020349793 -0.0609403 -0.04095794
000210 51 08 ab 3b 93 b7 14 3b 68 28 22 3e 0d e0 d7 be
       0.0052194973 0.0022692427 0.15835726 -0.42163125
000220 f5 23 8c be 63 34 92 3e 12 20 8c bd 7f a1 aa 3e
       -0.27371183 0.28555593 -0.068420544 0.33326337
000230 56 76 6c be 5b e3 ed 3d ed f3 04 bc 92 82 f3 3d
       -0.23092017 0.1161563 -0.008114797 0.11890139
000240 94 4c 40 be a5 7d 6b be 70 39 bc 3d 4c 65 9a bd
       -0.18779212 -0.22997148 0.09190643 -0.07538852
000250 d6 85 73 be b7 81 ad 3d 94 32 82 3d a5 d9 7c 3d
       -0.23781523 0.08472007 0.06357303 0.061731
000260 42 73 d7 bd 24 f8 81 be 8b 48 39 bd 92 bd c7 3d
       -0.105200306 -0.2538463 -0.045235198 0.097529545
000270 5a 44 ac be 83 85 71 3e c3 4e 95 3e b4 8e e1 bd
       -0.33645898 0.23586087 0.29161653 -0.110135466
000280 bd 76 93 3e 89 a9 93 be 1d f2 c9 bd 2f 5a 80 bd
       0.28801528 -0.28840283 -0.098606326 -0.06267201
000290 88 27 82 be a4 11 d1 bd 99 c4 27 bc 48 b6 a9 3d
       -0.25420785 -0.10208443 -0.010239744 0.082867205
0002a0 04 4e 9c 3e 7b f9 98 bc d7 01 18 be 08 d6 c5 bd
       0.3052827 -0.018673649 -0.14844452 -0.09659964
0002b0 f8 2d 3d bd 1a 21 b4 3d 09 45 9c bc 0e 6e 8f bd
       -0.046186417 0.08795376 -0.019075887 -0.07003413
0002c0 45 b9 10 3e 6d 99 e0 3d 26 25 6c 3c ad 56 a8 3d
       0.14133175 0.10966764 0.014413154 0.08219657
0002d0 f2 fe 82 be c3 07 82 be 5f f4 19 be b4 68 cd bd
       -0.25585133 -0.25396547 -0.15034626 -0.10029736
0002e0 ca 2c 28 be fb db cb bd 41 9e 68 be 7c fe 31 be
       -0.16423336 -0.09954067 -0.22716619 -0.17382234
0002f0 46 7b a2 3e bf ec 4f 3d 50 0b 32 3e f8 94 1f 3e
       0.31734675 0.050762888 0.17387128 0.15584171
000300 84 b7 de 3e 20 87 08 be bf b3 e0 3d 4d e3 a2 bc
       0.43499386 -0.13332796 0.10971784 -0.019883776
000310 86 be b7 3d e4 a1 45 bc bb 76 1b 3e f4 6f cc be
       0.08971886 -0.0120625235 0.15182011 -0.39929163
000320 68 1c 97 3d bb a1 d6 3d b0 cc 07 be 46 77 02 3e
       0.07378465 0.104800664 -0.13261676 0.12740812
000330 6a c8 3e 3e 85 72 2a bd 4d 44 93 bd f8 2e 64 bb
       0.1863114 -0.04161312 -0.07190762 -0.0034818035
000340 29 58 36 be 4e c4 14 3e 48 f4 3c be 89 a0 8c 3b
       -0.17807068 0.1452801 -0.18452561 0.004291598
000350 8f 26 2f 3d 46 63 0b bc 2c f0 42 bc 32 dd 4b 3d
       0.04276138 -0.008507555 -0.011898082 0.049771495
000360 a7 c8 2d be a9 33 b7 bc e4 cf 65 3c 31 d8 c9 bd
       -0.16971074 -0.0223635 0.014026616 -0.09855688
000370 77 78 e6 3d d3 38 7b 3e 22 db 06 bf 08 36 4d 3d
       0.112534456 0.24533395 -0.5267812 0.050100356
000380 8c 42 0a 3b d0 50 a6 bd db cc 8b 3c 03 18 96 3e
       0.0021096794 -0.081208825 0.017065456 0.29315194
000390 d0 41 3c 3e a5 28 16 3e 57 0a 8b bd 23 fc 88 3e
       0.1838448 0.14663942 -0.067890815 0.26754865
0003a0 d0 19 9d 3d f0 86 a7 bd b8 47 01 3d 85 53 33 3e
       0.07670939 -0.08180034 0.031562537 0.17512329
0003b0 4a d6 3e 3d 2c 91 0b be a8 fd 68 3e d8 ce f7 3d
       0.04659108 -0.13629597 0.22753012 0.12099999
0003c0 2c 7e bd bd 15 94 25 be f4 42 6a 3e 0d b0 86 be
       -0.09252581 -0.1616977 0.22877103 -0.2630619
0003d0 a0 80 73 3d 56 e1 8f 3d 42 d2 b7 bb 45 29 05 be
       0.05944884 0.07025401 -0.0056097815 -0.13004024
0003e0 e1 51 ce bd c0 43 8d bd 3f fb ac 3b f2 9d 3f be
       -0.10074211 -0.06897688 0.0052789743 -0.18712595
0003f0 61 3d d4 3e 0e f9 5e be 50 91 7c be 16 84 37 3e
       0.41453078 -0.21774694 -0.24664807 0.1792148

conv2.weight f4 [8, 4, 6, 6]
000000 91 99 3b bb 9b 58 1b 3e 3b d5 16 3e 95 22 f3 bd
       -0.0028625468 0.15170519 0.14729778 -0.118718304
000010 28 2f f0 bd c6 3f c3 3d 71 37 a8 be 26 da 03 3e
       -0.11727744 0.09533648 -0.32854798 0.12876186
000020 b7 0a c9 3c fd f0 97 3a 6b b9 fc bd f5 95 c1 bb
       0.024541242 0.0011592206 -0.12340053 -0.005907769
000030 67 e1 02 3e 1d da c8 bc 58 2b d2 bd 68 2b f3 3d
       0.12781297 -0.024518067 -0.102621734 0.118735135
000040 7d c2 7e 3d 3f 45 bb 3d 7f 94 a3 bd 02 94 04 3d
       0.062197197 0.09144067 -0.07987308 0.032367714
000050 e8 ca 43 be 7f 99 e6 3d 02 7e 24 3e 1e 35 7d 3d
       -0.19120371 0.11259746 0.16063693 0.061818235
000060 d1 96 2f 3e 95 0f 95 bd b8 48 01 3c 8b dc 03 be
       0.17147376 -0.07278363 0.007890873 -0.12877099
000070 d7 c2 64 3e fe 27 bf bd 74 1b 06 3d ce 01 09 be
       0.2233995 -0.093338 0.032741025 -0.13379595
000080 67 56 81 3e a7 52 8f bc 2f 87 f9 3d 09 1b df bd
       0.25261232 -0.017495466 0.12183987 -0.108938284
000090 74 54 a5 3d c0 3f 67 be 6a 6e 01 3e 74 df ea 3d
       0.08072749 -0.22582912 0.12639776 0.114684016
0000a0 1c cb 17 3d b3 2e 4c be 13 0f 27 be a7 02 9b bd
       0.037058935 -0.1993969 -0.16314344 -0.07568865
0000b0 70 32 f2 3d 3d 8b d0 3c ea 3c ef 3c 63 fb 49 3d
       0.118260264 0.025457019 0.02920385 0.049312007
0000c0 f2 76 8f bd 3b d6 51 be 2e 09 53 3a 5d 97 57 be
       -0.07005109 -0.20491879 0.0008050379 -0.21053834
0000d0 7e a7 92 3e ec ab 74 3d 6a 6b a9 3a a9 0f 12 bd
       0.2864341 0.05973427 0.0012925689 -0.035659466
0000e0 a8 84 af bd d0 a1 79 bd 3d f0 6f bd e3 39 3a 3e
       -0.08570224 -0.060945332 -0.05857872 0.18186145
0000f0 f0 be 37 3d a5 a1 90 3e a1 a3 ea bd 92 3a 1a bd
       0.044859827 0.28248325 -0.11456991 -0.037653513
000100 27 38 da bb 17 2e 92 bd 6c 54 c2 bd ad d3 b9 bd
       -0.006659526 -0.07137697 -0.094887584 -0.09073577
000110 a1 d7 43 3d 11 4f 86 bd 8c f1 5a 3d 96 7e 26 be
       0.04781306 -0.065580495 0.053453013 -0.16259226
000120 99 17 f4 3d 6d 39 94 3d 24 93 f5 3d 04 5b c9 bd
       0.119185634 0.072375156 0.119909555 -0.09831813
000130 2e 6c db 3d d7 b5 a3 bc 4c 7b b5 3d d6 42 43 3e
       0.10713993 -0.019984169 0.08861408 0.19068465
000140 3a 5f 54 bd 6e f5 11 3e e1 17 0f 3e c0 16 9d bd
       -0.051848628 0.1425378 0.13973953 -0.07670355
000150 79 cc 0c bd 8b 71 ef 3c 26 3b ed bd b0 4a ff 3b
       -0.034374688 0.029228946 -0.11583547 0.007790886
000160 b3 e1 f8 bc 0d 50 24 be 2e a0 e1 3d 1d 79 c8 bc
       -0.03038106 -0.16046162 0.1101688 -0.024471814
000170 ae 7d dd bd 08 1b 0f 3d 44 79 87 be ed c6 69 3c
       -0.10814987 0.03493789 -0.26459706 0.014268619
000180 be 58 98 3d 61 f9 a9 bd ea 8b 5b be 10 71 72 3d
       0.07438801 -0.082995184 -0.21440092 0.059189856
000190 72 16 c9 bd 2b 1c 38 bd 8c d6 ac 3c 00 4d f6 3c
       -0.09818734 -0.044948738 0.021098398 0.030066013
0001a0 5f 58 40 3d 75 d8 46 bd 26 0a 85 bc 19 8b 11 3c
       0.046959277 -0.048546273 -0.01624019 0.008883261
0001b0 9f bd 9d 3d 01 87 82 bb c4 a6 30 3d 74 b2 9d bd
       0.07702183 -0.003983379 0.04312779 -0.07700053
0001c0 f9 52 d6 3d 9d 29 1d 3e 9d 72 b2 3d 9f f6 88 3e
       0.104650445 0.15347905 0.08713267 0.26750657
0001d0 1e ff d2 3d 06 34 5d bd a1 3f 05 3e 18 17 02 be
       0.10302566 -0.05400469 0.13012554 -0.12704122
0001e0 91 28 01 3e b2 9f 14 3e a2 d5 83 3d 25 e5 f3 3c
       0.12613131 0.14514044 0.064372316 0.02977235
0001f0 be 8c bc 3d de 30 c0 3a 68 22 05 3d bf 16 31 bd
       0.09206532 0.0014663001 0.032503515 -0.043234583
000200 96 db 4a bd 4e 1f 54 3d df 4e 55 3d 08 28 09 bc
       -0.04952582 0.051787667 0.05207717 -0.008371361
000210 b7 17 e9 3d 40 78 dd bd d5 9f 05 3e 9b f2 8e 3d
       0.11381476 -0.108139515 0.13049252 0.06979867
000220 9a df 66 be bf 4b 86 be ec 5c b1 bd 74 61 90 3d
       -0.22546235 -0.26229665 -0.086603016 0.07049838
000230 cd c9 8e 3d a6 ea c7 3d b3 b5 79 3e e8 eb a2 bd
       0.06972084 0.097615525 0.24385719 -0.07955152
000240 a5 d4 93 3c e9 eb 84 3e 0c c8 1b 3e eb 93 4e be
       0.018045733 0.25961235 0.1521303 -0.20173614
000250 c8 c6 64 3d ae 93 da 3c 9e fe 3e bd 0d 6a 26 be
       0.055853635 0.026681747 -0.04662954 -0.16251393
000260 5f d6 8e 3d 60 7a fc bc d1 77 db bd e8 b8 99 bd
       0.06974482 -0.030820072 -0.107162125 -0.07505971
000270 c0 e5 35 3e 60 45 c5 3d 7c 4c 56 3d 5c b2 6a 3c
       0.17763424 0.09632373 0.052319035 0.014324751
000280 31 08 3d 3e 6d 08 97 3d f8 f0 92 bd e2 73 67 3d
       0.18460156 0.07374654 -0.071748674 0.056507
000290 2e 4c 6e bd fd 1d b7 bc 7d 9e ad 3d b7 d7 97 3c
       -0.05817812 -0.022353167 0.08477495 0.018535478
0002a0 26 bd ca bd a4 c4 8b bc f5 e0 ef bb e3 1c 10 be
       -0.098993585 -0.017061539 -0.007320518 -0.1407352
0002b0 da 7a 01 bd f4 83 dd bc 9d 8e 50 bc fd 93 5c 3c
       -0.0316113 -0.02704046 -0.012729314 0.0134630175
0002c0 f1 c3 ce 3c 7e 6f 44 3e c0 53 8a bd d8 51 38 3e
       0.025239917 0.19183156 -0.06754255 0.17999971
0002d0 16 dc ea bd e5 7c 86 bd 9e 50 fc bc 25 a6 12 3e
       -0.11467759 -0.065667905 -0.03080016 0.14321192
0002e0 25 c7 45 3e bf cb e0 bd d0 55 ce 3d 14 30 27 bd
       0.19314249 -0.109763615 0.10074961 -0.040817335
0002f0 45 2e c8 be ac 11 ce 3c 75 7c 5b 3d cf ff 21 bd
       -0.390978 0.025154911 0.05358549 -0.0395506
000300 22 8e bf 3c 13 4f 05 bd 17 1a 00 bd 81 0e 23 3e
       0.023383204 -0.032546114 -0.03127488 0.15923502
000310 8c 00 4f be ba ed 89 bd 05 92 e5 3d 67 98 0f be
       -0.20215052 -0.06734796 0.11209492 -0.1402298
000320 74 3d 1d 3e 7d 2a 4a 3d 88 50 ac bd dc 1d fd 3d
       0.15355474 0.049356926 -0.084137976 0.12359211
000330 d9 b5 b1 bd e9 12 78 3b 90 9e 4b ba 46 8a 06 be
       -0.08677263 0.0037853068 -0.0007767463 -0.13138685
000340 67 88 01 be 55 f8 86 bd d1 e1 59 3d f9 72 71 be
       -0.1264969 -0.06590334 0.05319387 -0.23579015
000350 e8 66 ba bc cf 1d 4f 3d e7 2e b5 bb 40 c1 a6 3d
       -0.022754148 0.050565537 -0.005529273 0.08142328
000360 13 2b ed 3d 64 d4 29 3c 88 93 2f bd ce 7e 4b bd
       0.115804814 0.010365579 -0.042865306 -0.049681477
000370 b9 8a 85 bd bc cd 5f 3e bd c2 4b be 3b 37 54 3c
       -0.065206 0.21855825 -0.19898506 0.012952621
000380 e0 dc 14 3e 11 a0 60 3d c0 c4 1f be 2a ab 89 3d
       0.14537382 0.05484015 -0.15602398 0.067221
000390 df a6 0b be d7 9a e7 bb 39 e5 8d be bc 45 26 3e
       -0.13637875 -0.007068019 -0.27713946 0.16237539
0003a0 4e 14 1d be 4b cc c7 bd 54 32 b1 3d cc 98 59 3e
       -0.15339777 -0.09755763 0.086521775 0.21249694
0003b0 1c 64 03 be fe d0 01 3e 88 38 e6 bd ba dc 46 be
       -0.12831157 0.1267738 -0.11241251 -0.19420138
0003c0 26 4e f6 bb 74 d0 0d 3d ed 86 97 3e 25 6f 3b be
       -0.0075166402 0.034622625 0.29595128 -0.18304117
0003d0 7b 69 cf bb e8 f6 60 3d 1d 92 d8 bd 8e 72 86 bc
       -0.006329713 0.05492297 -0.10574744 -0.016412046
0003e0 bf 0f 8c 3b ee 03 8e 3e ab 71 13 3e f2 73 bc 3c
       0.004274338 0.27737373 0.1439883 0.023004506
0003f0 b0 69 23 3e f9 f3 61 be 36 cc d8 3d 28 b6 92 bd
       0.15958285 -0.22065724 0.10585825 -0.0716365

conv2.bias f4 [8]
000000 de db 90 bd 20 61 99 bb 5b db 74 bd 76 4a 76 bd
       -0.07073186 -0.0046807677 -0.059779506 -0.060129605
000010 02 22 d7 bc d1 00 2d bd 3b d0 db bc e3 16 6a 3b
       -0.026261333 -0.042237107 -0.02683269 0.0035719208

lin.weight f4 [256, 648]
000000 99 07 2f 3d 77 1f aa 3d 69 d8 de bb a1 a9 08 3b
       0.042731855 0.08306783 -0.0068007004 0.002085306
000010 3a 05 b6 3c 9a 70 c9 3d 12 1a 09 bd f4 5f a5 bd
       0.02221929 0.0983593 -0.03347213 -0.08074942
000020 fe 0b ae 3d 08 cb 7b 3d 8c 8c db 3c c7 8f dc bb
       0.08498381 0.061472923 0.026800416 -0.006731007
000030 78 b3 9f bb 0a 04 30 3c 0e fa 9b 3d 4b 57 c8 bc
       -0.0048736893 0.0107431505 0.076160535 -0.024455687
000040 a2 94 cc bc 54 07 da 3d 38 29 9f 3a 82 19 21 bc
       -0.024973217 0.10645929 0.0012143021 -0.009832742
000050 e5 04 d1 bd 6a d5 e7 3c b4 05 21 3d 0b db 5d bc
       -0.10206012 0.028300006 0.03931208 -0.013540993
000060 cc 3e 78 bc b9 83 8b 3d f7 75 f3 bc 17 cb 38 3d
       -0.015151691 0.068122335 -0.029719336 0.045115557
000070 f8 17 d2 3b 0a 7f 57 bd 20 ef ff bc ba cb 16 3c
       0.0064115487 -0.05261139 -0.031241953 0.009203846
000080 69 74 d1 bc e8 c1 1a bc 98 cc b2 3d e5 72 77 3d
       -0.025568204 -0.009445645 0.087304294 0.060412306
000090 30 81 70 bb 34 04 a9 3c 34 14 07 bc 1c 4d 02 3e
       -0.0036698096 0.020631887 -0.008244563 0.12724727
0000a0 84 bd 77 3d b0 23 ed 3c da a3 0f bd 8a d0 07 3e
       0.06048347 0.028947681 -0.03506837 0.13263145
0000b0 b1 2c c0 bc 3c be 2d 3d 39 00 10 3a 2f 0d 09 3d
       -0.02345881 0.04241775 0.0005493197 0.03345984
0000c0 17 4b 99 bd a6 9d cd 3c f5 49 84 3c d5 b2 10 3d
       -0.074850254 0.025099587 0.016148547 0.035326798
0000d0 c4 5c 66 3d ad 78 b4 bc 0f 57 94 bd 37 ea d0 bd
       0.056240812 -0.022030199 -0.072431676 -0.10200923
0000e0 09 10 9e 3d eb b2 a2 3d 74 ec eb b9 1d ad b2 3d
       0.07717902 0.07944282 -0.00044998864 0.08724425
0000f0 3f 09 20 bd 48 3a 90 bc a4 ca 27 3c 02 20 49 bc
       -0.039071318 -0.017605916 0.010241184 -0.012275698
000100 10 95 c1 3d 38 08 05 3e a9 aa c3 3c b5 73 b0 3d
       0.094522595 0.12991416 0.023885088 0.08615819
000110 e6 4c 00 bb 09 a6 ab bc 4b 24 0e bb 75 d1 15 3c
       -0.0019577085 -0.020953195 -0.0021689113 0.009144177
000120 45 52 ff bc 41 48 20 bd e3 20 ed 3a 9e 60 cd bd
       -0.031167159 -0.039131407 0.0018091466 -0.10028194
000130 bd 35 be bd ab 5c 52 3d 07 b0 e8 bc 56 45 3e 3d
       -0.092875935 0.051357906 -0.028404249 0.046452843
000140 24 b9 15 3d 67 c6 5a bd 1c 0f 07 bd b6 5b 21 3d
       0.036553517 -0.053411867 -0.032973394 0.039394103
000150 43 af 84 bc 88 f7 49 3d 4d a1 b8 bb cd 1d 1e 3d
       -0.016196853 0.04930833 -0.005634463 0.03860264
000160 19 a8 15 3d 85 16 66 bd dd 4f 74 bb 7c 27 a7 bc
       0.036537264 -0.05617382 -0.0037279048 -0.02040457
000170 35 f2 b5 3d fc 04 c7 bc 88 56 a6 3d 42 be 6c bd
       0.08884088 -0.024294369 0.08121973 -0.05779863
000180 56 e0 09 bd 6f df c6 3d ec 3f 24 bd b0 cf 95 3c
       -0.03366121 0.09710585 -0.040100023 0.01828751
000190 7c 05 1a bb 3a 1d 57 bd fe dc 51 3d 7b 8e 36 bd
       -0.0023501804 -0.052518107 0.051236145 -0.044569474
0001a0 92 0a 18 3e 5a 9b 5d bd 8f f4 84 3d a3 e3 8f 3d
       0.14847782 -0.054103233 0.06491958 0.0702584
0001b0 5e 97 2e bd d5 43 13 bd 05 12 70 bd 8a 67 27 3d
       -0.042624824 -0.03595336 -0.058610935 0.040870227
0001c0 f0 f8 0a bd e5 95 36 be bf 28 84 bd 4f 80 1f bd
       -0.03392881 -0.17830618 -0.06453084 -0.038940724
0001d0 43 96 db bc 3c ec 34 3d d3 9e 27 3d 5a 66 49 3c
       -0.026805049 0.044170603 0.04092295 0.012292469
0001e0 06 4a 05 3d 45 ae 4c 3d b4 7f 25 bd 99 15 2e bd
       0.032541297 0.049970884 -0.04040499 -0.042501066
0001f0 1a 00 93 bd 04 a7 d8 bb db 8d a3 3d 8f ba 69 bd
       -0.07177754 -0.0066117067 0.07986041 -0.05706268
000200 87 14 5b 3a a4 ec 97 bc 51 a9 8a bd 9d 9c 02 be
       0.0008357246 -0.018545456 -0.06770576 -0.12755056
000210 ea 71 27 bd 88 29 f1 bc 0f 02 ae 3c 90 cc 4d 3c
       -0.04088012 -0.029438749 0.021241216 0.0125609785
000220 7f a0 ca 3c 87 2f f9 3a e9 40 9c bc c2 04 01 3c
       0.024734734 0.0019011357 -0.01907392 0.0078746695
000230 01 b1 92 bd fb 61 b8 3d c0 3a 41 3d a1 3d c0 bd
       -0.07162667 0.09003063 0.04717517 -0.09386755
000240 df 58 27 3d 5b 46 77 3d 1c 57 43 3d 3e 62 8b 3d
       0.04085624 0.06036983 0.047690496 0.068058476
000250 d7 1e 46 3b 2c 17 57 bd d8 50 8c 3a 74 cb c0 bd
       0.0030230784 -0.052512333 0.0010705246 -0.094138056
000260 c1 d0 11 3d ee dd 90 bc 1c 7e ae 3d 37 aa f3 bc
       0.035599474 -0.01768395 0.08520147 -0.02974425
000270 34 2d 18 3d 86 e0 c7 3a 27 8e 0a 3d e2 30 e7 bd
       0.037152484 0.0015249408 0.033826973 -0.112886205
000280 3c 86 9d 3d ca 4f 85 bd 88 ec 5b 3d af 7d 42 3d
       0.07691619 -0.06509359 0.05369237 0.047483142
000290 dc ea 13 bd fa ae 89 3d 21 f6 89 bd 63 cb 50 3d
       -0.03611265 0.06722827 -0.067363985 0.050975215
0002a0 17 9d df 3b 78 1a 2f bd 52 f0 28 3e f9 80 7b bb
       0.0068241465 -0.042749852 0.16497925 -0.0038376434
0002b0 5b 71 2b 3d 96 cc fd 3c cc 94 6d bd a1 95 18 3c
       0.04185615 0.030981343 -0.058003232 0.009313018
0002c0 f7 1b 0d bd b5 8d bb 3b 3e 00 99 bc a3 0c 8e bd
       -0.034450497 0.00572368 -0.018676873 -0.06936004
0002d0 a9 ec 89 bb 78 58 89 3c 37 2c e2 bd 86 d4 8b 3c
       -0.0042091203 0.016765818 -0.110435896 0.017069113
0002e0 52 4f 83 bb 6c de 6f 3c 1b 96 95 3d 50 ba 57 3d
       -0.0040072585 0.014640432 0.07304021 0.052667916
0002f0 a8 55 fe bd 12 98 c0 bc 57 85 0d 3d e5 e7 39 bd
       -0.124186814 -0.023510013 0.03455099 -0.045387167
000300 07 43 69 3c 67 9d a8 3d de 78 30 be fe 6b b7 bc
       0.014237172 0.08233147 -0.17233607 -0.022390362
000310 ff dc c6 3d 76 97 4f 3d 01 2c a1 bc d8 dc b0 bd
       0.097101204 0.050681554 -0.019674303 -0.086358726
000320 de b8 55 3d 88 9a 99 bd 70 6e 68 3b 56 ac 82 3d
       0.052178256 -0.075001776 0.0035466217 0.06380527
000330 dc 92 37 3b fc 87 5a 3d cb ed 58 bd cd c9 97 bc
       0.002801112 0.05335234 -0.052961152 -0.018528843
000340 00 e2 06 bb 05 a4 c2 bd 70 80 24 bd 81 03 4b 3c
       -0.0020581484 -0.095039405 -0.04016155 0.012390972
000350 7a d2 ce bc d6 fa 92 bc 92 df 3d 3d a4 ba f1 bc
       -0.025246847 -0.017941874 0.04635579 -0.029507942
000360 62 12 43 ba dc ad b5 bc 30 10 a5 3d a4 7a 1f 3d
       -0.0007441399 -0.02217763 0.08059728 0.03893532
000370 1f 81 9a 3c 1d ca c3 3d 45 1f 02 bd e6 7a d3 bc
       0.018860398 0.095600344 -0.031768102 -0.025815438
000380 d8 62 f5 3c 4e 6d 0e bc ab e8 b3 bd bc 4a ac 3d
       0.029954359 -0.008693052 -0.08784612 0.08412692
000390 b0 64 f0 bc 81 55 26 3d da e3 45 bb 59 28 61 3d
       -0.029344887 0.040608887 -0.0030195625 0.05497012
0003a0 5b f8 43 3d a4 eb 63 bc 92 b7 43 3d f4 13 a4 bc
       0.047844272 -0.013911162 0.04778249 -0.020029046
0003b0 96 c0 75 bd 94 20 1b bd f9 48 93 3c 4a 99 d6 3c
       -0.059998117 -0.037872866 0.017979132 0.02619614
0003c0 b1 fd 1a bd 4d 84 49 3c 08 fb 18 3d 6c b0 83 3d
       -0.037839595 0.012299609 0.037348777 0.06430134
0003d0 d7 35 c4 bc 6b 7d ce bc 9f 42 fc bb 42 4c e7 bd
       -0.023951454 -0.025206288 -0.0076983715 -0.11293842
0003e0 9b dd 7b 3d 58 f7 bb 3c 23 39 48 bd a5 07 00 bc
       0.061490636 0.022945091 -0.048882615 -0.007814323
0003f0 20 90 c5 bd 3b 15 81 bd b8 be 3a bd 97 2e d1 bc
       -0.0964663 -0.063028775 -0.04559204 -0.025534911

lin.bias f4 [256]
000000 fe 42 9b 3c b8 52 c7 bc 2a f7 05 bd 35 15 80 bc
       0.018952843 -0.024331436 -0.032706417 -0.015635112
000010 89 f3 3b 3c f4 87 1c bd 43 bc fa bc 5f cb cb bc
       0.0114716375 -0.038215593 -0.030607348 -0.024877248
000020 ee 9f 8a bb 70 1d fe 3c bb ed a1 3c 5f bf a1 3b
       -0.004230491 0.031019896 0.019766679 0.0049361433
000030 fd c1 f8 bc 83 50 d6 3b 06 b8 05 bd 96 c2 c7 3b
       -0.030365938 0.0065403595 -0.0326462 0.0060961945
000040 19 d7 5c bb 49 dc 70 3b 9e c1 32 3c 7c f7 ff bc
       -0.0033697544 0.0036752394 0.01091042 -0.03124594
000050 bb be 7e 3c 44 ed aa 3c bf 49 8c 3c 13 29 33 bc
       0.015548403 0.02086509 0.017125009 -0.010935086
000060 d6 ae ac 3b 6f 4d 04 3d 87 a6 26 3c 2d f3 e2 3b
       0.0052698655 0.03230041 0.010171539 0.0069259615
000070 e1 fb 11 3d 4b 39 fc 3c a0 0f 06 3c 74 5c 84 3b
       0.0356406 0.030789038 0.008182436 0.0040393416
000080 76 4b 83 3c c9 16 80 3c 37 a7 fc 3c 91 90 07 bd
       0.016027194 0.015635865 0.030841453 -0.033096854
000090 61 46 ee 3b 8f a4 58 bb aa 05 a1 3c 8b b5 9b bc
       0.0072715734 -0.003305707 0.019656021 -0.019007465
0000a0 8a 67 23 bb 13 08 5e bc 28 5b 1c 3d bf 7a d8 3c
       -0.002493354 -0.01355173 0.03817287 0.026425717
0000b0 7d 50 c5 bc 72 8b 06 bd 5e 92 f8 bc 10 66 f2 bc
       -0.024086231 -0.03284783 -0.03034323 -0.029589683
0000c0 0d e5 1e 3d a7 a8 01 3d ee bf 6b 3c da 3d 6d bb
       0.03879266 0.03165498 0.014389021 -0.0036200196
0000d0 3d a8 97 3c 12 e0 cb bc c7 88 92 bc 06 cf d5 3c
       0.01851284 -0.024887118 -0.017887486 0.026099693
0000e0 6f fa 15 bd 00 0c c3 3c 74 99 53 bc 4a ef 9b bc
       -0.036615785 0.023809433 -0.012915004 -0.019035
0000f0 9e 76 22 3d 12 32 80 ba 78 3d 94 3c de fd 54 3c
       0.039663903 -0.0009780547 0.018095717 0.01299998
000100 61 c2 13 bd 09 c7 0c 3c 26 d6 93 3a 47 25 72 bb
       -0.036074046 0.008592376 0.0011279031 -0.0036948489
000110 ad d2 09 3d 4d 89 e6 3c 2d 97 18 bd 83 dc 59 bc
       0.03364818 0.028141642 -0.037253547 -0.013297203
000120 bf 14 87 3c 95 54 a1 ba 47 0a 83 bc b7 09 42 bb
       0.016489385 -0.0012308533 -0.015996112 -0.0029607841
000130 85 d2 7a 3c e8 f2 0b bd e6 84 ba 3b de 97 72 3c
       0.015308981 -0.0341672 0.0056921123 0.014806716
000140 80 87 58 3c a0 18 e1 bb c4 77 09 3d d0 ad 3a bc
       0.0132158995 -0.0068693906 0.033561483 -0.011393979
000150 82 96 ca bc 65 08 1f 3d 60 ee 0d bb 36 82 f0 3c
       -0.02472997 0.038826365 -0.0021656975 0.029358964
000160 37 7f 15 3d 55 0a 9e bc ae 20 5f 3c ac f5 8e 3c
       0.036498275 -0.019292036 0.013618631 0.01745113
000170 36 e2 16 bd b4 ba b7 bc 20 0c d4 3c 36 fe 08 bd
       -0.036836825 -0.022427894 0.025884688 -0.03344556
000180 4f 2b f3 bc 57 60 91 3c 61 74 d3 bb 7b 40 cf 3c
       -0.029683737 0.017746134 -0.0064530824 0.025299301
000190 78 0f 61 3a 81 fa 0e 3c 3c 48 1c bd ec 21 ff bc
       0.0008585374 0.008726717 -0.038154826 -0.031144105
0001a0 91 57 25 bc d7 af 84 bb 51 e1 f9 3c fa c2 0d 3d
       -0.010091678 -0.004049282 0.030502947 0.034609772
0001b0 38 58 a2 bc 64 0c 91 3c a9 79 23 3c 33 2e fa bc
       -0.019817457 0.017706104 0.0099777365 -0.030539608
0001c0 d4 8d a8 3c 9e b3 0c 3d 4b 99 c4 3c 4c 56 e2 3c
       0.020575441 0.034350984 0.023998877 0.02762904
0001d0 4e aa b2 3c ca cb 2f 3c 1a 0a 1e 3d dc f0 28 3c
       0.021809723 0.010729739 0.038583852 0.010311332
0001e0 cd cb 8a 3a 77 0a 76 3c 28 ad b2 3c be 83 ac bc
       0.0010589302 0.015017143 0.021811083 -0.021058913
0001f0 72 eb f0 bc 88 c0 bc 3c 07 fd 6a bc c9 79 81 bc
       -0.029409144 0.023041025 -0.014342553 -0.015805142
000200 d8 d9 13 bd 59 95 cb bc bd a4 e7 bc 09 b1 08 3d
       -0.036096424 -0.024851488 -0.028276796 0.03337196
000210 73 b7 6a bc 08 cf fd 3c cf 2e 10 bd 95 8e 5f 3c
       -0.014325964 0.03098251 -0.03520089 0.013644834
000220 60 4b 5d bc 22 51 1c 3a 27 bc 19 3c aa 2d 0e 3d
       -0.01350674 0.00059630175 0.009383238 0.034711517
000230 a8 1c 3c bc 97 3e c8 3c df cd 93 bc b6 dd df 3b
       -0.011481442 0.024443908 -0.018042503 0.00683185
000240 69 e6 13 3d 33 34 49 bb 85 80 1f bd 19 31 8a 3c
       0.036108408 -0.003070128 -0.038940925 0.016869115
000250 95 39 39 3b f0 79 93 3c 77 7b 62 bc 72 fa ca bb
       0.0028263081 0.01800248 -0.013823382 -0.006194406
000260 d7 14 9b bb a3 6c 75 3c ce f2 68 bc cf 8c 93 bc
       -0.004732709 0.014979514 -0.014218045 -0.018011479
000270 01 0c 0b bd 9e 63 7d bc f9 70 09 bd bb 78 c2 3c
       -0.033946995 -0.015465645 -0.033555005 0.02373921
000280 ae f7 57 bc 37 1a 12 3d 01 64 89 bc 90 24 09 bd
       -0.01318161 0.03566953 -0.016771318 -0.033482134
000290 2a 53 8a 3c 1c 4b 45 bc f5 47 16 3d 8c df 04 3d
       0.016885359 -0.012041833 0.036689717 0.032439753
0002a0 2c 55 a1 3b 27 af 64 bc 03 5e d8 3b 48 3a 0f 3d
       0.0049234834 -0.013957775 0.006603004 0.03496769
0002b0 10 28 17 bc ab d8 88 3c 9a 60 20 ba 9f 17 b0 3a
       -0.00922586 0.016704878 -0.00061179104 0.0013434774
0002c0 f7 2d bc bc 03 fe 16 3c ab 39 ae bc 49 b6 2f 3c
       -0.022971136 0.009215835 -0.021267733 0.0107246125
0002d0 15 e8 8e 3c a8 d2 be 3c d5 6b 1b 3d 5e f3 27 bc
       0.01744465 0.023293808 0.037944634 -0.010250894
0002e0 50 a2 41 3c 5d 91 81 bb fc 58 cc 3b 1c 8f 1d bd
       0.0118184835 -0.003954096 0.0062361937 -0.038466558
0002f0 da 65 13 bd 00 1a e7 3b 04 dc 65 3c ba 8d 02 bd
       -0.035985805 0.00705266 0.014029507 -0.031873442
000300 96 67 27 bc 4d d6 9d 3c 74 c4 86 3a 4d 6d 90 3c
       -0.010217568 0.019267226 0.0010281936 0.017630244
000310 d8 e0 6b bc 39 14 cd bc be a8 63 bc c9 72 21 3c
       -0.014396869 -0.025034057 -0.013895212 0.009854027
000320 63 8b 9f 3a 4d 3b 81 bc 80 50 e8 3b 59 e7 e2 3c
       0.0012172278 -0.015775347 0.0070896745 0.027698206
000330 21 b3 96 b9 b7 28 8a 3c 7a 47 ff 3c a4 38 07 bd
       -0.0002874369 0.016865117 0.031162012 -0.033013
000340 d4 53 ae bc 6d 83 81 bc e7 71 eb bb 1f 08 8a 3c
       -0.021280207 -0.015809739 -0.007185209 0.016849576
000350 94 21 7a bb ab 97 14 bd e4 f4 25 bb 5c fd a6 3c
       -0.0038166987 -0.036277454 -0.0025322968 0.020384483
000360 46 df ff bb 35 e7 a4 bc 78 f7 04 bd 9e d4 66 3c
       -0.0078085987 -0.02012978 -0.032462567 0.014088778
000370 8c a8 bc bb e7 62 87 3c dd 59 5a bc 9a 1e 21 bd
       -0.005757397 0.016526653 -0.013327089 -0.039335825
000380 e7 1c 11 bd 12 b4 be 3c 5a f5 f6 3c 6b a6 01 3d
       -0.035427954 0.023279224 0.03014629 0.03165285
000390 46 f8 fa 3c 36 38 4a bc 50 12 8c 3b 15 f8 aa bc
       0.030635964 -0.012342503 0.004274644 -0.020870248
0003a0 04 52 f1 bc 98 46 05 bd 45 83 58 bc 3a ff 09 bd
       -0.029458053 -0.032538027 -0.013214891 -0.03369067
0003b0 43 99 77 ba d8 28 b1 bc 07 9f 17 3d 14 7d 06 3c
       -0.000944514 -0.021625921 0.037016895 0.008208532
0003c0 f6 31 02 bd b1 4f 8f bc 6d 3d 03 bb 0c 11 84 3c
       -0.031785928 -0.017494055 -0.0020025626 0.01612141
0003d0 e1 33 e8 3c e9 98 50 3c f7 0a ff 3c 1d d2 47 bc
       0.02834505 0.012731769 0.031133158 -0.012196091
0003e0 0e f6 1c bb e6 9c 0c bd 2b 20 c3 bc ef 60 a3 bc
       -0.002395037 -0.034329318 -0.02381905 -0.019943682
0003f0 9e 2d 66 3b ca 56 d2 bc 32 66 f5 3c 77 b6 e8 bc
       0.0035122405 -0.02567615 0.029955957 -0.028407319

pi.weight f4 [6, 256]
000000 c3 db 1a 3b b6 b0 05 3a 39 93 7c bb 45 fa 7e 3a
       0.0023629523 0.00050998793 -0.00385399 0.0009726624
000010 28 76 10 3b 75 13 e8 39 99 6d dc 3b 35 16 8a 3b
       0.0022043083 0.00044264985 0.0067269322 0.004214073
000020 97 81 aa 3b 71 59 f8 3b d9 0f be 3a 3c 49 74 3b
       0.0052034366 0.0075790216 0.0014500573 0.0037275096
000030 66 a2 f1 ba 09 62 82 bb ea 64 46 3b 28 be 0f bc
       -0.0018435239 -0.003978972 0.0030272552 -0.008773364
000040 0c a2 3b bc cc 8b 8b 3a e0 b2 14 3a d5 c8 4e bb
       -0.011452209 0.0010646521 0.00056724064 -0.003155281
000050 d6 02 e0 3a 65 10 49 ba 2a 92 39 bb 0c d9 da ba
       0.0017090689 -0.00076699845 -0.002831588 -0.0016696765
000060 63 08 90 ba c9 57 78 ba 79 fa 93 3b 84 24 4c bb
       -0.0010988828 -0.000947353 0.0045159427 -0.0031149695
000070 24 10 b4 3b a8 77 e7 3b f4 40 fd b9 06 91 41 bb
       0.005495088 0.0070638247 -0.00048304314 -0.0029535904
000080 83 b4 fe bb e2 b5 db bb 21 41 57 3c ca e2 90 bb
       -0.0077729835 -0.0067050317 0.013138087 -0.0044215666
000090 4e fd 29 3b 9e fe 84 3b 82 a2 62 3c bd 01 36 ba
       0.0025938335 0.004058673 0.01383269 -0.0006943008
0000a0 b9 a7 f1 3b bc a3 b5 3a b0 04 83 3b 28 0c 0b 3c
       0.0073747304 0.0013858001 0.0039983615 0.008486785
0000b0 4c 59 1c bb 03 2c 6d bc 40 92 be bb 7f aa 85 bc
       -0.0023856936 -0.014475825 -0.005815774 -0.01631665
0000c0 95 41 7d 3b 9f f8 bb 3a e0 f0 f7 bb c2 98 7b 3b
       0.0038643826 0.0014341063 -0.0075665563 0.0038390611
0000d0 38 34 38 38 69 c3 c4 ba 03 e6 f1 bb 07 9f 93 bb
       4.391765e-05 -0.001501185 -0.007382156 -0.0045050415
0000e0 9b 20 19 3b a2 2c c1 3b 53 39 8a 3b 55 c3 ea 3b
       0.0023365382 0.005895213 0.0042182594 0.0071643987
0000f0 c1 02 8f 3b 17 fa 11 3b e4 bb 95 3b ce 9e f1 3b
       0.004364342 0.002227431 0.0045695174 0.0073736673
000100 e3 b1 08 bc 4e 08 96 ba b9 55 4f 3c 76 7d 90 ba
       -0.008343193 -0.0011446567 0.012654715 -0.0011023718
000110 f9 c8 f1 bb 37 c2 70 3a df 56 cd bb 7a 4d d7 3a
       -0.007378694 0.00091842137 -0.0062664594 0.0016426288
000120 89 ba c9 3b 00 98 2e ba 68 e2 dd b9 37 0a db bb
       0.00615627 -0.0006660223 -0.0004232109 -0.0066845673
000130 16 9a df bb 67 97 2f bc af 72 6d bb 7e 7f 8e bb
       -0.0068237884 -0.0107172495 -0.0036231687 -0.0043486943
000140 62 f7 86 3b 5b 2b b5 3b 59 b0 1f bb cc 61 34 3b
       0.004118846 0.00552885 -0.0024366586 0.0027524112
000150 9d e4 f7 b9 d0 3a 85 3b 82 88 d7 3a c9 bd 75 bb
       -0.0004728184 0.004065849 0.0016443881 -0.0037497154
000160 48 83 37 bc e6 b1 cd 3a a9 30 01 3c 59 6c 15 3c
       -0.0112007335 0.0015693277 0.007885137 0.00912007
000170 51 f7 a1 3b 31 a3 2a 3c 39 a5 85 3c 23 e6 07 bc
       0.0049428125 0.010414884 0.016314136 -0.008294615
000180 42 e3 56 3a 69 d5 b4 3b 19 14 e5 bb f5 fd 1f 3a
       0.0008197316 0.0055186045 -0.006990921 0.0006103211
000190 8c 82 04 3c 9b 6f 8d 3a 3e f7 87 bb 99 fd 9a 3a
       0.008087765 0.0010790707 -0.0041493466 0.0011824846
0001a0 a5 2e 6d bb 0f 82 da 3b f6 a8 14 bc 91 ff df bb
       -0.0036191132 0.006668336 -0.009073487 -0.006835886
0001b0 17 14 04 bc 2c 35 52 ba 0c 1f 94 bb 1c e4 17 3b
       -0.00806143 -0.00080187875 -0.0045203026 0.0023176735
0001c0 1d 38 49 bc b9 2f 3b bc 78 cb 22 bc b3 23 81 bb
       -0.012281445 -0.011424952 -0.009936206 -0.0039410233
0001d0 34 78 00 3c 43 8f 2d b9 1b 8a fe 3b 59 ce ad bb
       0.007841159 -0.00016551935 0.0077679283 -0.0053041396
0001e0 11 ac d7 bb 76 68 05 3b 54 0f 63 bc 44 85 13 3b
       -0.006581791 0.0020356453 -0.013858635 0.0022509852
0001f0 f3 36 36 3c 82 a5 bd 3b 15 a9 fa ba 6d d1 36 bb
       0.011121499 0.0057875523 -0.0019123877 -0.0027895824
000200 df f9 a6 bb b7 af 15 bb a2 84 7d bc f3 ea cb 3b
       -0.005095705 -0.002284033 -0.015473517 0.0062230765
000210 24 7d 61 3b ab b5 b2 3b 6e 6e c0 bb 3c b4 98 bb
       0.0034406865 0.0054537854 -0.0058725392 -0.0046601575
000220 7e 2f 2a 3b 13 48 1c 3c 21 82 3a 3b 5f 05 ca bb
       0.002596825 0.009538668 0.002845891 -0.006165191
000230 eb 15 d7 3b e9 d0 01 bb a2 82 2f 3b 97 f5 c0 3a
       0.006563892 -0.0019808358 0.0026780744 0.0014721629
000240 40 2d 7e bb 11 44 da 3a 82 5c ec 3b 09 ea d1 bb
       -0.0038784295 0.0016652365 0.007213176 -0.006406073
000250 57 8c 6b bb f4 8c 13 3c f3 06 bb 3b 0a ce 28 3b
       -0.0035941803 0.009005774 0.0057076155 0.0025757574
000260 3c 46 91 3c 18 8d 74 bb c1 31 7a 3a c6 9a d1 3b
       0.017733686 -0.0037315544 0.0009544157 0.0063966243
000270 06 b2 e9 39 16 50 33 bb c9 81 ca bb 49 81 07 3b
       0.0004457386 -0.0027360967 -0.0061800224 0.0020676425
000280 a4 11 03 bb 3b d0 30 3a 45 82 1d bc c4 6d ff 3b
       -0.0019999528 0.0006744896 -0.009613578 0.0077950675
000290 cf 75 21 3c 9b 07 d5 3b ba b0 e4 3b 56 c5 80 bb
       0.009854748 0.006501151 0.0069790753 -0.0039297743
0002a0 1c 15 e1 3b dd a2 01 bc 86 6c c4 3a 56 69 03 bc
       0.0068689715 -0.007912365 0.0014985956 -0.0080207195
0002b0 2e a7 fd 3b 4f dc 94 3b 38 d7 08 3c d8 76 4d 3a
       0.0077408766 0.0045428644 0.008352093 0.00078378385
0002c0 ff dd ee ba 8c 0f 0c bc a6 7a b4 b9 d5 22 16 3c
       -0.0018224119 -0.008548629 -0.00034423656 0.009163578
0002d0 a6 cf bd bb 7a 84 08 3c c9 2d 7d bb cf 0a a4 3b
       -0.005792576 0.008332366 -0.0038632026 0.0050061713
0002e0 ba 9e e2 3b 9a 36 5d bc da ad 67 bb 05 5b c5 bb
       0.0069158943 -0.013501788 -0.0035351426 -0.0060228133
0002f0 50 01 fc 3b 20 83 d8 bb e2 2e 58 3a 6b b2 11 b9
       0.007690586 -0.006607428 0.0008246732 -0.00013894743
000300 88 a9 a9 bb 59 dc 40 bb 2a 52 36 bb b5 71 5f bb
       -0.0051776804 -0.0029428212 -0.002781997 -0.0034094874
000310 7c 92 bf bb 1a d0 b2 3b 47 36 90 3b f6 e9 4d bb
       -0.0058463197 0.0054569365 0.0044010016 -0.003141997
000320 79 6d 47 bb 5c 5d 8a bb ad f6 03 3c b8 8c 9a 3b
       -0.003043024 -0.004222555 0.008054418 0.004716482
000330 8d 44 4d 3c c7 91 2d 3b cb 15 92 3b 10 b3 f8 ba
       0.012528551 0.0026484595 0.0044581643 -0.0018974263
000340 dd 36 b3 ba 74 82 d8 bb 3b 67 39 3c 03 b7 8f 3b
       -0.0013672967 -0.006607348 0.011316116 0.0043858304
000350 15 eb 93 ba 3f 74 bd ba fa d9 37 bb 6a c8 e5 ba
       -0.001128527 -0.00144542 -0.0028053508 -0.0017531042
000360 43 b9 5b 3c 07 74 e8 3a 14 0f 31 bb 44 14 17 bc
       0.013410869 0.0017734774 -0.0027017044 -0.00922114
000370 37 d2 e5 3b 6d 55 3a 3c 92 21 13 bb 90 bb 2d bb
       0.007013585 0.011372906 -0.002245043 -0.00265095
000380 38 56 48 3a 67 66 2f bc ab b8 04 bc 1d 25 be 3b
       0.0007642242 -0.010705567 -0.008100669 0.005802764
000390 ee eb 80 3b 2e ee a5 bb 0a c7 11 bc 29 79 0a bb
       0.003934375 -0.0050637936 -0.008897552 -0.0021129346
0003a0 ba ec 62 bb 87 0a 7a bb 05 76 24 3c e4 e0 cc ba
       -0.0034625963 -0.0038153247 0.010037904 -0.0015630987
0003b0 2c d6 02 3c a5 18 26 bc 71 96 29 bc 47 79 8d ba
       0.007985633 -0.010137712 -0.010350809 -0.001079359
0003c0 a1 5a 59 b8 db c9 39 3b 29 d0 20 3c 80 3b 87 ba
       -5.1821236e-05 0.0028349075 0.009815254 -0.0010317415
0003d0 fc 8e 94 bb af 8c ee 3b 31 17 53 ba 7f 69 66 bb
       -0.0045336466 0.0072799544 -0.0008052467 -0.0035158095
0003e0 b6 ad 0f 3c a1 eb 21 3c f9 9e 56 bc 05 c0 ba bb
       0.008769443 0.009882838 -0.0130994255 -0.00569916
0003f0 bc 0a ce 3a 00 cc 92 bb ea 09 16 3b c5 72 fb 3b
       0.0015719752 -0.004479885 0.0022894093 0.0076735937

pi.bias f4 [6]
000000 28 e4 1e bd 7a 73 c6 bc 9a 52 10 bc 9c 64 57 bd
       -0.038791806 -0.024224985 -0.008808756 -0.052586183
000010 d5 92 2f 3d b1 ba 7a bd
       0.04286464 -0.0612132

value.weight f4 [1, 256]
000000 00 e3 05 bc 0c 53 f5 bc 14 61 b6 bc cf 61 67 3b
       -0.008171797 -0.029946826 -0.022263087 0.0035306101
000010 27 37 8f bd d0 48 2b bd db 6a 3c 3d 29 38 60 bc
       -0.06992941 -0.041817486 0.046000343 -0.013685265
000020 60 1a 69 bd 03 d8 03 3d fd ba aa 3d 23 de 65 bc
       -0.05690992 0.032188427 0.083364464 -0.014030012
000030 8b 29 45 bd 5a 5d f9 bc d2 1d 34 3c 4e a7 bb bc
       -0.04813532 -0.030440021 0.010993438 -0.022906926
000040 01 70 14 3d a8 8c 68 bc a7 2f 0d be 8e 78 0c 3e
       0.036239628 -0.014193691 -0.13787709 0.13717863
000050 58 f6 b5 bd 5a 62 fd ba 98 6d a8 bc 7f d6 61 3c
       -0.08884877 -0.0019331679 -0.02056007 0.01378405
000060 11 6b c3 3d fb 9d 59 3d 8b 4b c8 3d fa a4 a1 bc
       0.09541906 0.053129178 0.09780034 -0.019731987
000070 31 a8 b9 3c 84 a0 1a 3c f6 cd f6 3a 58 c8 93 3c
       0.022663208 0.009437684 0.0018829692 0.018039867
000080 f3 e2 34 3d cf b0 e0 3c 1e 7a 85 3d c4 fc a3 bd
       0.04416175 0.027428059 0.06517433 -0.080071956
000090 a7 5c 32 3d 86 81 62 3b a2 96 8d bc b2 f3 3b bc
       0.04354539 0.0034562065 -0.017283741 -0.011471676
0000a0 10 86 bc 3c 32 b8 fa bd 98 99 ab bd 3d 61 9b 3d
       0.023013145 -0.12242164 -0.08378905 0.07586906
0000b0 8c fb c2 3d a0 c7 39 bd 3a 0e 91 bc 0a d7 a9 bd
       0.09520635 -0.045356393 -0.017706979 -0.082929686
0000c0 b9 bd 06 be 72 bb ad 3b 8a 8a 8e bd b4 4a 49 3d
       -0.13158311 0.0053018862 -0.06960018 0.049143508
0000d0 9d 14 46 3c 6a 91 e8 bc 3a 02 16 3e ff d2 00 bc
       0.0120898755 -0.028389651 0.14649287 -0.007862805
0000e0 7f 01 ba 3b d9 ea 94 3c 94 89 bb bc 0c e4 b4 3c
       0.005676448 0.01817839 -0.02289275 0.022081397
0000f0 cc a8 48 bd 46 52 c2 3d e6 72 ac 3c 56 c7 22 3e
       -0.048989102 0.09488349 0.021050882 0.15896353
000100 c1 cf 7e 3c e3 4e 82 bd 7f 1c 9c 3d 7f 11 1c 3d
       0.015552462 -0.06362703 0.07622623 0.038102623
000110 ad 27 9f 3d 81 ea d4 3d 65 a6 1e bc 06 bb 75 3b
       0.077712394 0.103962906 -0.009683226 0.0037495508
000120 38 31 8d 3d a1 c4 a1 3d 60 88 9b bd 5c a4 a7 3c
       0.06894153 0.07898832 -0.07594371 0.020464115
000130 4b b9 a6 bd 61 88 5d 3d 1d b0 93 3d 03 1b 60 3d
       -0.081408106 0.05408514 0.07211325 0.05471326
000140 1b 23 7f 3c dc 53 47 bd 51 9d 20 3e 94 61 28 ba
       0.015572335 -0.04866396 0.15685011 -0.00064232317
000150 da b9 50 bd d3 88 c7 3c b0 5a 00 3d 73 4b 40 3d
       -0.05095849 0.024357235 0.031336486 0.046946954
000160 09 57 9f bd 74 fb ac bd c3 07 9c bd 64 f6 b8 bd
       -0.077802725 -0.084463984 -0.07618668 -0.0903137
000170 b2 52 94 bc ac cd f7 3b c2 f8 25 bd 19 da a2 bb
       -0.018105838 0.00756236 -0.040520437 -0.004969847
000180 85 18 bd bd 69 4a fa bc 06 fd 29 bd 59 8b 30 3d
       -0.09233192 -0.03055306 -0.041501068 0.043101642
000190 eb 81 89 bc e7 b6 0b be 0d 28 1f bd ed 75 cd bc
       -0.016785583 -0.1364399 -0.038856555 -0.025080645
0001a0 c7 eb ab 3a 43 3f 04 3e d3 46 82 3c 8d 83 19 be
       0.0013116532 0.12914757 0.015902912 -0.14991589
0001b0 01 77 89 bc 76 dc a5 bd 81 96 12 bd 40 ea 60 bd
       -0.016780378 -0.0809869 -0.035788063 -0.0549109
0001c0 f6 9c 17 3d 81 fb d8 3c 34 4a da bb 12 97 8e 3c
       0.037014924 0.026487114 -0.0066616777 0.01740602
0001d0 7c db 3d 3d f0 a2 98 3c 15 39 0f 3d c4 83 b0 bd
       0.046351895 0.018632382 0.034966547 -0.08618882
0001e0 fc 84 a7 3d 4d f0 11 3d 3a 09 01 bd a2 34 ea 3d
       0.08179662 0.03562956 -0.03150294 0.1143582
0001f0 cd ee 7e bd 96 de b0 3d d0 c8 d2 3c 96 b5 55 3c
       -0.062239457 0.08636205 0.02573052 0.013043782
000200 01 05 a2 3b 91 c5 df 3d a9 9d b0 bc 66 e3 91 bd
       0.004944444 0.10926355 -0.021559553 -0.07123451
000210 98 11 5e bb 37 50 ba 3d 4a fb e3 3d 66 af 69 bd
       -0.0033884998 0.09097331 0.11131914 -0.05705204
000220 ef b6 e8 bc 9e 05 84 3e 62 49 cc bd fb 4b fb bc
       -0.028407542 0.25785536 -0.09974934 -0.030675879
000230 f7 9d 1e 3d 71 04 0f 3d 2c 41 fe bc 7a e8 ac 3d
       0.038724866 0.034916345 -0.031036936 0.08442779
000240 a3 20 11 3d 02 54 53 3d 37 db 52 3c e0 bd d4 bc
       0.035431515 0.051593788 0.012869648 -0.025969446
000250 16 02 b5 3d f8 47 9d 3d e0 5d af 3d 27 80 9f 3c
       0.088382885 0.076797426 0.08562827 0.019470287
000260 b0 0d 02 be a7 3b 22 bb e9 67 32 3d a8 d2 85 bd
       -0.12700534 -0.0024754794 0.043556128 -0.0653432
000270 26 34 7d bc 38 6d a4 3d ba 6b 92 bd c5 8f 79 bc
       -0.015454328 0.08028644 -0.071494535 -0.015232031
000280 e6 66 cf 3c ad 1f 14 3d 6f 0f a9 3d e5 88 74 bd
       0.02531762 0.03616302 0.08254897 -0.059700865
000290 2d b7 da bd 18 27 13 bd e6 04 31 bc 48 2b b4 bd
       -0.10679469 -0.035925955 -0.010804391 -0.08797318
0002a0 1f 0b 43 bd 37 36 f9 3c a1 47 b1 3c a0 74 bd bc
       -0.047618028 0.03042136 0.0216406 -0.0231269
0002b0 e4 91 ae bd ed ca b6 bc 71 a3 20 3d 03 13 11 bd
       -0.0852392 -0.02231356 0.03921837 -0.03541852
0002c0 4e ef cc 3d 78 bf 4a 3d b5 94 12 3d 3d 44 9a 3d
       0.10006581 0.049499005 0.03578635 0.07532547
0002d0 82 3e bf bc 15 b6 fc ba c7 be 3c bb a9 8a c0 3c
       -0.023345236 -0.0019280339 -0.0028800236 0.023503618
0002e0 40 60 11 bd 2a dc bd bc 29 c5 0a bd 01 7a 89 3d
       -0.03549218 -0.023176271 -0.033879433 0.067127235
0002f0 b0 97 56 bd 35 d5 7a bd 13 6b ab bb 76 17 44 bd
       -0.052390754 -0.061238486 -0.00523127 -0.047873937
000300 30 bf ca ba 42 02 91 bd c6 e7 92 bd df e4 46 3c
       -0.0015468355 -0.07080509 -0.071731135 0.012139528
000310 2e 22 d4 3d b0 8f b8 3d d1 62 34 bc ee 9a b3 3d
       0.10358082 0.09011781 -0.011009888 0.08769785
000320 1a 4b 20 bd 19 b7 8d bd 0a 36 e1 3d 94 68 85 3c
       -0.039134122 -0.06919689 0.10996635 0.016285218
000330 2e d6 e5 bc fb 03 07 3b 53 0e 42 bd 2b 7a 87 bd
       -0.02805623 0.0020601738 -0.047376942 -0.066150986
000340 95 48 fa bc 98 e6 c6 3d 0c 5f 2e 3d 8a ff 5b 3b
       -0.030552188 0.09711951 0.042571113 0.0033569061
000350 1e 12 2c 3d 13 f0 15 3e ce 60 23 bc 74 c6 99 bb
       0.042009465 0.14642362 -0.0099718105 -0.004692847
000360 55 c5 80 3c b2 a3 4d 3d 6b d9 cd bd 8b 3d 67 bd
       0.015719095 0.05020494 -0.10051235 -0.056455176
000370 1c 11 b3 3d 99 23 a9 bd 27 94 e7 3c 0c 5d e6 bb
       0.08743498 -0.08258743 0.028268887 -0.007030135
000380 8b 4e 2d bd 40 33 b1 bc 25 fb 5d bd b0 e2 fc 3a
       -0.042311233 -0.021630883 -0.05419459 0.0019293632
000390 6c 03 e0 3c c5 11 b2 bd 0b aa ab bd 2e 06 ad bc
       0.027345382 -0.086947955 -0.083820425 -0.02112111
0003a0 ab ed 84 bd 6e 08 15 3d 1c d0 11 bd 2f 35 6e 3b
       -0.06490644 0.036384992 -0.03559886 0.0036347618
0003b0 5d b1 6f 3d f3 70 3d bd 66 6e a1 bd 89 98 50 3d
       0.058518756 -0.046250295 -0.07882385 0.05092672
0003c0 ef ff 8f bc 56 36 a5 bd ee 25 43 3d 63 d1 f9 3b
       -0.017578093 -0.080670044 0.047643594 0.007623838
0003d0 6d 56 3a 3d 66 65 bb 3c 6f 37 05 3d c5 2a e0 3d
       0.04549258 0.022875499 0.03252357 0.10945658
0003e0 de 50 5b 3c 5e 76 9d 3d 9c f1 fa 3c e8 6c ba bd
       0.013385979 0.076885924 0.030632786 -0.091028035
0003f0 0f 74 46 bd 5d c9 83 bc e2 d9 99 bd 0a 77 14 bd
       -0.048450526 -0.016087228 -0.07512261 -0.036246337
